practice13/model/prediction-net-state.pt (torch, 105952 bytes, 11 tensors)

model.param_proj.proj.0.weight f4 [1, 40]
000000 fd d1 b7 bd 19 08 97 3e 9c a0 ff bc df 26 96 bb
       -0.08975599 0.29498366 -0.031204514 -0.0045822705
000010 36 9f ed bd a6 a6 d4 3d 6b 37 c2 3d f0 4e 90 be
       -0.11602633 0.10383348 0.094832264 -0.28185225
000020 8d da 3a be 73 bb 2a be cf 7f a5 be 24 52 dd 3c
       -0.18247433 -0.16673069 -0.32324073 0.027016707
000030 40 d6 30 be 4c e0 2d 3d 98 d7 8b 3e da 9f 25 3d
       -0.1726923 0.042450234 0.27312922 0.04043565
000040 75 5a 9a 3e 33 e8 30 be 2f 98 0f bd 5d 37 a0 3d
       0.30147138 -0.17276077 -0.035057243 0.0782306
000050 b9 43 48 3e a0 a4 83 be 8a f6 8a be 85 15 13 3e
       0.19557084 -0.25711536 -0.2714122 0.14363678
000060 04 5f 66 be f9 5e 23 bd 7b e0 95 3b cc 22 00 be
       -0.22497183 -0.039885495 0.0045738793 -0.12513274
000070 b0 84 c2 3d 5f 03 00 bd d1 dd a4 bd df 19 8f be
       0.094979644 -0.031253215 -0.080501206 -0.27949426
000080 fc c6 00 3d 6c 43 01 3e fc 72 a9 3e 65 30 41 be
       0.031439766 0.12623376 0.3309554 -0.18866117
000090 49 09 c3 3d 28 44 15 be a6 00 84 bd 0a 20 94 3e
       0.095232554 -0.14576781 -0.06445436 0.28930694

model.param_proj.proj.1.weight f4 [1, 40]
000000 aa c1 ac bd d5 4f 89 3d b2 d7 47 bc 96 c0 82 3d
       -0.08435376 0.0670468 -0.012197422 0.06384389
000010 83 e2 fb bd 8b 0e b7 3c 9f 1a 0b 3e a9 97 cc bc
       -0.12299063 0.022345802 0.13584374 -0.024974661
000020 3f a7 a3 3d b4 ea 01 be dd ec 24 be c3 91 f0 3d
       0.07990884 -0.12687188 -0.16105981 0.11746552
000030 8d f8 37 be 35 4b 30 be d2 86 54 3d 07 a5 e9 ba
       -0.17965908 -0.17216189 0.051886387 -0.0017825671
000040 61 8a 4e 3d 42 3c 6e bd 4b ba 46 bd 69 58 0d 3e
       0.050424937 -0.058162935 -0.048517507 0.13803257
000050 36 64 f8 3c 38 b9 59 3b 5c 2f f4 3c b8 6e 35 3c
       0.030321222 0.0033221971 0.029807739 0.011073761
000060 b4 92 43 bd 2b 40 21 be e5 e6 f0 3d 13 b2 03 be
       -0.04774733 -0.15747134 0.1176279 -0.12860899
000070 a4 65 3b 3d a9 96 67 3d e8 64 87 bd d3 73 ea bc
       0.04575123 0.056540165 -0.06611043 -0.028619682
000080 55 76 5c bd ad b2 f1 3d d6 60 b2 3a 4a ba f3 bd
       -0.053823788 0.11801658 0.0013609182 -0.11900766
000090 1b 82 a6 3d db 4e c9 bd ca 94 c2 bd bd 01 ea bc
       0.081302844 -0.098294936 -0.095010355 -0.028565282

model.param_proj.proj.2.weight f4 [1, 40]
000000 0a cc 0f 3d e4 21 3a be 16 ef 4c 3e a2 07 65 3e
       0.035106696 -0.18176991 0.20013079 0.22366193
000010 5c 3e a9 3e 42 c4 24 be 1e 78 2f be 1c 22 85 3e
       0.3305539 -0.16090491 -0.17135665 0.26002586
000020 5b 69 83 3e 1b f5 82 bd 74 09 76 3e 13 33 91 be
       0.25666317 -0.063944064 0.24027044 -0.2835928
000030 f0 2d 30 3d 74 32 69 bc ec b7 87 be d3 fc 1d bd
       0.04301256 -0.01423322 -0.2650751 -0.03857119
000040 0a 0f 96 be bd 0b 64 3e 40 19 36 be e4 35 10 3d
       -0.2930835 0.22270103 -0.1778307 0.035207644
000050 e8 f4 a1 be c0 56 42 3e 88 c5 94 3e 87 0c fa bd
       -0.3163216 0.18978405 0.29056954 -0.12209421
000060 e0 31 92 3e 7b b4 37 3e be ec f0 3c 1b 5e 41 3e
       0.28553677 0.17939942 0.029409762 0.18883555
000070 19 cb 94 be 5b ce 86 ba 44 8f 8b 3e 6b fd 20 3e
       -0.290612 -0.0010284887 0.2725774 0.15721671
000080 33 da 44 be 73 a8 aa bd c9 8b 26 be 11 06 8f 3e
       -0.19223861 -0.083329104 -0.16264261 0.27934316
000090 63 f5 9c 3d 8e 22 55 3e 49 c9 de 3d dc 1b 8f be
       0.07663991 0.20813963 0.10878236 -0.27950943

model.rnn.weight_ih_l0 f4 [160, 32]
000000 24 ab 5b 3d 4e 3e ad 3d 23 3a f7 b8 1d b7 e5 3d
       0.05363001 0.08459149 -0.000117887066 0.11216567
000010 0c ab 27 3e c2 c2 ba 3d c6 84 58 3d c8 cc b3 3c
       0.16373843 0.09119178 0.052860998 0.021948233
000020 cf 9b 5a 3e b2 73 24 3d 3c ba 22 3d 5c 91 49 3d
       0.21348499 0.0401494 0.03972839 0.04921089
000030 97 96 08 3c 63 48 b1 bc 23 81 28 3d 36 b4 47 3e
       0.008336685 -0.021640962 0.04113878 0.19502339
000040 ba 58 68 3d 6d 0d ee 3c 1c 37 4d 3e 12 6c 21 3e
       0.05672524 0.029059136 0.20040554 0.15763882
000050 16 44 de 3d 8c d0 9f 3d 75 a2 71 3e 6f 0f e6 bd
       0.1085283 0.07803449 0.23597129 -0.112334125
000060 be 27 27 3e a3 04 7f bd 34 51 a7 3c 80 3a 9a bd
       0.16323754 -0.06226028 0.020424463 -0.07530689
000070 dd ef 05 bc 86 d6 57 bd 14 4d 52 3b 8f e2 10 3e
       -0.008174864 -0.05269482 0.00320894 0.14148925
000080 be 35 25 bd 15 28 6e 3c 10 dc 7f 3e 88 e3 83 bc
       -0.040334456 0.0145359235 0.24986291 -0.016099706
000090 dd 29 29 3e fb 12 f5 3c bf 75 02 3e 18 e9 4a bd
       0.16519876 0.029916277 0.12740229 -0.0495387
0000a0 dd 45 c7 3d e6 ea 57 3e 1e b0 00 3e 84 46 7c 3e
       0.09730122 0.210857 0.12567183 0.24636275
0000b0 45 c6 0c 3e 9c 3c c5 3d 93 10 44 3e 56 4c e6 3d
       0.13747509 0.09630701 0.19146948 0.11245029
0000c0 39 b8 15 3d 54 f1 91 3d 90 f2 d7 3d 02 5f 69 3e
       0.03655264 0.07126108 0.10544312 0.22790149
0000d0 9d 5c 9b bb 79 d7 6e 3d 00 38 7a 3e bc f2 b9 3d
       -0.004741265 0.05831096 0.24435425 0.09079501
0000e0 b0 4a e6 3c a6 4d d2 3d ae 8c 19 be 21 0c 7b be
       0.028111786 0.102687165 -0.14995071 -0.24516346
0000f0 c4 64 e5 3d 9b 5c 76 be 58 05 74 bd 1e 95 a7 3d
       0.1120086 -0.24058764 -0.05957541 0.08182739
000100 3f 68 ec 3d a4 6f c3 3d 34 51 52 bd 03 59 e6 3d
       0.11543321 0.09542778 -0.051346973 0.112474464
000110 88 b4 dd 3d 43 b8 f9 3d e0 f9 60 3d c3 88 07 bc
       0.10825449 0.12193348 0.0549258 -0.008272353
000120 a0 d1 45 3d 69 65 22 3e 2f 59 01 3e c7 4c 99 3c
       0.048295617 0.15858997 0.12631677 0.018713368
000130 e5 5a 7d bc 0b 35 14 3e 99 5f 82 3b 46 10 f4 3d
       -0.0154635655 0.1447336 0.0039786813 0.119171664
000140 35 ff 86 bd 28 76 aa 3d ad 86 cf bb f2 04 ec 3d
       -0.06591646 0.08323318 -0.0063331933 0.11524381
000150 17 04 49 3b f5 ce 70 3e 37 d6 47 3e b6 c9 0b bd
       0.0030672604 0.23516448 0.1951531 -0.034127913
000160 8e 6c ea bc b4 81 67 3d 26 6e bf bc f1 9e 69 be
       -0.028616216 0.05652018 -0.023367953 -0.22814538
000170 db 18 e9 3c 00 a4 28 be 2e 5b 5e be e2 49 78 3e
       0.028454235 -0.16468811 -0.2171447 0.24246934
000180 2c 8e 98 3d d9 71 13 3e 2c 74 79 3e 29 52 6d 3e
       0.07448992 0.14398898 0.24360722 0.23175873
000190 0f 3c 2b 3e 43 f3 90 bb d6 30 7c 3e 50 79 42 3e
       0.1672213 -0.0044235303 0.24628004 0.1899159
0001a0 29 bb c1 3c 48 69 ba 3d 45 0d 44 3e 51 8e 32 3e
       0.023648815 0.09102112 0.19145687 0.17437102
0001b0 9e 6e d2 3d 45 65 0a bc 3e 44 66 3e 1b ad b0 3d
       0.10275005 -0.008446996 0.2248697 0.08626767
0001c0 55 e9 37 3e 6a 4e 52 bd 17 0a 30 3e 08 60 64 bd
       0.17960103 -0.051344313 0.17191349 -0.055755645
0001d0 f3 70 08 3e ea 98 92 3d 04 48 12 bd c4 56 2c bd
       0.13324337 0.07158072 -0.03571321 -0.042074934
0001e0 a0 40 81 3e 1d 77 9d bb 6c 17 d0 bc d2 8f 7e be
       0.25244617 -0.004805459 -0.025401793 -0.2485955
0001f0 5b 49 d5 3d 24 b3 2c 3b 43 42 3f be da 69 d9 3d
       0.10414382 0.0026351893 -0.1867762 0.10615893
000200 bb 3b cd 3d 5a 13 9a 3d 99 59 1b 3e a9 47 3f 3e
       0.10021158 0.07523222 0.15170898 0.1867968
000210 ed 8d 8f 3d a5 74 3b 3e df 92 10 3e 35 01 59 3e
       0.07009492 0.18306215 0.14118527 0.21191867
000220 8d 4e 05 3d 82 3d c5 3d 59 ad 54 3e e4 4a 1c 3e
       0.032545615 0.09630872 0.20769252 0.15262944
000230 92 4a 94 3d af 15 6b 3e 8b 21 ef 3d 09 a5 27 3e
       0.07240786 0.2295749 0.1167632 0.1637155
000240 e9 01 2b 3e 26 37 15 bd bb a9 55 3e 77 59 b3 bc
       0.16699947 -0.036429547 0.20865528 -0.021893246
000250 25 7c f5 3d 45 fb 12 3c 03 d3 5f 3c ed fc 6e 3c
       0.11986569 0.00897104 0.013661149 0.014586669
000260 51 ca 23 3c 9d de d6 3d 5d fa 8e 3d d6 3d b0 ba
       0.009996966 0.10491679 0.06981347 -0.0013446163
000270 fa 1d df 3d 58 70 47 bc 54 b9 56 be bd 04 53 3e
       0.108943895 -0.012172781 -0.20969135 0.20607276
000280 5f e6 c2 3c 55 9c 25 3d 5c f0 1d 3d 6c 77 4f 3e
       0.02379149 0.040432293 0.038559303 0.202604
000290 1f a0 13 3e 71 80 42 3e 2a 5c 45 3e bb ee 6f 3e
       0.1441655 0.18994309 0.19273439 0.23430912
0002a0 30 88 a9 3c 0b 8f d9 3d 5e ae 6a 3e 93 ab 61 3e
       0.020694822 0.106229864 0.22918078 0.22038107
0002b0 41 6b 0f 3e b4 fe 38 3e 1b 94 45 3e 76 d2 b3 3a
       0.14005758 0.18065912 0.19294779 0.0013719338
0002c0 1e 4f e7 3d 93 2f 4a 3e c5 fb 0d 3e f7 3e d2 3c
       0.11294387 0.1974471 0.13865574 0.02566479
0002d0 02 db 80 bc 69 ca 82 3d 4f f3 89 3d 80 98 38 bd
       -0.015729431 0.06386263 0.067358606 -0.04506731
0002e0 95 88 b5 3c 4c cb a4 bd 68 74 ed bd ae 7f e3 bd
       0.022159854 -0.08046588 -0.11594468 -0.11108337
0002f0 a1 52 33 3c 16 44 3e be 7c 69 5a be f0 03 15 bd
       0.010944993 -0.1858066 -0.21329302 -0.03638071
000300 19 80 af 3c cf b4 c0 3c 16 30 35 3e 1e 18 8c 3e
       0.021423386 0.023523716 0.17694125 0.2736215
000310 60 91 17 3e de 52 b0 3c 4a bb 84 3e 66 bf 80 3c
       0.1480155 0.02152389 0.2592414 0.015716266
000320 41 09 48 3e d2 25 a1 3d eb ed cf bc 61 0e ba 3d
       0.1953478 0.07868542 -0.025382003 0.09084774
000330 2e 8c 42 3e fd 9c fb 3d dd e8 21 3e 8a 94 13 3e
       0.18998787 0.122858025 0.15811487 0.14412132
000340 6d b9 15 3b c1 49 6e 3d 4b 17 82 3e 08 db 06 3d
       0.0022846118 0.058175806 0.25408396 0.03292373
000350 ce ed 30 3e ac 7b 17 3e 5b ad 15 3c 15 41 ff 3d
       0.17278215 0.14793271 0.009135569 0.12463585
000360 27 ac 89 3e 80 c1 c1 3d 0f 89 1a bc 18 5a 41 be
       0.26889154 0.09460735 -0.009432091 -0.18882024
000370 0d 25 63 bd 0f f2 02 be 04 a5 90 bd ce e2 13 bd
       -0.055455256 -0.1278765 -0.07062724 -0.03610497
000380 0c 8b 19 3e 02 c7 59 3e 5c a7 92 3c 03 fa ae 3d
       0.14994448 0.21267322 0.017902069 0.0854378
000390 85 23 dd 3d 28 9f 84 3c 7c e8 f7 3d e9 da 53 3e
       0.107977904 0.016189173 0.1210489 0.20688976
0003a0 79 0e a4 3d 31 02 52 3e 77 6c 41 3e 24 cd 0d 3e
       0.08010573 0.20508648 0.18889032 0.13847786
0003b0 96 33 5a 3e 2a 05 30 3e a0 25 34 3c 91 13 0b 3e
       0.21308741 0.1718947 0.010995299 0.13581683
0003c0 00 dc 04 ba 10 dc 1f bd 96 64 11 3e b0 16 a5 bc
       -0.0005068183 -0.039028227 0.14198527 -0.02015242
0003d0 34 e2 d0 3d 8d 65 56 bd 48 37 83 bc 94 86 77 3d
       0.10199395 -0.05234294 -0.016017571 0.060431078
0003e0 4f f7 ec 3d de df e3 3c e2 49 f2 bd a7 bc 12 3d
       0.11570608 0.02781671 -0.11830498 0.035824444
0003f0 36 03 5b bd 9f 90 78 3d 8b ba 52 be 16 4b 1f bc
       -0.05346986 0.060684796 -0.20578973 -0.009722492

model.rnn.weight_hh_l0 f4 [160, 40]
000000 f9 17 e5 bd 49 6c 2b bd 24 68 8c bd cb 23 f7 bc
       -0.11186213 -0.041851316 -0.06855801 -0.030168435
000010 51 e3 ca 3c 56 87 40 3d d9 9d 3b 3c 8e 0d f3 bd
       0.024766596 0.047004066 0.011451208 -0.1186782
000020 b6 9b 50 bd 35 7e 52 3c 05 63 8a 3c a3 98 da 3d
       -0.050929748 0.012847473 0.01689292 0.106736444
000030 42 c7 51 3d 11 6d e6 bd 9a 9f 1f 3b 6c 8d 94 bd
       0.051215418 -0.112512715 0.0024356605 -0.072535366
000040 f2 e9 5a bd 0f eb ae 3d 3c 23 5d 3d ac 23 85 3d
       -0.053445764 0.085409276 0.05398868 0.065009445
000050 22 cd 61 bd 55 31 9c bd b9 95 44 3d bf 6e fb bc
       -0.05512727 -0.07626597 0.04799435 -0.030692456
000060 e1 ff 8e 3d 5f 08 91 3a 51 b9 09 3d 31 7e 17 bd
       0.06982399 0.0011065117 0.033623997 -0.03698558
000070 bb 7d 03 3c a3 40 96 bd 24 1a 7d 3b aa bd 97 bd
       0.008025582 -0.07336547 0.0038620317 -0.074092224
000080 cd e5 5b bd 56 96 f4 bc 92 6c 05 3e 44 4d 5a bd
       -0.053685952 -0.029856842 0.13029698 -0.053296342
000090 25 0e b6 bd 14 b2 78 3d ea a5 d0 bd ba 7e 9e 3d
       -0.088894166 0.060716704 -0.101878956 0.07739015
0000a0 5a bc 2c 3d 79 fe 7b bd 26 89 91 bd 28 f3 5e 3b
       0.042171814 -0.06152198 -0.07106237 0.0034019444
0000b0 2d 5f ad bd ac 65 95 bd be d4 8d bd b7 43 b2 bd
       -0.08465419 -0.07294783 -0.06925343 -0.08704322
0000c0 82 d5 83 bd d5 d6 85 bc a2 c3 b9 bd bf 60 ce 3d
       -0.06437208 -0.016337791 -0.09070517 0.100770466
0000d0 de 95 f6 bd 69 fa 03 bd 20 19 f3 bc 3e bb 29 bd
       -0.12040304 -0.03222123 -0.029675066 -0.041438334
0000e0 1b 25 7b 3d 96 c0 8c bd c9 e1 e0 bd 53 c9 af 3d
       0.061314683 -0.0687267 -0.10980565 0.085833214
0000f0 47 4c 01 3d eb 04 72 bc 60 ef e5 3c cd 33 ce 3c
       0.031566884 -0.01477168 0.028068244 0.025171185
000100 d5 61 02 3e 80 ab fc bd 48 b5 15 3d e8 2c cd bc
       0.12732632 -0.123373985 0.036549836 -0.025045827
000110 60 45 7d bd ff a5 42 3b 78 f6 f2 bd 8d 98 2f 3d
       -0.06183374 0.0029700992 -0.118634164 0.042870093
000120 13 e1 bc bd 53 8d 79 bc a9 10 e4 bd 8f 57 3d 3d
       -0.09222617 -0.015231448 -0.1113599 0.04622608
000130 f2 38 4b bc bd 96 7b 3d 3b 49 96 bd 8e 4a 01 be
       -0.012403714 0.061423052 -0.07338186 -0.12626097
000140 44 4e 4d 3d 4e 5d f0 3d 95 46 97 bc 69 22 c8 3d
       0.050123468 0.117365465 -0.018466273 0.09772188
000150 ce 65 eb bd ee 4e a4 3d b2 4c 67 bd 3d 12 04 3e
       -0.11494027 0.08022867 -0.056469627 0.12897582
000160 a7 3a 21 bd 75 b5 45 bd 49 d6 90 3d 85 d1 a3 bd
       -0.039362576 -0.048268754 0.07072122 -0.07998947
000170 21 31 5a 3d cb 32 cb 3d a7 b6 86 bd d8 92 f0 bd
       0.05326951 0.09921797 -0.06577807 -0.11746758
000180 0d 7b 9d bd ad 2e 01 3e 0a 25 d6 3a 38 36 3d 3d
       -0.07689486 0.12615462 0.0016337943 0.046194285
000190 8c 33 8e bd 86 fb 05 be 97 dd 8a 3d 7b d6 93 bd
       -0.069434255 -0.1308423 0.06780546 -0.07218643
0001a0 f5 7b c1 bd a7 88 eb bd e2 46 7a 3d f4 cf aa bd
       -0.09447471 -0.11500674 0.061102755 -0.08340445
0001b0 99 1e bb 3d 1e 53 b2 bd b3 c7 d2 bc 9b 9f 16 3d
       0.091366954 -0.087072596 -0.02572999 0.036773305
0001c0 7d 2c 9e 3d 28 88 b6 3d ad 49 c6 3c d6 18 7d 3c
       0.07723329 0.089126885 0.024205053 0.015447816
0001d0 b5 b3 14 ba cd dd 3e bd e2 38 80 3c 06 cf 4d 3d
       -0.00056725304 -0.046598244 0.015652124 0.05024626
0001e0 cd 0e ff 3d 98 23 c6 bd 49 e7 a5 3b e4 33 f0 3d
       0.12453995 -0.09674758 0.0050629717 0.11728647
0001f0 5c 38 a7 3d 09 bd 94 bd 3b ef a7 bd de 4a 2d 3d
       0.081650466 -0.07262618 -0.081999265 0.042307727
000200 ca 6f f6 3c c2 f7 62 3c eb 8a ab bd 32 63 06 be
       0.030082602 0.013853015 -0.08376106 -0.13123778
000210 49 a8 c4 bd ec 19 d3 3d 63 15 19 3b 54 2e c8 3d
       -0.0960241 0.103076786 0.0023358695 0.097744614
000220 6d e6 8f 3d ca 0d a4 3d 54 5f 70 bd 12 b4 b1 3d
       0.07026372 0.080104426 -0.058684662 0.08676924
000230 68 e2 f7 bd c0 35 9c 3d 4b 52 b2 bc 7e 05 47 bd
       -0.121037304 0.076274395 -0.021767756 -0.048589222
000240 54 2e 7f 3d fc 9f 42 3d 09 ff 22 3d 4a 6c fb bd
       0.06230004 0.047515854 0.039794 -0.12276514
000250 ab 72 6f 3d 81 8d 43 bd 7c 9f aa 3d c7 38 0b bd
       0.058458965 -0.04774237 0.083312005 -0.033989694
000260 72 fb 9a bd 27 f2 ce 3d 3d a1 54 bd d4 6a f9 bd
       -0.07567491 0.10104781 -0.05191158 -0.12178579
000270 c6 75 c0 3d a7 98 32 3d 08 27 83 3d af 58 01 3e
       0.093974635 0.043602612 0.06403929 0.12631486
000280 f2 15 9a 3c 2b 5e 07 3e 87 bb 85 3d b6 c1 d5 3d
       0.018809292 0.13219516 0.065299086 0.10437338
000290 ab 9b 44 bd 44 12 eb 3d 54 4d fb bd 31 c9 e8 bd
       -0.04800002 0.11478093 -0.122706085 -0.11366499
0002a0 53 c5 95 3d 2e ad 41 bd fe 4c 9c bd 8d f8 ac 3c
       0.07313027 -0.047284298 -0.076318726 0.021114612
0002b0 3b 01 70 3d e3 e8 d6 3d 3a a4 3b bc 62 d6 ad bd
       0.058594923 0.10493638 -0.011452729 -0.08488156
0002c0 94 fa fd 3c 27 a6 27 bd a8 51 85 bd 21 7d 82 3d
       0.031003274 -0.04092994 -0.06509715 0.06371523
0002d0 b7 af 99 bc 12 2e 6f 3d 91 f1 0d bb 34 0d 16 bd
       -0.018760545 0.058393545 -0.0021658877 -0.036633685
0002e0 14 61 14 3d 5b 59 fb bd 42 64 11 bd d8 bc 93 3d
       0.036225393 -0.122729026 -0.035496004 0.072137535
0002f0 00 f2 1c 3d 64 d9 99 3c fe b3 b8 3c e2 11 44 bd
       0.038316727 0.018780418 0.022546764 -0.047868617
000300 83 c3 ae bd d7 a0 9b 3d 94 0b 08 bb b8 dc ec 3b
       -0.08533385 0.07599037 -0.0020758854 0.00722846
000310 8a f1 ff bd 8d cf 07 3e c6 92 39 3d a5 50 d9 3d
       -0.12497242 0.13262768 0.04530599 0.10611085
000320 40 0a cb bd 8c 54 c1 bd 31 01 99 3d 0d 4e 95 3a
       -0.099140644 -0.09439954 0.0747093 0.0011391059
000330 c8 1b bb 3d 7c b0 04 3e bd 9b 77 3d 86 a8 46 3d
       0.09136158 0.12957948 0.060451258 0.04850056
000340 60 b5 c3 bd 59 ff ea bc 3a 9c e0 3c 10 62 ac bd
       -0.09556079 -0.028686212 0.027418245 -0.084171414
000350 b1 57 68 3d 6a 64 61 3d f3 7d fb bc b3 50 44 3d
       0.056724254 0.055027403 -0.030699706 0.047928523
000360 2a 07 09 bd c6 b2 c5 3c c8 48 b4 bd a4 e4 ab 3d
       -0.033454098 0.024133097 -0.088029444 0.08393219
000370 37 e4 c4 3d df 8a 9a 3d e2 79 72 3d 2e ab 13 bd
       0.09613841 0.07546019 0.059198268 -0.03605192
000380 c8 d0 a1 3d 7d e8 91 3d 61 75 70 3d 44 48 81 bd
       0.0790115 0.07124422 0.05870569 -0.06312612
000390 82 6b c1 bd b2 dc be bd f3 f5 3a 3c b6 df a0 3c
       -0.094443336 -0.09319438 0.011411178 0.019637924
0003a0 01 20 c1 bc cd fb 9b 3d 3f 90 7a bd ed cf 73 bc
       -0.023574831 0.076163866 -0.06117272 -0.014881116
0003b0 0f 5c b6 bd 5d 34 27 3c 08 51 24 3d 17 41 77 3d
       -0.089042775 0.0102053555 0.04011634 0.06036481
0003c0 a8 39 d2 3d d8 48 a1 bd ab 41 c5 bd d0 33 b4 bd
       0.10264903 -0.07875222 -0.09631666 -0.08798945
0003d0 e9 3b cc bd 7e 60 ea bc 48 83 89 bd 2a 4d ae 3d
       -0.099723645 -0.028610464 -0.06714493 0.085108116
0003e0 43 b5 94 bb ac c2 45 3d c9 eb 05 bc a4 97 a6 3d
       -0.0045382096 0.048281357 -0.008173891 0.08134392
0003f0 c4 dc 05 3e f1 cb 76 3c 0f f9 8c 3d b2 f5 96 3d
       0.13072497 0.015063272 0.06883442 0.073710814

model.rnn.bias_ih_l0 f4 [160]
000000 c2 f8 79 3e cc 7c c7 3d 03 b2 b5 3d 6a 59 42 3e
       0.244113 0.097406 0.08871844 0.18979421
000010 5b f3 3a 3e bc bc 23 3c 5e 88 42 3e 14 a6 69 3c
       0.18256895 0.009993728 0.18997332 0.0142607875
000020 62 9e 60 3e 49 f9 0c 3e 1a 79 d0 bc 4b 70 09 3d
       0.21935418 0.1376697 -0.02544837 0.033554357
000030 c0 73 d5 bc 88 52 0c 3e 93 29 19 3e f5 9c 2c 3e
       -0.02605617 0.13703358 0.14957266 0.1685675
000040 31 3d 64 3e 91 b9 b5 bc 7f 09 2d bd a2 50 3f 3e
       0.22288968 -0.022183212 -0.042245384 0.18683103
000050 de df ea bc aa 4d f4 bc 62 9e 1b 3d ee 50 10 bd
       -0.028671201 -0.02982219 0.037992842 -0.03523343
000060 a2 9e c4 bb d4 39 30 3d 51 5a 49 3e d6 b7 d4 3b
       -0.006000356 0.0430239 0.19663359 0.0064916415
000070 12 d4 68 3d 4c 34 7b 3c e4 74 26 3d c5 76 45 3e
       0.05684287 0.015332293 0.04063882 0.19283588
000080 ad 9f 90 bd 73 f1 d5 3d a9 dc 69 bd 02 6c 8d bd
       -0.07061706 0.104464434 -0.057095204 -0.069053665
000090 99 69 8c 3d f7 c9 d9 3d 63 6d 15 3e 7e bb e8 3d
       0.06856079 0.10634225 0.14592509 0.11363886
0000a0 33 30 5e 3d 84 04 2c 3d 93 ab df 3d a1 b7 f6 3d
       0.054245185 0.041996494 0.10921397 0.12046743
0000b0 f3 f3 98 3c de 92 cb 3d dd fe ab 3d 3f 0a 07 be
       0.018671012 0.09940122 0.08398221 -0.13187502
0000c0 8c 29 ef 3d 23 00 7c 3c b3 2a ae 3d de e1 eb bd
       0.11677846 0.015380892 0.08504238 -0.1151769
0000d0 55 94 5e 3d ad b2 2f 3d 10 92 31 bd 96 f6 bb 3b
       0.05434068 0.042895008 -0.043352187 0.0057361824
0000e0 a7 f4 d6 bc 20 13 9e 3d dc fc 9d 3c 70 61 b2 bd
       -0.026239706 0.077184916 0.019285612 -0.08709991
0000f0 85 93 e0 3d 9b 0a b5 bd e1 d7 b3 bc 40 92 f7 bd
       0.10965637 -0.088399135 -0.021953525 -0.12088442
000100 a0 d3 a0 bd 0f 74 ea bb a7 9a f9 3d d9 c2 45 3c
       -0.07852864 -0.0071549485 0.12187701 0.012070381
000110 2b 2e d4 bd 7c 2a ef 3d 1f d2 f7 3c 59 3e e0 38
       -0.10360368 0.11678025 0.03025156 0.000106927655
000120 53 90 43 bd de 08 87 bd 10 0b 11 bd bc 7e 6d bd
       -0.04774506 -0.06593488 -0.03541094 -0.05798219
000130 b0 54 a0 3d ea 2d ac bd 90 33 a1 bd 4b ec 56 3d
       0.07828653 -0.08407195 -0.07871163 0.05247144
000140 8f 13 42 3c bf 16 25 be 39 f6 1b 3d 35 01 fb 3d
       0.011845483 -0.16121958 0.038076613 0.122560896
000150 75 f1 23 be a0 83 7d bd 20 37 4b be f3 fb 7b 3d
       -0.16010077 -0.061893106 -0.19845247 0.061519574
000160 fa ec 3c be 09 fc 72 3e 3b 2e 8c bd f6 3f 5b 3d
       -0.18449774 0.23728956 -0.06844755 0.053527795
000170 ee f5 b0 3c 7f 4e 89 bc b4 a6 38 3c ab 35 b3 bd
       0.021601643 -0.016761063 0.011270214 -0.08750471
000180 f0 01 c4 3d 96 39 e6 3d 1e 1e 89 3d 5b 56 10 3e
       0.09570682 0.112414524 0.066951975 0.14095442
000190 92 12 ac bd 4a 68 32 be 0e 33 e7 bc d4 f1 a4 3d
       -0.084019795 -0.17422596 -0.028222587 0.080539376
0001a0 65 8e 8e bd 84 1b 06 3d 3e eb 64 bd 36 f4 b8 bd
       -0.06960753 0.032741085 -0.055888407 -0.090309545
0001b0 a2 c9 59 3e 65 b8 82 3d ee b1 63 3d ef a1 4e 3e
       0.21268323 0.06382827 0.05558961 0.2017896
0001c0 a9 15 45 3e f1 72 d3 3b 1b 12 8a 3c 19 6d 2a be
       0.19246544 0.006452911 0.016854336 -0.1664318
0001d0 c3 44 58 3e ed 69 4f 3e 80 7a 9a 3d ef c4 bb bd
       0.2111998 0.20255251 0.07542896 -0.091684215
0001e0 86 46 de 3d 4f 3e b8 3d 02 d7 32 3e 3d db 90 3d
       0.10853295 0.089962594 0.17464831 0.070730664
0001f0 20 ef 0d 3e 96 5a 58 3e 06 1b a1 bc ff 34 73 3d
       0.1386075 0.21128306 -0.019666206 0.059376713
000200 82 fe 69 3e c8 c8 5b 3e fa 03 45 3e fd 01 08 3e
       0.22850993 0.2146331 0.19239798 0.13282008
000210 18 f7 0e 3e a0 13 b9 3d c8 87 50 3e 28 15 c7 3d
       0.13961446 0.09036946 0.20364296 0.09720832
000220 d0 c0 6a 3d 28 6e 56 3e 52 a3 2b bc 22 14 35 3e
       0.057312787 0.20940459 -0.01047595 0.17683461
000230 36 76 19 3e 91 48 32 3e 4c c8 70 3c 5d 15 35 3e
       0.149865 0.17410494 0.014696192 0.1768393
000240 65 2b 04 bd 18 d5 30 3e 11 d4 14 bd c4 55 15 3e
       -0.032267947 0.17268789 -0.036335055 0.14583498
000250 a9 f8 ce bc c9 40 35 bd 99 cc 26 3d 65 11 64 3e
       -0.025265055 -0.044251237 0.040722463 0.2227226
000260 10 ab be 3d 2e 71 aa 3c 01 0e 75 3e 4b a0 49 3e
       0.09309971 0.020805921 0.23931123 0.19690053
000270 3e 6d d7 3d 8a fd 46 bc 5a cd be 3d 8b 2c 59 3e
       0.10518883 -0.012145409 0.093165115 0.21208398

model.rnn.bias_hh_l0 f4 [160]
000000 46 da 74 3e 8f 89 70 3e 05 57 a5 bb 33 fc c7 bc
       0.2391139 0.23489974 -0.005045774 -0.02441225
000010 15 85 5b 3d bd 98 32 3b 35 6c 39 3e 82 22 8f 3d
       0.053593714 0.0027251684 0.18107684 0.06989004
000020 d5 ba 00 bd 46 20 03 3e fc 1b 4c 3e e3 8c 41 3e
       -0.031428177 0.1280528 0.1993255 0.189014
000030 c9 70 1e 3e 70 89 d8 3c 98 74 25 3e 74 98 0e 3e
       0.15472712 0.026432723 0.16157758 0.13925344
000040 73 eb 62 3e d7 14 31 3d af 71 dc 3d 49 0b e2 3d
       0.22160129 0.043232765 0.10763871 0.11037309
000050 aa ce 8b 3d a7 96 33 bd 37 49 02 3c 1f 4f 44 3e
       0.068265274 -0.043844845 0.007952026 0.19170807
000060 b3 90 ab bc c5 f4 fe 3d 3d b2 7b 3e 20 17 76 3e
       -0.020943021 0.1244903 0.24579711 0.24032259
000070 79 07 34 bd 88 75 3b bd 78 a4 76 3c 08 36 95 3c
       -0.04395244 -0.045766383 0.015053861 0.01821424
000080 7d 5c 11 3e 34 2f 6c 3e 12 89 df bc 94 5f ef 3d
       0.14195438 0.23064882 -0.02728704 0.11688152
000090 8e c3 3b 3e 5a c9 4c 3e f5 57 6c 3e 30 fb 66 bb
       0.18336317 0.19998685 0.23080428 -0.0035244934
0000a0 fc d3 f2 bb a0 d4 fe 3d f6 2e 6e bc 30 1f 05 be
       -0.0074105244 0.12442899 -0.014537564 -0.13000178
0000b0 b5 eb 19 bc 2a 5d cf bd 59 7e 59 3d d8 cc 60 3d
       -0.009394576 -0.101251915 0.05309901 0.054882854
0000c0 0a 52 5f bd c3 19 ca bd 5a ed cd 3d 9e 2e b8 bd
       -0.054521598 -0.09868195 0.10055037 -0.089932665
0000d0 fd e0 77 bd 17 d9 70 bd 75 df 98 bd 8b 2f c6 bc
       -0.0605173 -0.058800783 -0.07464496 -0.024192592
0000e0 9a ae b5 3d de 23 c3 3d 15 f7 c8 3c eb 24 cc 3c
       0.08871193 0.095283255 0.02453188 0.024919948
0000f0 cb 8c 3e 3c 4a 07 51 bd 73 a2 d2 3d f0 ec 72 bd
       0.011630247 -0.051032342 0.10284891 -0.059307992
000100 c4 d8 c0 3d 07 c0 8e b9 bb 61 36 bd 03 63 01 be
       0.09416345 -0.00027227422 -0.044526797 -0.12635426
000110 61 26 5a bd 8b d5 51 3d a7 04 6a bd cc 51 34 bd
       -0.053259257 0.05122904 -0.057133343 -0.04402332
000120 ac da ae bd d8 dd ab bd 31 a7 07 be 4c 99 59 3a
       -0.08537802 -0.08391923 -0.13247372 0.0008300736
000130 46 34 6e bd 0e 0c 99 bc fe 28 62 bd e6 a6 4d 3d
       -0.05815532 -0.018682506 -0.055214874 0.050207995
000140 07 b8 8a bc 90 50 d2 bd 7f 6d 0a bd 86 b5 71 3b
       -0.016933454 -0.10269272 -0.03379583 0.0036881878
000150 60 79 07 be 08 a3 74 bd 78 d8 1e be 36 79 23 3e
       -0.13229895 -0.05972579 -0.15512264 0.15964207
000160 d2 4a 07 be 9a 8f 89 bd b8 1e 51 be 67 f5 bc 3c
       -0.13212135 -0.06716843 -0.20421875 0.023066236
000170 d6 1b 0e be 4d 63 36 3d 2d b8 5c 3e 19 d3 5d be
       -0.13877806 0.044528294 0.21554632 -0.21662559
000180 69 a9 4d 3d 97 ca 92 3d 82 00 9a 3d 78 c3 c6 3d
       0.05021039 0.07167547 0.07519628 0.097052515
000190 52 f5 c4 bd 77 3f 95 3d 35 7b 8f 3d fe 10 de bd
       -0.09617104 0.072874956 0.07005922 -0.10843085
0001a0 7f 9d 95 3c 80 db 54 bd 8f 4e 27 3e 9b 94 91 3c
       0.018263577 -0.051967144 0.16338561 0.017771056
0001b0 1b 7c 88 bc 18 89 42 3e 52 37 66 3e 8d e4 ab 3c
       -0.01666074 0.1899761 0.2248204 0.020983005
0001c0 da bd 8a 3d 51 2f 49 3e 78 80 26 be 4e da 90 3d
       0.067744926 0.19646956 -0.16259944 0.07072888
0001d0 3c 5f 42 3d 28 19 9a bd 75 03 73 3c c0 0d 93 bd
       0.047454104 -0.075243294 0.014832367 -0.07180357
0001e0 87 42 fa 3d 9b bc 7e 3e 4c 69 ca 3d 65 9b 22 bc
       0.1221972 0.24876635 0.09883365 -0.009924744
0001f0 6b 60 28 3e 9d 1b 10 3e 20 a0 99 3b b4 56 91 3d
       0.1644303 0.14073034 0.004688278 0.070966154
000200 93 32 ed 3c be ec 65 3e 5d 08 db 3c 13 f6 37 bc
       0.02895478 0.22453591 0.026737386 -0.011228102
000210 4c 1e b8 3d 08 07 68 3e b9 60 7f 3e 74 17 cd 3d
       0.08990154 0.22658932 0.2493924 0.10014239
000220 5e 62 2c 3e 30 ea 77 3e 3b c3 7d 3e 49 9d 13 bd
       0.16834399 0.24210429 0.24781506 -0.03603867
000230 b6 5b 74 bc 76 48 3d ba 44 6d 81 3d 55 ea 63 3d
       -0.014914444 -0.00072205754 0.06319669 0.0556434
000240 97 5d d2 3d 60 00 50 3e 70 1d e2 3c a4 36 f5 3d
       0.10271757 0.20312643 0.027601928 0.119733125
000250 e6 47 09 3d 95 5e 48 3e 35 46 69 3d ae 83 27 3d
       0.033515833 0.1956733 0.05695172 0.040897064
000260 fc a1 b6 3d 9f 94 e8 3c 44 eb a5 3c e2 46 e7 3d
       0.08917615 0.02839118 0.020253785 0.11292817
000270 6a 3d 2b 3e 45 e2 30 3e 49 7e 42 bc e2 03 e3 3d
       0.16722646 0.17273815 -0.011870929 0.11084725

model.rnn.weight_ih_l1 f4 [160, 40]
000000 57 cf 37 3e 79 ad 24 3e 22 04 32 3d 64 69 22 be
       0.17950188 0.160818 0.043460973 -0.15860516
000010 69 89 c5 3d 57 d3 c2 3c ae 99 34 3e 7e 0e 45 be
       0.096453495 0.023782415 0.17636749 -0.1924381
000020 5e 11 1b 3d 75 7b 4b bc 43 b1 bf 3d de a3 00 bd
       0.03785836 -0.012419571 0.09359982 -0.031406276
000030 6b b8 91 3b 87 f9 4d 3d c1 93 0d bd b9 f1 40 3e
       0.004447033 0.050286796 -0.034564737 0.1884221
000040 85 30 19 be 9b e9 97 3c ad 32 a8 bc 0b f3 b4 bd
       -0.14959915 0.018544009 -0.020531977 -0.08835419
000050 5d fb 1a 3e eb 86 4d bd 50 88 d8 bd 51 a6 ef bd
       0.1513495 -0.050177496 -0.105728745 -0.11701644
000060 08 de fa bc 90 19 83 3c d3 e2 52 3d 37 1a a4 3d
       -0.03062345 0.0160034 0.051485848 0.080128126
000070 63 2d f3 bd 94 d3 8f 3d 9a 33 f9 bd 5d 87 e8 3d
       -0.11873891 0.07022777 -0.12168045 0.113539435
000080 ac 85 b7 3d 16 03 a2 3d bf aa ca bd 2a e6 18 3c
       0.08961043 0.07910745 -0.098958485 0.009332219
000090 f3 21 52 3c 31 e3 31 be 1d dd e7 bc d0 d0 f3 3d
       0.012825477 -0.17371823 -0.028303677 0.11905062
0000a0 1b 32 33 be 7b 60 cf bd 42 cb 14 bd 79 37 41 bd
       -0.17499582 -0.10125824 -0.036326654 -0.047172043
0000b0 27 03 67 bd e4 15 e7 3d 99 31 d2 bd c0 ea e4 bc
       -0.05639949 0.11283472 -0.10263366 -0.027943969
0000c0 ff 26 d7 bd 66 c3 82 bc d0 93 2f be 44 a5 dc 3c
       -0.10505485 -0.015962314 -0.1714623 0.026934274
0000d0 30 b2 d8 bd 1d 47 fb 3d 2d 70 3c 3d ff 6e bd bd
       -0.105808616 0.12269423 0.046005417 -0.092496864
0000e0 da 7f a9 3d 43 c7 25 bc 57 aa 80 bd 21 5d 04 3e
       0.08276339 -0.0101183085 -0.0628249 0.12926151
0000f0 9c e9 b9 bd 8a a4 53 be 19 e0 b1 3c 3d 6d 1d bd
       -0.090777606 -0.20668235 0.021713303 -0.038434256
000100 4e a2 0b ba a2 17 d5 3d 2e 9a 23 3e cd 56 29 3d
       -0.00053266145 0.10404898 0.15976784 0.041342545
000110 12 48 71 bb 5b 25 7b bc 0d f1 15 3d 73 38 a6 bc
       -0.003681664 -0.01532873 0.036606837 -0.020290589
000120 43 6c 20 3e f4 a0 21 3e 85 d4 56 3d 2f 05 e2 3d
       0.15666299 0.15784055 0.05244877 0.11036145
000130 c0 69 46 3e b8 a6 04 bd e9 bb e3 bd 79 4b 61 bd
       0.19376278 -0.032385558 -0.111198254 -0.055003617
000140 a6 c2 14 be af c3 b4 bd 1f 83 c6 bd 6f 8b a7 3c
       -0.14527377 -0.08826386 -0.09692978 0.02045223
000150 dd 64 78 be 54 f8 54 3c 3a ad 23 be 07 a8 45 3e
       -0.24257226 0.012998659 -0.1598405 0.19302379
000160 d5 9a 60 be cf b0 b5 3d fd 1a 18 be 38 20 97 3e
       -0.21934064 0.08871614 -0.14854045 0.29516768
000170 5c f7 fc bd a5 95 2d 3e a8 35 aa 3d 73 16 a7 bc
       -0.123518676 0.16951616 0.08311015 -0.020396447
000180 15 5c b7 3d 99 3a a9 3d 32 bd 26 3e f7 6d f1 3d
       0.0895311 0.0826313 0.1628311 0.11788552
000190 2d a9 c4 bc 93 8e 1b be ad c2 0a bb c2 6b 49 be
       -0.02400645 -0.15191106 -0.0021173165 -0.19670013
0001a0 fa 46 2e be 13 ec 68 be a4 65 07 3e f6 8a d9 bd
       -0.17019263 -0.22746305 0.13222367 -0.10622208
0001b0 20 5d 61 3e f8 76 01 3e bb 5d 3b 3d 1e cd 39 bc
       0.2200818 0.12643039 0.045743685 -0.011340408
0001c0 84 14 0d 3e 5a c8 84 3e 98 3a e9 bd f6 1f e1 bd
       0.13777357 0.25934106 -0.11388129 -0.10992424
0001d0 54 3c 5f 3e 66 65 8e 3e cf f3 10 3e 8a c2 0a be
       0.21800357 0.27811736 0.14155506 -0.13550773
0001e0 18 ba 8a bd de 41 9f bd e7 e0 21 be c2 cf ba bc
       -0.06773776 -0.07776235 -0.1580845 -0.022804145
0001f0 3f 0a 52 be 5d 29 b2 bd 54 37 cb 3c 05 a1 5e 3d
       -0.20511721 -0.08699296 0.024806656 0.05435278
000200 ee aa 5a bd f0 76 38 3e ad 23 37 3d cf 81 59 3e
       -0.053385668 0.18014121 0.044711757 0.21240924
000210 63 69 93 bc ca d3 78 bd bc 15 39 3c fc c7 23 be
       -0.017994588 -0.060748853 0.011296686 -0.15994257
000220 ad d4 c1 3d a5 4a 4b 3d 12 0e 90 bb 25 61 2f 3c
       0.09464393 0.049631733 -0.0043962086 0.010704313
000230 61 24 ca bd ab 97 29 ba 4c bc 1f 3d 43 f6 56 3c
       -0.0987022 -0.00064694387 0.038997933 0.013120237
000240 84 c3 f0 bd 90 66 fc bd 3d b7 05 3e 38 d8 af bd
       -0.11756042 -0.1232425 0.13058181 -0.08586162
000250 f8 7e 83 bd 1e c2 08 3e 55 57 e6 3c 63 dd c6 3d
       -0.06420702 0.133553 0.028117815 0.09710195
000260 91 ff 57 bd 52 1f 44 3d 70 5a c0 bd 09 47 b0 bd
       -0.05273396 0.047881432 -0.093922496 -0.08607299
000270 b1 1d 2d 3e 3c 19 45 3e 4e bd 18 3d cd 3b 91 bd
       0.16905858 0.19247907 0.03728991 -0.07091484
000280 03 6f 06 3c 9f d9 f6 bd fd ec 3b be e0 8f 79 3e
       0.008205178 -0.12053227 -0.18352123 0.2437129
000290 c7 cd 0b be fc 67 e3 3c 2e 2f c3 3a 8f 2f 1a 3b
       -0.13652717 0.027759545 0.001489138 0.0023526882
0002a0 fd 52 f3 bd 3a f8 be bc f2 54 ab bc 4c 4f 7a 3e
       -0.11881063 -0.023311723 -0.020914529 0.24444312
0002b0 e0 01 21 be 36 4e 32 3e a7 fc 4a 3e 4b 89 58 bd
       -0.15723372 0.17412648 0.19822942 -0.052865308
0002c0 b6 19 7d 3d 1d b6 fe 3d 73 cb 2f 3e ea 0d 8e 3e
       0.061792098 0.12437079 0.17167453 0.2774499
0002d0 a0 f5 62 bc 84 c4 72 be 05 0f 88 be 0e dc 5d be
       -0.013852507 -0.23707777 -0.2657396 -0.21665975
0002e0 a3 19 2a bc f5 88 a6 bd 7b a4 3e 3e 81 38 f9 bd
       -0.010382089 -0.08131591 0.18617432 -0.121689804
0002f0 d1 11 59 3e fb d3 3c 3e d1 8d ef 3c e9 3c 86 3e
       0.21198203 0.18440239 0.029242428 0.26218346
000300 1c 01 d0 3d 98 0c 6d 3d e5 16 c1 bc 90 f9 5e bd
       0.101564616 0.05787334 -0.023570487 -0.05443722
000310 2a ed 30 3d 0c 10 ba 3d 3a e6 89 3b 7c fb 5f bd
       0.043194927 0.09085092 0.0042083533 -0.054683194
000320 e6 4b 22 bc 94 07 3e be 60 9e f6 bd d5 cf 12 3e
       -0.009905791 -0.18557578 -0.120419264 0.14337094
000330 56 65 05 be b6 f9 70 3e ed 54 73 be 88 64 eb bc
       -0.13026938 0.23532757 -0.23762865 -0.02873446
000340 bc 51 21 be f4 b7 89 3d 94 28 29 be 05 63 ac 3d
       -0.15753835 0.067245394 -0.16519386 0.08417324
000350 66 50 37 be 81 04 b6 3d 9c d3 71 3c 0e c8 2d be
       -0.17901763 0.08887578 0.014759924 -0.16970846
000360 c3 df f2 3d fb f0 8f 3e 78 9c 6b 3e 0c 09 a2 b9
       0.118590854 0.2811354 0.23008907 -0.00030905788
000370 e0 24 65 be 86 43 3b bc 77 08 80 bd d6 89 87 bd
       -0.22377348 -0.011429673 -0.062516145 -0.06618087
000380 79 9e 0b bd a4 56 af bb 3b 34 c5 3c 8e 0c 27 3d
       -0.03408668 -0.0053509045 0.024072757 0.040783457
000390 3a cd 5b 3e 7c c1 56 3e 62 1d 83 3e 71 7f 51 3e
       0.21465006 0.20972246 0.25608355 0.20458771
0003a0 ce 84 dd bb cd dd c7 3d d8 8c 4d be a5 0d 79 3d
       -0.0067602163 0.09759102 -0.20073259 0.060804028
0003b0 43 29 b9 3c 93 cc 45 3e 67 92 02 bd d2 19 5b bd
       0.022602683 0.1931632 -0.0318779 -0.05349142
0003c0 71 7d 8a bd 5a 03 32 bd 44 75 7d be d6 58 64 3e
       -0.06762207 -0.043460228 -0.24751765 0.22299513
0003d0 d5 e4 5c 3c 9c e1 0f 3e 50 94 6f bd 72 34 bb 3d
       0.013482292 0.14050907 -0.05849105 0.091408625
0003e0 bc 04 59 be c6 a3 44 3e 00 34 55 be fc 19 12 3e
       -0.21193212 0.192031 -0.20820618 0.14267725
0003f0 7f db 14 be c3 f1 1c 3d 21 d3 6f 3e c1 71 0d be
       -0.14536856 0.0383165 0.23420383 -0.13812925

model.rnn.weight_hh_l1 f4 [160, 40]
000000 72 81 6e bd ab 2d 09 bd 6f ce 8a 3d ce ce d0 bc
       -0.058228917 -0.033490818 0.06777655 -0.025489237
000010 b2 7d e6 3c ba c5 50 3d 79 40 9a bd 8c 27 c6 3d
       0.028136108 0.050969817 -0.075318284 0.09675512
000020 28 c6 48 3d 0c 40 e2 3d fd cd 51 3c cc 7f 86 bd
       0.0490171 0.11047372 0.012805459 -0.06567344
000030 6a a4 28 bd 18 2d 99 3d f5 19 02 be 14 c4 f5 bc
       -0.041172422 0.07479304 -0.12705214 -0.030000724
000040 17 fe 1f bd cb 53 6b bd 09 98 02 3e bf 81 93 3b
       -0.03906068 -0.057452958 0.1275331 0.004501551
000050 6f 1a 03 3e 24 26 76 3c 7f 79 05 be ae a8 2b bd
       0.12803052 0.015023742 -0.13034628 -0.041908912
000060 5d 7c 4d bc 44 ea 02 3d 25 99 8e 3d 34 c0 d9 bd
       -0.012541858 0.031961694 0.06962804 -0.10632363
000070 04 0e 01 3e c3 65 80 bc 77 59 e3 3a 7f 84 c9 bd
       0.12603003 -0.015673524 0.0017345388 -0.09839725
000080 9c c4 e8 bd e2 ee b8 bd f0 a8 1a bc 37 4a e3 bd
       -0.11365625 -0.09029938 -0.009439692 -0.1109814
000090 d3 ec 5b 3d e9 59 21 bd 62 55 f8 3c 30 a1 50 bd
       0.05369265 -0.039392386 0.030314151 -0.05093497
0000a0 1f b5 63 3c c8 a7 8e 3b 75 7a b7 bd 55 6b cc 3c
       0.013898163 0.004353497 -0.08958904 0.024953524
0000b0 86 b2 c8 3d 28 65 b1 3c f4 a2 ef bc 79 c0 ba bd
       0.09799676 0.02165468 -0.029252507 -0.091187425
0000c0 30 93 93 bd 7b 33 46 3d 1b 7f c6 bc 53 12 d8 3d
       -0.07205808 0.04838894 -0.02423053 0.1055037
0000d0 ab d7 26 bc 90 29 ae 3d e7 79 f0 3d 18 a4 32 3d
       -0.010183255 0.08504021 0.11742001 0.043613523
0000e0 b3 c4 e9 bd 76 32 fa 3d ee ae 05 be 69 f5 48 bb
       -0.114144705 0.12216656 -0.13055012 -0.0030663854
0000f0 3d 1c 95 3d 7c d4 9c bc d4 5b 19 3d 18 23 ca bd
       0.07280777 -0.01914429 0.03744109 -0.09869975
000100 f9 8a 2b bd 72 a7 60 3c f8 f4 03 3e e5 f2 bc bd
       -0.04188058 0.013711797 0.12886417 -0.09226016
000110 a8 a6 a0 bd 4e 29 28 bd 31 44 d7 3d 12 c1 a4 3b
       -0.07844287 -0.041055016 0.10511053 0.0050278986
000120 62 e0 ce bc 1b a1 53 3b 68 94 08 bd a5 da d4 bd
       -0.025253478 0.0032292071 -0.033344656 -0.10393266
000130 2e db e2 3d b9 e7 82 bd 4f bb 2e bd 3e 84 7d 3c
       0.110769615 -0.06391854 -0.0426591 0.0154734235
000140 cc 1b a5 bd 96 af bd 3d f2 4f 82 bd 73 0e 27 3d
       -0.080619425 0.09262006 -0.063629046 0.040785264
000150 a8 2f 2d bd fb 33 f6 3d cb f1 a6 bd cc a6 ba 3d
       -0.042281777 0.12021633 -0.08151587 0.09113845
000160 64 b8 ef bd 42 bc 01 bd 01 c0 a9 3a 21 e4 a2 3c
       -0.117050916 -0.031673677 0.0012950898 0.019884171
000170 b5 fe dc bd dc 96 5f bd a6 f9 a3 3c 7f f4 6d 3d
       -0.10790769 -0.05458723 0.020016503 0.058094498
000180 32 99 05 be 71 50 03 be df bd e6 3d d2 82 ff 3d
       -0.1304672 -0.12823655 0.11266684 0.12476124
000190 88 0b 98 3d 43 4e 75 bd bd 70 88 bd d4 19 29 bc
       0.074240744 -0.05988909 -0.06662128 -0.010321099
0001a0 9c 77 6c 3d 9d da 43 3d de 43 96 bb 0e 53 d0 3d
       0.057731256 0.047815908 -0.004585727 0.101720914
0001b0 b0 f7 4a bd bd 26 ae 3d b5 54 89 3d af 1e a1 3d
       -0.04955262 0.085034825 0.0670561 0.078671806
0001c0 ad dd 5f bd 02 29 94 bd 42 1b fe 3d 31 f2 80 3d
       -0.054654766 -0.07234384 0.12407543 0.06296194
0001d0 2c 50 d2 3d 91 a0 c8 3d a8 df da bd 8b 36 06 be
       0.10269198 0.097962506 -0.1068719 -0.13106744
0001e0 f9 6c 52 bd f3 e4 af bd 77 93 c1 bd 2e ff b1 bd
       -0.051373456 -0.085885905 -0.09451955 -0.0869125
0001f0 b8 07 c8 bd 0f 03 07 3e 1b c5 bd 3b 1e 7d a4 bc
       -0.09767097 0.1318476 0.005791319 -0.020079192
000200 66 9a 4f bb 84 4b 22 bd 38 25 06 be 28 f5 df bd
       -0.0031677722 -0.0396228 -0.13100135 -0.10935432
000210 1a 97 e1 3d 2b 6e ef bd 3b ec cd 3d db 41 38 3d
       0.110151485 -0.11690935 0.10054823 0.04498468
000220 3c 19 b3 bd 67 31 d2 bc 53 01 ad bd 2c f0 5b 3d
       -0.087450475 -0.025658322 -0.08447518 0.053695843
000230 d7 60 b6 bd 34 84 5f 3d ac 98 89 bb 83 8b c0 bc
       -0.089051895 0.054569438 -0.004199108 -0.023504024
000240 3b 61 ba bd f6 67 b0 bc 58 87 d8 bc f0 1e 82 3c
       -0.091005765 -0.021533947 -0.026431724 0.015883893
000250 b4 6e c7 3d 92 c7 b8 bc a5 08 d5 bd 58 0e 7c bd
       0.09737912 -0.0225561 -0.104020394 -0.061537117
000260 96 9b 3b 3d aa e1 06 bd 8f 6d 03 3e 35 e9 10 bd
       0.045802675 -0.032930054 0.12834762 -0.035378654
000270 fa aa 6f bc 0e f2 ec bd 41 cb ef bd 2d 57 ed bd
       -0.014628166 -0.11569606 -0.117086895 -0.11588893
000280 57 dc 01 3e 63 e3 b1 bd 8e 5d 05 3d ba 92 81 bd
       0.12681709 -0.08685949 0.032559924 -0.06326814
000290 9d f2 26 bd 01 dc 5f 3d 05 ab 8a bd 83 d7 72 3d
       -0.040758718 0.05465317 -0.06770901 0.05928756
0002a0 1a bc 48 3d 81 cc 04 3e 57 ac 90 3d 45 e8 00 be
       0.049007513 0.12968637 0.07064121 -0.12588604
0002b0 0e 12 15 bd 0b dd 88 bb e7 9e c8 bd 22 9d b0 bd
       -0.03639417 -0.004176741 -0.09795933 -0.08623721
0002c0 99 59 12 bc f0 74 07 be 5f 94 70 bd 0b 72 06 3e
       -0.008932495 -0.13228202 -0.058735248 0.13129441
0002d0 2e 18 c4 3d 9b 07 60 bd 8f 4c 4a 3b 8b 62 12 3d
       0.095749244 -0.054694753 0.0030868386 0.03573851
0002e0 39 24 f7 3b a0 e5 e6 3d ea ce 6a 3d 15 0d 2d bd
       0.00754216 0.11274266 0.057326235 -0.042248804
0002f0 68 3f c0 3d 39 ec 8f bd 9d b3 28 3d cd 9b d5 bd
       0.09387094 -0.07027478 0.041186918 -0.10430107
000300 d2 49 df bd cc 7d 88 bd d5 95 bb bd 3a b6 06 be
       -0.10902752 -0.06664619 -0.091594376 -0.13155451
000310 b2 e1 74 3d d8 2e 22 bd 6b 95 e9 bd 1d e6 a4 3d
       0.059785552 -0.039595455 -0.11405452 0.08051703
000320 0b cb af bc 4b 19 e3 bd eb 98 72 bd 61 b6 af 3a
       -0.021459123 -0.110888086 -0.059227865 0.0013405794
000330 39 8f 66 3b 09 80 a9 bc 9c 96 ba 3d 2c fa bc 3d
       0.0035180582 -0.020690935 0.09110758 0.09227404
000340 29 45 ba bd cb 23 80 3d 32 e3 83 3d 1d 91 7c 3d
       -0.090952225 0.06256827 0.064398184 0.06166183
000350 61 12 ba 3d 30 03 72 bd 8d a7 30 3d c2 ec 84 3b
       0.09085537 -0.05908507 0.04312854 0.004056544
000360 6c 1e 00 bb d4 5c 83 3d d8 d5 2e 3d 27 28 4e bc
       -0.0019549383 0.0641419 0.042684406 -0.012582815
000370 73 fe ae 3d 6f 03 aa bd 45 7d a2 bd 08 7e 42 bc
       0.08544626 -0.08301436 -0.079340495 -0.0118708685
000380 95 0f 3e 3d f3 7b cf 3d 36 45 9c 3d 2e 2a 3f bd
       0.04640158 0.10131063 0.076303884 -0.046671085
000390 7a 77 f6 bd 02 2d aa 3d ee c7 48 3c 4f 8c eb 3c
       -0.12034507 0.08309366 0.012254698 0.028753428
0003a0 03 c0 0f bc 22 9e d9 bd 42 79 0f 3d f9 bf 6b 3d
       -0.0087738065 -0.106258646 0.03502775 0.057556126
0003b0 c9 19 94 3d da ae 69 3d ec ec 5d bd f9 b2 ac 3d
       0.07231481 0.057051517 -0.054181024 0.08432574
0003c0 72 0d 98 bd 54 52 c8 bd 02 07 02 3b 3a 71 b6 3d
       -0.074244395 -0.09781328 0.0019840603 0.08908315
0003d0 5a 3f cb bd 47 0f d8 bd 5c cb 71 bd d8 5b cb 39
       -0.09924193 -0.10549789 -0.05903183 0.00038787606
0003e0 55 3a 46 bd 61 f5 87 bd 2d 22 df 3c 3a cb 03 bc
       -0.048395474 -0.06638599 0.027237976 -0.008044058
0003f0 e5 f8 02 bd 40 ac f8 3d db e6 81 3d 2e 0f c2 bd
       -0.031975646 0.12142229 0.0634286 -0.094755515

model.rnn.bias_ih_l1 f4 [160]
000000 fd bb 01 bc 78 61 53 3c d7 7b 58 3e e7 6b d3 3d
       -0.007918355 0.012901656 0.21140991 0.10323315
000010 da b6 8b 3e d0 31 d1 3d 04 f7 45 3e 2f f8 46 3d
       0.27287942 0.10214579 0.1933251 0.04857653
000020 dc 12 58 bd a4 6e b4 3d 51 71 93 3e 18 c8 64 3e
       -0.05275236 0.088101655 0.2879739 0.22341955
000030 d8 bf 0d 3d 55 88 05 3e c9 9b 71 3d 60 ec 23 be
       0.034606785 0.13040288 0.05898646 -0.16008139
000040 f5 d2 0c bd 8d 3c 56 3e c8 c2 bc bd 3a 7f 1e be
       -0.03438087 0.20921536 -0.09216839 -0.1547822
000050 85 e5 ba 3d 9c 31 7c 3e 6d 36 12 bd 01 98 fb bc
       0.091258086 0.246283 -0.035696436 -0.03071213
000060 84 b4 81 3e de ca 1f bd ad e6 5d 3c bd 27 8c 3e
       0.25333035 -0.03901183 0.013543767 0.27374068
000070 9c 84 5b 3e bc be e0 3d 53 ff ef 3b a4 24 85 3e
       0.21437305 0.1097388 0.007324138 0.26004517
000080 19 34 88 bc a3 66 c2 bd 7f 4d 5d 3e fd 2e 04 3e
       -0.016626405 -0.09492233 0.21611594 0.1290855
000090 3a 7a 49 be e9 8b da 3d ff e2 ad 3c a1 b5 5d 3e
       -0.19675532 0.10671217 0.021226404 0.21651317
0000a0 5b 78 2b bd b7 f8 31 3d 86 e9 85 3d 0f a5 ee bd
       -0.041862827 0.043450084 0.06538682 -0.11652576
0000b0 f3 c5 07 be af 01 f6 bd 0f 83 91 3d ee 47 f5 3d
       -0.13259105 -0.1201204 0.071050756 0.1197661
0000c0 3b d4 96 3d e9 cd 16 bd 57 cb d1 3d cf de 12 3d
       0.073646985 -0.036817465 0.10243862 0.035857018
0000d0 00 d6 c0 3d 33 97 df 3c e1 4e b6 3d 08 26 3e 3d
       0.09415817 0.027293777 0.08901764 0.04642299
0000e0 05 f3 13 bd df b4 b2 3d cd 86 ab bd 7c a5 f4 3b
       -0.036120433 0.08725905 -0.083753206 0.0074660163
0000f0 eb ea 81 3d 58 22 d9 bc 91 7c d1 bd 7c a2 ac bb
       0.06343635 -0.026505634 -0.10228837 -0.005268393
000100 86 c5 5f bb a9 4b e8 3a 8a 4a 85 3d 16 5f b5 3d
       -0.0034144833 0.0017722744 0.06508358 0.08856027
000110 1b af 39 bc a5 27 ec bc 62 5c d1 bd 5d fb de bd
       -0.011333252 -0.028827498 -0.10222699 -0.108877875
000120 ee 23 fc bd c3 75 93 3c 7e 50 06 3e 92 b3 24 bb
       -0.123115405 0.01800049 0.13116643 -0.0025131446
000130 53 50 a9 3d 6c 58 2c 3d 98 a9 00 be e6 8d f6 bd
       0.08267274 0.042076513 -0.12564695 -0.12038784
000140 bb 7a ce bd 14 52 98 bd 39 47 12 3c 7d c6 8b bc
       -0.10082003 -0.0743753 0.008928114 -0.01706242
000150 1e 11 ca 3b 16 34 55 bd 9b 57 c1 3d 0d 89 f1 bd
       0.0061665913 -0.052051626 0.094405375 -0.117937185
000160 48 74 1e 3c 45 e4 22 bd 0d 6d ab bd 78 b3 5e 3e
       0.009671278 -0.039768476 -0.08370409 0.2174815
000170 2f 33 57 be b0 c8 18 be 72 24 3f bd a3 f8 08 3e
       -0.21015619 -0.14920306 -0.046665616 0.13376097
000180 e4 7c ce 3d f5 7c 72 bd a1 dd 0e 3e 2f 55 65 bc
       0.10082415 -0.0592012 0.13951732 -0.01399736
000190 32 93 93 bc 27 62 3c 3d 97 c1 b9 bd 85 cb 23 3d
       -0.018014524 0.045992043 -0.090701275 0.039989013
0001a0 6f fa 1c be ad a1 85 3c d7 97 b7 bd 22 02 08 be
       -0.15329908 0.016312445 -0.08964508 -0.13282064
0001b0 76 f5 fa 3d 1c eb 01 3d 22 f0 eb bd 7f 4d c3 bd
       0.12253849 0.03171836 -0.11520411 -0.095362656
0001c0 8b ab 82 3b b2 45 04 3d 2a 59 e7 3d 1c ed 41 bc
       0.0039877347 0.03229303 0.112963036 -0.011836316
0001d0 f5 f4 08 bd f3 6f c6 bc b6 a5 00 be e0 60 4d 3d
       -0.033436734 -0.024223303 -0.12563214 0.050141215
0001e0 04 cb 0f 3e 78 ae b2 bc 26 b4 88 3e 2f a6 86 3d
       0.14042288 -0.021811709 0.26699942 0.06574666
0001f0 cd 59 03 3e c8 55 8d 3d ef cd 81 3e cd 72 32 3e
       0.12827225 0.06901127 0.25352427 0.17426606
000200 c6 c3 38 bd 7b b6 91 3d 76 ea 3f 3e 7b 1e 41 3d
       -0.04510858 0.071148835 0.18741783 0.04714821
000210 5f f8 0b be e4 67 40 3d 47 16 45 3d 45 8b 1d be
       -0.13668965 0.046974078 0.04811695 -0.15385158
000220 ad dc 36 3e 84 bf 5a 3e 8f c2 df 3d 34 e1 23 be
       0.17857619 0.2136212 0.10925781 -0.16003877
000230 2f 3c 82 3e 77 81 09 3e 96 03 10 3d 4b aa 81 3d
       0.2543654 0.13428293 0.03515967 0.06331309
000240 64 41 1c 3c 9d c2 2b bc 30 9a 84 3c 6c 9f 72 3e
       0.009537075 -0.010483411 0.016186804 0.23693627
000250 f0 33 52 3e 67 6c da bd c9 b5 d0 3d b6 bd c8 3c
       0.20527625 -0.10665207 0.10190923 0.024504524
000260 04 ec 37 3d 57 d0 04 3d d7 92 f1 3d 3b 61 88 3e
       0.044902816 0.03242525 0.117955856 0.2663668
000270 1d a7 46 3d db 64 44 3b 42 ed fc 3d 64 4d a0 bd
       0.048499215 0.002996734 0.12349941 -0.07827261

model.rnn.bias_hh_l1 f4 [160]
000000 2c 6b fc 3d 0c 77 e8 3d fc f1 07 3e 5f 37 50 bd
       0.12325129 0.113508314 0.13275903 -0.050834056
000010 2c f2 14 3e cf 2d c8 3d 3b 38 c9 bc 8a ab 1d 3d
       0.14545506 0.09774362 -0.024562946 0.03849367
000020 e5 68 39 3e 88 27 5b bd 22 05 4d 3c 11 0d 55 3e
       0.1810642 -0.053504497 0.012513431 0.20805766
000030 10 46 18 3e 0b 5d 08 be 08 21 84 3d 31 67 b9 3b
       0.14870477 -0.13316743 0.06451613 0.0056580533
000040 f6 f4 ee 3c 40 d8 52 3e ea cf dd 3d 20 32 1d bd
       0.02916954 0.20590305 0.10830672 -0.03837788
000050 1b b3 cf 3d ee e9 83 3d 88 eb 83 bd 98 27 85 bd
       0.101415835 0.06441103 -0.064414084 -0.065016925
000060 5f 12 08 3e 2c 44 8d 3d 33 fb dc bd e2 aa 7c 3d
       0.13288258 0.068977684 -0.107901 0.061686404
000070 84 d3 6a 3e 73 73 9c bd 36 49 eb 3d d9 cd b7 3d
       0.2293225 -0.07639208 0.11488573 0.08974809
000080 08 65 c6 bc dd 69 a6 3d 29 ba 44 3e 6c 3b 97 3d
       -0.024218097 0.081256606 0.1921164 0.07384381
000090 46 8f d4 bd 84 75 bb 3d fd 4f 9e 3d f6 58 55 3e
       -0.1037889 0.09153274 0.077301 0.20834717
0000a0 4b 62 e0 3d 9a 52 db 3c ab 60 4f bd 66 28 07 3e
       0.10956248 0.026772786 -0.0506293 0.13199005
0000b0 f0 1b e3 3d 76 7f e8 3d e9 d5 bf 3d 84 20 7c bd
       0.11089313 0.11352436 0.09366972 -0.061554447
0000c0 05 2e ec bd b9 ec 68 bd 4f ab e5 3c d6 cb a6 3d
       -0.11532215 -0.05686638 0.028035788 0.08144347
0000d0 63 da 47 bd 41 73 cc 3d de 83 7c 3d e1 70 dc 3d
       -0.048792254 0.099829204 0.061649196 0.107637174
0000e0 e6 6e 7d bc 80 cf d7 3c e1 24 8a 3c ac 02 d2 3d
       -0.015468335 0.02634406 0.016863288 0.10254416
0000f0 a9 96 a8 bd c9 b8 2e bd 0d 68 3e bd bb 34 00 bc
       -0.08231861 -0.042656694 -0.04648595 -0.007825072
000100 6a 2b e3 3d 07 c7 61 bd ba 56 e0 bd 3b 8a 01 bd
       0.11092265 -0.055121448 -0.10954042 -0.031625967
000110 4c ed 8e bd 9f 4c 33 bb 3e 8e ef 3d bf 94 58 3d
       -0.069788545 -0.0027358902 0.116970524 0.05287623
000120 ef 49 8a 3d f2 be b9 bd a3 d9 e1 3d 51 44 01 be
       0.06752383 -0.09069623 0.11027839 -0.12623717
000130 6a 96 8b 3d db b4 d8 3d 43 17 aa 3d d3 b8 99 3d
       0.068157986 0.105813704 0.08305218 0.075059555
000140 5e 82 8e bd 44 f6 ea bc 0d ed e5 bc a1 78 0a be
       -0.06958459 -0.028681882 -0.028067136 -0.13522579
000150 50 fc 01 3d 3d 5e 2e 3e f9 20 3e 3d 68 a5 33 be
       0.031734765 0.17028137 0.046418164 -0.17543566
000160 5c 0e 8b 3d 8e eb ca 3c 60 52 d2 bd d7 5f 87 3b
       0.06789848 0.024770524 -0.10269618 0.004131298
000170 4d 28 b2 3d b7 8f 12 bc e0 d3 bd 3d d7 97 0a bb
       0.08699093 -0.008945397 0.092689276 -0.0021147633
000180 6f 6c a6 3d 09 f1 a0 bc 12 8e 17 3e 99 fe 9d 3d
       0.08126151 -0.019646185 0.1480029 0.07714576
000190 c5 9f dc 3d a1 25 eb bd fd 89 44 be 83 9d fe 3d
       0.10772661 -0.114817865 -0.19193263 0.12432387
0001a0 23 4b 71 bd 19 eb 53 be cd 5b de bd 48 81 cc bc
       -0.058909547 -0.20695151 -0.10857353 -0.02496399
0001b0 3a 91 03 3e 33 0c 0c bb d3 15 01 be e8 4b 46 be
       0.12848368 -0.0021369576 -0.12605982 -0.19364893
0001c0 13 77 fa 3d 8b 97 3a 3e 8b e3 11 3d ff a0 09 be
       0.12229743 0.18221872 0.035617393 -0.13440321
0001d0 68 59 48 bd 66 67 1c be 6c 3d 9c 3d b2 88 3a 3e
       -0.04891339 -0.15273818 0.07628903 0.18216208
0001e0 af 5d 7b 3c 05 47 60 3d 24 50 1b 3e c6 6c b3 bc
       0.01534216 0.05475523 0.1516729 -0.021902453
0001f0 58 af 8a 3e 02 e9 11 3e 77 1e 31 3e 56 ee a9 3c
       0.27086902 0.14249042 0.17296778 0.02074353
000200 55 42 10 bd 3f b2 20 be 7b b8 a1 3d 54 93 0d 3c
       -0.03521951 -0.15692995 0.07896515 0.008641083
000210 33 4e 4a bd a8 2e 15 be 4c 96 18 3e 9c 86 40 bc
       -0.049390983 -0.14568579 0.14901084 -0.011750843
000220 04 36 6a 3e 32 56 79 3c 8f ae ff bd 47 ba ef 3d
       0.22872168 0.0152183045 -0.12484466 0.117054515
000230 35 c2 8d 3e 60 82 f0 bc 83 a2 d7 3d c4 40 7f bd
       0.2768723 -0.029359043 0.105290435 -0.062317625
000240 d2 5f 7d 3e 5d 90 45 3e 38 ac d0 3d 1b f7 be 3d
       0.24743584 0.19293351 0.10189098 0.093244754
000250 8e b7 88 3e ae bd 20 be 7a 64 11 3e e4 8e 34 3e
       0.2670254 -0.15697357 0.14198485 0.17632633
000260 2a f2 7c 3c 4b b7 d4 3d 5f 9c 0c 3e f0 3c f7 3d
       0.015438596 0.10386523 0.13731526 0.1207217
000270 88 17 11 be c9 43 04 3e a7 c4 2d 3e e7 b5 80 3d
       -0.14169133 0.12916483 0.16969548 0.06284695
