practice12/lstm_forecast_20_epochs.pth (torch, 89384 bytes, 6 tensors)

weight_ih_l0 f8 [200, 1]
000000 16 30 0c c7 cb 20 c0 3f 67 18 c9 9f 3c 1a d9 3f
       0.12600085467454453 0.392226367989116
000010 3d 1f b2 ff df 8a c7 3f 6e 42 69 57 0d 07 98 bf
       0.18392562852045016 -0.023464401683954632
000020 6c 48 5a d5 83 4d c7 3f af 12 0d ac 30 8e c6 3f
       0.18205306928263398 0.17621429825716947
000030 5b 3b 8d 79 28 ce a2 3f 09 84 4a 95 fa 8b d1 3f
       0.03672911151681176 0.2741686304016758
000040 50 9b db d3 e4 6c b3 bf 70 f5 c3 22 5d 9f c7 3f
       -0.07588033840475572 0.18455089757473386
000050 c0 15 4a ab 90 1d b3 3f 9c 75 ff ac 3a fd c8 3f
       0.0746698778330801 0.19522794196283833
000060 ac 12 03 0e 6d 18 d8 3f 66 40 db a6 d4 e9 ce 3f
       0.3764908444248174 0.24151094577109972
000070 12 e1 99 fd c6 02 ca bf f8 dd cf 3d 6e 5c d2 3f
       -0.20320975668779134 0.2868915179855942
000080 13 c1 5f a8 97 ff d3 3f 38 67 ec 3a 00 41 d1 3f
       0.3124751228597386 0.26959234003298915
000090 a9 ec 6f 17 d8 99 a3 3f 06 af 74 0a 03 dd 7c 3f
       0.03828311239336674 0.0070467108519485285
0000a0 5d 85 57 ec 85 00 d0 3f b4 ec b0 ec 42 a5 e2 3f
       0.2500319297815475 0.5826735136864927
0000b0 e6 91 50 28 c6 2a e4 3f 98 ad 0c 9d 74 1a b1 3f
       0.6302214419743535 0.06680992922036066
0000c0 35 8f 31 fa 01 f7 d8 3f 07 ca 43 c7 01 62 c5 3f
       0.3900761550232688 0.1670534346554435
0000d0 e9 8c 07 8b 5c b3 86 3f 52 2a 2f 5d 48 a6 d1 3f
       0.011084292404979173 0.27577408885978116
0000e0 e1 b5 23 90 8f 19 c1 bf b0 c0 54 83 f4 87 ce 3f
       -0.1335925535017131 0.23852402126931826
0000f0 bc 28 57 0c 5c 7f 99 3f 60 ff 58 00 d6 9d a3 3f
       0.02489990067787383 0.03831356767886862
000100 a0 ab ab 62 cc 66 d7 3f be 03 12 c7 7e 51 a8 3f
       0.36564931522178235 0.04749675922449324
000110 71 04 90 00 b5 37 d3 3f 8c 88 ba bf 77 20 d0 3f
       0.30027508788049945 0.25198167537212934
000120 32 2d 26 b7 40 09 d8 3f a8 2f 56 ba dc 53 9c 3f
       0.3755647457662291 0.027663658974730915
000130 85 36 f0 81 ea 08 cc 3f 9f 61 1d 7c 7f 93 d0 3f
       0.2190220961060058 0.2590025627191838
000140 ac a2 55 74 f1 83 d7 3f ee 4b 55 2b 10 15 cf 3f
       0.36742817269127204 0.24283029666784678
000150 24 24 95 24 01 b2 ba 3f 10 8a 88 de 8b 8e 9e 3f
       0.10427863257531605 0.02984064622627086
000160 4e 7c af 11 2b 49 e2 3f 59 13 95 51 63 9f d9 3f
       0.5714316697520958 0.4003532692625434
000170 0a cf af 89 54 d0 d2 3f 9b 69 a5 30 2c 35 d2 3f
       0.29396546789142575 0.2844953990039813
000180 f4 ee 77 d1 06 ec a6 3f c4 c9 8e 0d 7f 66 d8 3f
       0.04476949030865099 0.3812558777236996
000190 2b 58 33 e8 02 e5 53 3f 86 cf 60 6d 82 9d a3 3f
       0.0012142685307501382 0.03831107697661111
0001a0 7f 31 e7 74 b0 0f b0 3f 9a 50 54 98 da 50 c1 3f
       0.06273939947204175 0.13527996480900556
0001b0 e0 7e ea 57 49 5b c3 3f ce 1f 18 2f 0f 78 b7 3f
       0.15122334282658922 0.09167570972215275
0001c0 49 85 ae 09 75 81 bc 3f 98 dc 51 6a 6f f0 c7 3f
       0.11135035978670262 0.18702500049014215
0001d0 0f 78 27 86 13 ad ac bf b0 54 ed f8 81 0e c4 3f
       -0.056007967115633155 0.15669274000780353
0001e0 60 88 50 ee 97 43 bb bf 2c 4c 6a 42 e9 da ae bf
       -0.10650014465548585 -0.0602639096806786
0001f0 ff e9 bc 7c f6 35 c5 3f 6f a8 6f a6 44 47 c0 3f
       0.16570931521148677 0.12717493178144276
000200 d3 05 4b da 66 3e b8 bf ef d7 1c e2 28 c4 9b bf
       -0.0947021754209552 -0.02711547737199987
000210 2b e3 52 a4 ce d3 c4 3f 52 45 ea c8 33 6d b1 3f
       0.16271384261724484 0.06807254462389281
000220 83 1e d7 15 98 57 d4 bf a5 45 34 90 8f c4 cc bf
       -0.31784631855814655 -0.22474855939121344
000230 12 ca d3 95 18 8d b8 3f c1 c3 cc 86 43 91 d7 3f
       0.0959029546536743 0.3682411972432043
000240 79 d3 cd 66 f4 03 ca 3f f6 e2 6c 1e 23 c2 c9 bf
       0.20324568767287213 -0.2012370966492864
000250 35 4a 49 3e c8 67 c6 3f e8 ec ba c6 90 10 c5 3f
       0.17504218140909847 0.16456803992864555
000260 c6 fe b1 a3 e1 0b b0 3f dc d2 dc 0a 94 e9 a2 bf
       0.06268129583804258 -0.036938310934066826
000270 54 12 ae f7 5a 1b a0 bf 84 c2 54 e4 66 d1 79 3f
       -0.03145870469510173 0.00630321685939406
000280 bc 87 22 ae f4 a6 96 3f fe e4 18 ac 37 47 a9 bf
       0.02212126076540931 -0.049371471174206136
000290 01 4b 65 e7 51 09 a1 3f 52 d2 63 47 53 38 c5 bf
       0.03327423047689671 -0.16578141198955848
0002a0 21 c1 bf aa 6a 35 ad bf a2 9b 3a c7 07 0d c2 3f
       -0.057048161834133866 0.14102265575385525
0002b0 d2 ba 95 36 b6 23 d5 3f 31 65 4c 9b 5c eb bb bf
       0.33030467348627923 -0.1090600852152377
0002c0 61 59 05 b2 3c 6f cc 3f 3e cf 47 e7 14 60 a0 3f
       0.2221446866266872 0.031983044846042294
0002d0 9e ad 2c 60 99 9a b9 3f cb 6b ce c9 e6 80 70 bf
       0.100015245418652 -0.004029180065937286
0002e0 8f 3b cc 9b 2e d4 c5 3f e4 9f 0a 98 d6 fe 98 bf
       0.1705377827388159 -0.02440963080394444
0002f0 69 c3 c9 40 6a d9 d1 3f 52 a8 e0 e0 d0 91 da 3f
       0.2788949616142902 0.41514989815425907
000300 ad be 77 3f 6d 16 cf 3f 9a a8 ed 32 dd ca bd 3f
       0.2428719100857867 0.11637670987480178
000310 16 90 41 c3 85 c4 a7 3f b6 5b 87 c1 f4 da d7 3f
       0.046421222767804846 0.3727390184334881
000320 2b 5d 6c 1c 36 1d c4 bf 8a ed f4 01 4b 4f d2 3f
       -0.15714146030288964 0.28608966055954765
000330 8f 6c 48 6c 1d fc 82 bf 73 9d 72 f7 7e 03 bb bf
       -0.009269933573753412 -0.10552209416583995
000340 25 09 41 59 c0 c9 c6 bf e6 2b 54 df f5 9d cb bf
       -0.1780319629488726 -0.21575807003713904
000350 f7 ac dd f5 d8 8f 41 3f 65 bf e4 6c fa ac ce bf
       0.0005359467865963242 -0.23965387646739625
000360 b4 75 e4 a3 a7 6f ab bf 61 7d 28 93 23 3d c4 3f
       -0.05358623386039643 0.15811581311661896
000370 6a 1b 0e 95 a2 c6 cd bf eb 03 1a 06 b5 72 7e 3f
       -0.23262436178284968 0.007433611988404624
000380 e2 1e f0 55 9c de d0 3f 62 12 da e3 0c d6 d3 bf
       0.26358707802181247 -0.30993959666401427
000390 97 9f 33 7f 4a 8b a3 3f 62 a4 10 4b 38 b9 d0 3f
       0.038172081019921915 0.26130492525641646
0003a0 b1 c9 2c f4 36 66 c4 bf 1d 6d 3f 3a 5d 50 c3 bf
       -0.15936934397320848 -0.15089001983765452
0003b0 9f f6 2f 8e d0 17 b3 bf 7a 75 b8 4b ff c8 c5 bf
       -0.0745821330201246 -0.17019644925396077
0003c0 75 9e ba 26 6d a5 bb 3f 65 9c b2 b9 3a 03 db 3f
       0.10799295611888644 0.4220721066907969
0003d0 e2 75 e0 72 85 1a e0 3f 11 1c 22 d5 37 53 c2 3f
       0.503237461441753 0.14316461474319955
0003e0 5b ea 7f 5f f4 0d da bf 7e 37 4d 0e d5 6a d2 3f
       -0.40710172010554907 0.28777052303927764
0003f0 fe b1 be 61 05 51 bb 3f 79 07 11 00 90 3c d4 3f
       0.10670503269529516 0.31619644171234246
000400 61 57 98 1a e0 90 c8 bf f4 24 ce 01 77 21 c4 bf
       -0.1919212465151601 -0.15727126682421722
000410 42 5a 05 f4 4c 88 c4 bf cf 79 ff 63 62 c4 c0 3f
       -0.16040956416209623 0.13099317438805122
000420 2d fe 9b 75 2d e2 d2 3f 53 69 94 94 d9 db 8a 3f
       0.29505478368079957 0.013114642950814803
000430 73 eb b5 5d e1 c5 c4 3f 50 53 9f 08 56 d5 c6 3f
       0.1622888286181837 0.17838550015462795
000440 8c 35 51 fa a9 14 de bf 26 ca 66 15 91 7b c4 bf
       -0.47001122899094905 -0.16002095742222017
000450 63 4a 88 ea d4 73 c5 bf b0 b8 ed ca f5 36 c0 3f
       -0.1675974030664121 0.12667724999068275
000460 22 93 07 ca 0a b6 d9 bf 1d 09 92 ce c4 b5 d4 bf
       -0.4017359707780078 -0.3235942857064787
000470 dd dc 08 d2 ee 8d ca bf e9 52 e3 43 36 be c2 3f
       -0.20745644813152966 0.1464298087581917
000480 cb 22 e3 d3 18 bd d0 bf 8a 13 66 e5 cf 8d d2 3f
       -0.2615415639125273 0.2899055233213451
000490 9a ad 56 f9 c1 4a d4 bf de 3a 49 a7 57 16 ce bf
       -0.3170628485629209 -0.2350568358255804
0004a0 a1 0d 5e 7a 8d da bc 3f 8a a8 74 72 49 99 cc bf
       0.11270984876141778 -0.22342794502884927
0004b0 cc cd 69 76 df 9f d0 3f a1 0c fe 78 f7 85 d2 3f
       0.2597578674678658 0.2894266778532231
0004c0 b0 2d ed 7e 10 3b a0 3f d3 4c 47 ff 0c 05 c2 3f
       0.03170062589068878 0.140779137275422
0004d0 d1 e0 94 3c e1 02 c1 3f 04 ab c0 79 25 2f c7 3f
       0.132900385456884 0.18112629361106525
0004e0 04 76 4d b2 ea dd c6 3f 84 8b 60 b8 53 23 c6 3f
       0.17864736276798976 0.17295309546269888
0004f0 b8 4b 6b 25 30 64 a1 bf 20 83 ea 0b 85 bc d1 3f
       -0.03396749932075899 0.27713133014371927
000500 9a cd 9f 86 eb f7 b7 3f b8 2f 5e f6 1f a7 c6 3f
       0.09362670933460607 0.17697524575885182
000510 3a ab f0 96 8d 55 d6 3f f6 48 9d c0 bc 40 c8 3f
       0.3489717458748377 0.18947562603950246
000520 6c 1a 46 a7 7d 8a 9b bf 3e ac e7 13 5c 5f d3 3f
       -0.026895488104424478 0.3026952928909771
000530 94 17 1a 98 6a 9f d8 3f dc be 19 a0 7f bd b9 3f
       0.3847300038690886 0.1005477681990174
000540 d5 58 98 b2 b5 c4 c6 bf 10 60 70 a0 9f 0f d1 bf
       -0.1778781053587354 -0.26657858531825784
000550 ba 91 8a 5b b8 1d b0 3f 21 21 a4 a4 17 ce e5 3f
       0.06295349345106774 0.6814077582976418
000560 49 c4 72 a5 c5 1c da 3f 30 e3 c3 fd b6 5f a0 3f
       0.4080061069208268 0.03198024604529903
000570 0b 99 18 4e 1a 3a d6 3f 8e 25 4c 91 52 ef c7 3f
       0.3472963106782038 0.18699104399301486
000580 a7 43 7a 69 ab 9a b1 3f 6a 50 08 9f 88 68 cd 3f
       0.06876632046829788 0.22975261464364688
000590 2a f2 f9 0a 95 c4 ae 3f c3 88 9a 17 de 14 c8 3f
       0.060093553151976245 0.188136827016086
0005a0 8c 54 95 c3 5c 45 98 bf e2 15 eb 8d a2 8c cb 3f
       -0.023702096402605607 0.21522933892826673
0005b0 2f 13 12 71 d4 fb da 3f 7d 0f c6 55 44 54 a1 3f
       0.4216204742627267 0.03384603068391721
0005c0 8f 5a 10 58 6f 7a d6 3f b7 b2 32 13 f4 88 d0 3f
       0.3512228355406614 0.25835897326286833
0005d0 1b e5 ef 44 37 33 e1 3f 21 87 42 1c 0a 0e 9c 3f
       0.5375019403865368 0.027397306418271875
0005e0 21 b0 37 1a 58 c3 d4 3f ea 23 28 16 fe 3b c8 3f
       0.32442286072068965 0.18933082658648398
0005f0 1f cd 8f eb 7e 09 dd 3f 7d e0 e9 9b 81 d4 c4 3f
       0.45370457653116775 0.1627351771637712
000600 74 c6 2a 92 e6 bc a8 3f f4 01 a0 62 e1 40 d4 3f
       0.04831619772211307 0.31645998603201453
000610 16 f8 0a a2 3a 23 e4 3f 19 0e 03 d3 ab ab e0 3f
       0.6293004193210006 0.5209559556319078
000620 44 98 ff 42 13 1c d3 3f 67 23 a4 bd 87 d3 d7 3f
       0.2985885767251413 0.37228578109402694
000630 7a d3 87 3f 2a 94 7b bf 6c a3 cd 5d 0f 94 e0 3f
       -0.0067330980605121386 0.518073733529588

weight_hh_l0 f8 [200, 50]
000000 ee d5 d3 57 bc 7a aa 3f b7 6a 2e db c6 4e 8c 3f
       0.05171764919388609 0.013822129787333421
000010 00 f0 4a cb 9d fe a1 bf c9 e6 f5 c7 b1 10 ad 3f
       -0.03514569384194033 0.05676799360203472
000020 fd ff 6d e3 a3 99 c0 3f 22 49 68 26 21 f6 b3 3f
       0.12968872647252275 0.07797438800506432
000030 ab 1b d6 23 d1 d4 a5 3f e3 d3 85 b2 42 b9 91 bf
       0.042639289497905374 -0.017308275362171954
000040 6b c1 c0 b3 a1 81 95 bf b4 9b c0 74 64 31 ba 3f
       -0.021002317997216673 0.10231616831207085
000050 7a ba d0 03 43 52 a3 bf c9 e2 8c 90 69 4c 8b 3f
       -0.03773698255132714 0.013329338764024883
000060 5b f5 83 d8 cd d4 7a 3f cb 51 db 58 a5 bc c0 3f
       0.006550602040303967 0.13075701559740902
000070 e7 12 52 be c1 a5 b7 3f bd 4e f2 c6 91 b2 bf 3f
       0.09237299820422216 0.12381850344746233
000080 7a 70 45 5b 8e f5 b8 bf fd 2c 26 2c de 5a 83 bf
       -0.09749688843061391 -0.00945066044075426
000090 b7 4b 0c 93 f6 8c c1 3f 8d 9f b2 77 4f 5e 93 bf
       0.13711435489730459 -0.018914453202028936
0000a0 96 79 ab 3d f5 ec c0 bf c1 96 a4 c1 ea 7b be 3f
       -0.13223138343068958 0.11907832362757188
0000b0 32 39 e8 01 dc 4f c1 bf 9a ae 38 c7 25 35 bd 3f
       -0.1352496156036494 0.11409221757701929
0000c0 04 e3 f2 04 8d 4e 70 3f 40 e3 33 7e c4 56 b9 bf
       0.0039811619346259465 -0.09898021775360366
0000d0 cb 9e db 86 4b fa 85 3f 57 9a b0 2f 8f 5b c5 bf
       0.010731306126629111 -0.16685666874510005
0000e0 74 a6 5d fb ca cd b8 3f e6 43 b3 b8 3b 3e c2 3f
       0.09689015042172305 0.1425242091995919
0000f0 58 18 76 1d b1 82 ad bf e0 21 2d 4c 71 4e be bf
       -0.057637724729872886 -0.11838443860791115
000100 2e 5a cd f6 e3 28 be 3f 29 34 8a 00 81 a2 b2 3f
       0.11781143927996915 0.0727921129529966
000110 b2 da 1d 07 c9 26 ba bf b1 1f 5e 7b 8f 49 be 3f
       -0.10215431617494167 0.11830994378953964
000120 25 31 ae 87 25 58 a9 bf 1d 3d 6f eb 96 47 61 3f
       -0.04950063019996013 0.0021093318605164405
000130 6d 60 2c 57 43 99 bd bf 59 1d 71 82 28 fd b5 3f
       -0.11561985853438879 0.08589413818946436
000140 b3 69 ef 68 14 61 a8 3f 77 c6 01 e1 5f 4b a5 bf
       0.04761565953204485 -0.041590687004725284
000150 5e 95 3a df f8 a5 ba bf b7 9f 48 7f 8b 0b b4 bf
       -0.10409503412173168 -0.07830116136085406
000160 e8 7e 74 9a b7 1f a1 3f 67 ee cf fa 14 de bc bf
       0.03344510803640138 -0.1127637016615438
000170 2b d9 aa 25 27 4a be 3f 53 f1 1b a9 22 b8 b0 bf
       0.11831898374189069 -0.06530968311921485
000180 b0 64 24 40 3d 01 b7 3f ad 97 3b 8a c0 61 c3 3f
       0.08986265960665452 0.1514206576313745
000190 63 5b c4 74 d9 f0 98 bf dc 44 df 8c 32 7a b2 bf
       -0.02435626769246414 -0.07217708529721584
0001a0 fd d8 42 3c b0 22 9b bf 5e a9 ae 97 c1 e9 bd 3f
       -0.02649951331906041 0.11684808686428513
0001b0 86 41 77 3a 1f 65 c6 bf 7b 73 63 07 2c 2a b8 bf
       -0.17496099810388105 -0.09439349346525987
0001c0 de 13 fc 02 1f ba c9 3f 57 56 3c 0c 70 f1 9f 3f
       0.20099246640907514 0.031194449183280373
0001d0 6c b1 a3 18 2a a5 bb 3f 96 52 9d dc 52 f3 c3 3f
       0.10798895932720648 0.15586314937776952
0001e0 f0 58 d8 68 37 af c1 3f 6e b9 60 58 a3 c6 ad bf
       0.13815968150510782 -0.05815611318427015
0001f0 13 32 eb bc 1d 8c ac 3f 02 8f f0 ac 47 91 c4 bf
       0.055756501494759324 -0.1606835932189981
000200 be 9e 5d 13 43 ac c0 bf 30 61 e0 d8 47 49 c0 3f
       -0.1302570194777583 0.12723634805366535
000210 37 13 2a 38 e4 57 97 3f 83 30 6b 1d bd 62 c2 bf
       0.022796216896057344 -0.143638266911129
000220 d1 33 72 5c 46 5f 89 3f 95 b2 42 24 91 2c c3 3f
       0.012388753601294685 0.1497975756696134
000230 93 9a d3 c5 27 36 b0 3f 86 1c d0 27 1f 00 a9 3f
       0.06332634525061058 0.04882905350682969
000240 41 d4 f8 ab 39 40 8e 3f 3f 07 ab 17 f8 12 c2 bf
       0.014770937500637628 -0.14120389133136688
000250 50 08 9f ab 96 b4 c0 bf ce cf 4b 57 64 5b 99 bf
       -0.13051112537329113 -0.024762695148595353
000260 9c 77 4f 06 21 c6 bd 3f cc db 59 3d 3f 1f 9d bf
       0.11630445865691147 -0.02843951045948838
000270 d0 be 4e 28 98 46 b3 3f 5b 05 c7 b8 cb d1 c3 bf
       0.0752959345252251 -0.15483995935759762
000280 71 56 4c 1b f7 41 ab 3f 8e 97 f6 9b 90 71 bf 3f
       0.05323764999608905 0.12282661254593405
000290 5a 93 c6 5b c4 55 b5 bf 95 d7 6a fd 37 ea c5 bf
       -0.0833399509488805 -0.17121028779882566
0002a0 0f ec eb fc 55 22 a1 bf 5a 6b 73 e5 83 c8 8f 3f
       -0.033465087055411506 0.015519171180519532
0002b0 b6 d1 ec fe 38 56 bd bf 21 1b 43 90 b1 95 78 3f
       -0.1145969030738517 0.006002133948817685
0002c0 eb 3d c0 72 50 fc 75 3f ef 4c 1f d6 93 30 c3 3f
       0.005367578745804273 0.14991996722401477
0002d0 8e 8e 08 45 9e 7e c0 bf 30 ed f4 a9 01 94 c2 bf
       -0.12886408205769267 -0.14514179991406584
0002e0 01 b7 40 9f 3d 2b 93 3f 70 ae 31 fb c8 f9 b0 3f
       0.01871963772298724 0.0663114178911941
0002f0 59 cc a1 10 4d 34 c7 bf 38 a7 2a 53 09 f9 c1 3f
       -0.18128360092268528 0.14041248856420352
000300 a6 ac 67 e7 03 ba 99 3f 84 05 f1 1a 5d cc ba 3f
       0.025123654364432334 0.10468084247351866
000310 ce 3c 16 bb e1 9c d2 3f 5d 71 c3 6a 7d 7e ad bf
       0.2908253027935189 -0.05760566643013718
000320 5e 19 06 67 35 e7 a1 3f ee 06 6e 1f 57 03 a7 bf
       0.03496710665335699 -0.044947359644550974
000330 7f 1e b2 82 6b 26 b7 bf 88 f7 de c2 bc 62 b7 3f
       -0.09042999211134804 0.09135036237327487
000340 5d 60 8c 34 a9 1d a8 3f f3 45 39 de 2b ba 95 3f
       0.04710129515132231 0.021217999876460735
000350 4b 6d 2b 6c 20 d4 bb 3f 29 74 93 68 81 27 b0 bf
       0.10870554581508889 -0.06310280612110887
000360 7e 5a 75 ff 21 55 97 3f db 30 95 67 dc ab b4 3f
       0.022785693375534148 0.08074739006878266
000370 21 16 cb 9d 0c 32 c1 3f d9 9d 2c 61 4b 54 8b 3f
       0.1343398828959588 0.013344372656844893
000380 40 04 c1 d0 5f 65 b5 bf ed 48 81 71 eb b4 c5 3f
       -0.08357809874088762 0.1695837311004377
000390 78 e3 61 bc ba 88 bd bf fa f9 37 66 17 38 bc bf
       -0.11536757563761835 -0.11023088689396579
0003a0 77 ef 22 4e c1 1f b8 3f 9e e5 1d 67 f3 6d c5 3f
       0.09423454434994293 0.16741793189048065
0003b0 25 ae 66 6b 2d b6 b2 3f dc 9a 85 6f a9 bb b8 bf
       0.07309230682465591 -0.09661349270536895
0003c0 8e 96 4e 37 01 ee ac 3f f9 72 32 0a be 50 b0 3f
       0.05650333213934032 0.06373203038169696
0003d0 67 5d 39 4d 17 7f b0 3f f1 92 2c 15 b0 ed 81 3f
       0.06443925509789993 0.008754134794409537
0003e0 2d 1a ff 35 75 e4 a0 3f c3 b5 21 36 7e d2 b1 bf
       0.03299299511086349 -0.06961811849188053
0003f0 4b 83 03 de 8b 88 c8 bf 28 28 fc 0a ca fd 6b 3f
       -0.1916670640994432 0.0034169145727718404
000400 a3 04 37 0d a7 ac b4 bf ef 22 ee 6d 72 09 a4 bf
       -0.08075946877126454 -0.03913457481309545
000410 3b 1d b1 51 9a 0b 9c 3f 0e 18 7c fe e4 63 89 bf
       0.027388011203837364 -0.012397564903505322
000420 ad 0f b5 ec 68 b0 bf bf a2 76 d1 f5 ef 0f a9 bf
       -0.12378555087076278 -0.04894971729002619
000430 9a d6 13 b4 df 63 b6 bf 7a 2e d1 9c b4 db a7 3f
       -0.08746145388053109 0.046598095076288495
000440 e2 a3 e5 e6 6d 06 a8 3f f0 38 ed 29 78 f4 c1 3f
       0.04692405170028004 0.14027311370086393
000450 1a 39 81 02 de e3 b0 bf cc 36 65 e8 33 70 8f bf
       -0.0659769779315166 -0.015350728540080814
000460 13 cc 2c 9d eb 4f 9b 3f 1a 54 42 e4 8f db b7 3f
       0.02667205950565339 0.09319400141460257
000470 07 67 21 7c 45 ee b8 3f 0b f6 21 8f b0 35 63 bf
       0.09738573341874367 -0.0023449371738582018
000480 e6 05 7f 97 d5 bb b6 3f 10 9f 24 92 21 29 bc bf
       0.08880362461697863 -0.11000261133142097
000490 0d 3b 09 5a 86 a3 a2 bf 4d 3f f3 0c 8f 15 9a 3f
       -0.03640384530137029 0.0254728652624288
0004a0 92 35 b6 f3 34 d0 94 3f eb 6b de 93 5f b0 ca 3f
       0.02032549607752327 0.208507487489299
0004b0 f4 c6 d6 24 5c 90 be 3f 38 25 6c d0 76 4c b2 bf
       0.1193902578295612 -0.07147924984396503
0004c0 35 cc 26 cf 1d 8f a6 3f 81 35 1d a0 a1 ba b1 bf
       0.044060641800932755 -0.06925401839290225
0004d0 0c de ab c1 90 dc ad 3f 3e a9 56 af 8a 7e ab 3f
       0.05832340587761217 0.05369981184351723
0004e0 9a 10 da e0 81 70 b4 bf 67 cb 7a 1c e7 2e b9 3f
       -0.07984172572656903 0.09837192960075712
0004f0 4a e2 c3 8b aa d0 bf 3f ea 16 8a bb 81 6f b1 3f
       0.12427774345622669 0.06810770825003556
000500 bd 73 cc 6e 13 d7 b7 3f 34 d5 b2 78 1b df b3 3f
       0.09312554793400714 0.07762309738867118
000510 c7 7e 21 7e 32 86 aa bf 99 a7 b2 18 5b ad 8a bf
       -0.0518050936668693 -0.013025962535113499
000520 fd f0 be 2c 7d f2 b1 3f 92 62 9d 89 89 14 ad 3f
       0.0701063379519304 0.056797311829261635
000530 58 40 6a ca 2d 25 87 3f b3 f8 88 56 3a ed bf 3f
       0.011301381816594055 0.12471356022521966
000540 0b 32 c6 20 e2 97 56 bf c2 2f e0 ec 0c 42 a4 bf
       -0.001378985241078048 -0.039566425242895345
000550 14 8a ce 9e 48 6a ac bf 88 fb f9 6c 19 3d 95 3f
       -0.05549838007506849 0.0207408879054998
000560 5d 25 01 6d e3 bd b0 bf c0 8c 33 af 4c b3 a3 3f
       -0.06539746676675891 0.03847732199371867
000570 29 45 e8 43 f3 c2 ae 3f 08 22 df fb 6c 15 70 3f
       0.06008110240885351 0.003926683157211126
000580 9c cb 73 79 df c4 c6 bf 3b d9 00 87 3d 52 b4 bf
       -0.1778830855397161 -0.07937988801936495
000590 24 14 af 21 f1 80 9b bf 31 86 4e 4c 78 fe 99 bf
       -0.02685906189050881 -0.025384788186448574
0005a0 9c 6d b2 1f 3e 4c b7 3f f3 af 95 11 a8 92 a6 bf
       0.0910071208367555 -0.04408765043885401
0005b0 ba fb b6 2e 1c 71 b0 3f 8f 25 de ba 23 e1 a1 3f
       0.06422592297074817 0.03492080360508531
0005c0 14 f0 4e 0c b2 f7 bb bf 7a 07 35 0a 06 49 a7 3f
       -0.10924828339096876 0.045479000802983685
0005d0 9e c8 c6 8e d5 6c b4 3f 3f d4 df aa 22 7f be bf
       0.07978567825083124 -0.11912743255364065
0005e0 20 3a 39 a3 60 b5 ad 3f 1c fd 61 08 8c 29 ba 3f
       0.058024425434826776 0.10219645695359642
0005f0 7d a4 fe f4 9b 24 b2 3f 27 6d 6e 1b 26 08 a3 bf
       0.07087111216846327 -0.037171545837930524
000600 e4 ea 4f 59 d3 ae b0 bf 82 6b 23 17 0d b7 c2 bf
       -0.06516762667153447 -0.1462112772922773
000610 b7 12 9d 64 74 9f 99 bf ea cd 67 22 4a df 94 3f
       -0.025022333756413242 0.020383032178825568
000620 56 39 3e b8 cf 1c ab 3f fc d7 8b 1f e8 61 b1 3f
       0.052954188576324654 0.06790018816158744
000630 85 d6 d3 c8 54 a7 ae 3f 13 d5 38 15 97 f0 c0 3f
       0.059870385661196436 0.1323422292349866
000640 65 79 2d 14 e9 87 a5 3f c8 5c 1c 1d 03 27 91 3f
       0.04205253955182079 0.016750382091313992
000650 3b 72 16 b7 b4 1e c0 bf 10 fe 8b ec 00 e2 b6 3f
       -0.12593707027271414 0.08938604140347928
000660 7b 72 9a 1e 18 d9 91 3f 3d 5b 41 84 7a 07 b6 3f
       0.01742971121585633 0.08605161408318636
000670 05 03 e3 e2 14 26 8d 3f 0a c4 ae bf 37 04 98 bf
       0.01423279111293275 -0.023453589510328533
000680 ed e3 22 a7 eb 7d aa bf 9f 9a 17 f2 ca 52 a8 bf
       -0.05174194731939239 -0.04750665860392655
000690 b3 ab b9 8c 22 b9 bb 3f c9 69 52 d1 bd 47 c1 3f
       0.10829368529964149 0.13500187607571792
0006a0 af a9 1e 43 cc 42 be bf 6b 8c 71 04 68 72 c2 bf
       -0.11820675505319998 -0.14411640374155196
0006b0 a1 0a ca ce c2 63 b0 3f 5e 0f eb 8e 53 c0 bc bf
       0.06402223156514221 -0.1123096679612536
0006c0 d1 83 f4 14 ff 89 b2 3f 37 fa 84 2d 8a e5 b0 3f
       0.07241815816497811 0.06600249873461271
0006d0 49 7e 48 f6 5b 69 95 bf 54 c4 bc da 63 56 be bf
       -0.020909726054126918 -0.11850570764797058
0006e0 1a 88 4c cf bd c8 a3 bf aa 52 63 b9 f4 61 c0 bf
       -0.038640910677955456 -0.12798937847278086
0006f0 99 0c ec 73 0e 26 77 bf 4d 96 d2 1c 6d 04 be bf
       -0.005651527839975711 -0.1172550387733164
000700 bd 36 1c 56 74 ba 9c 3f 2d 18 58 8f 0c a4 b7 bf
       0.028055017238378655 -0.09234694003689077
000710 28 73 50 c8 36 59 c0 bf e6 21 f5 f2 f1 5b b5 bf
       -0.1277225950333556 -0.08343422109204077
000720 61 c0 4a f9 1b e9 71 3f 9d dd c5 7c 52 26 a0 bf
       0.004372700951236736 -0.03154237530810209
000730 00 1a 4b a8 a6 9e b5 3f 39 ff 2b c5 78 51 8e bf
       0.08445207222676032 -0.014803832547385919
000740 ea 09 19 7f 9b 4d a8 3f 99 2d ad bf 1c 2d ac 3f
       0.04746709753500851 0.055031679533011864
000750 c7 f9 2e e9 a5 e4 a5 3f c9 d2 8d 67 f0 ba b2 bf
       0.04276007148245103 -0.073164963990915
000760 78 67 cf b8 e7 0c b0 3f a4 3e d8 a5 34 14 b3 bf
       0.06269691717116455 -0.07452706383650792
000770 ef 8b 36 9f 60 14 b8 bf ff bd 31 aa 12 37 b8 3f
       -0.09406093489683064 0.09459034590849312
000780 e4 fc 10 1e 4a 79 a8 3f b8 70 e4 6b 73 bc b2 3f
       0.047800365610322776 0.07318803199854329
000790 99 4e 02 57 4f d0 7e bf ca 94 86 59 5c 85 af bf
       -0.007522878571893842 -0.06156433670848001
0007a0 5b 3d 7e 76 e3 03 86 bf 76 bd 3f 38 90 1d 97 bf
       -0.010749604276297722 -0.022573712762036867
0007b0 54 89 d9 5d ff 2d a4 bf c1 7b 62 1a f1 bf c1 3f
       -0.03941343327166416 0.1386700991469905
0007c0 cd 93 27 6e 28 ac c4 3f cc a0 00 ce 4c d2 bd 3f
       0.1615038431038144 0.11649017361981179
0007d0 7e c4 09 4a d3 2f b9 bf 97 c6 08 3d 92 49 ac 3f
       -0.09838600690433627 0.05524880404517523
0007e0 01 5f 3b 4b 15 07 bb bf 8c 40 47 d3 48 e5 bb 3f
       -0.10557683073727377 0.10896735342180558
0007f0 7b 85 90 e9 10 1f a0 bf 44 67 4d 7b 78 1c a0 3f
       -0.031487015258117666 0.03146721367984509

bias_ih_l0 f8 [200]
000000 e7 dd 68 cd f9 56 b8 bf 40 b3 61 c0 1c 1a c8 3f
       -0.09507714524158183 0.1882968844760402
000010 20 d2 e5 e5 e8 0a be 3f 6a 9e ee 52 4c 6d 9f bf
       0.11735396969545109 -0.030690376817487687
000020 09 23 60 de e7 59 92 3f ad 8d ff 8d 7d 85 a1 3f
       0.017921088168836117 0.03422157629372733
000030 79 15 a1 9b 91 da b5 3f ee dc c0 51 0d 33 b5 bf
       0.08536634492437213 -0.0828102421372596
000040 4c ab cc 2b 6c ed 95 bf 08 5d b8 96 96 2a af 3f
       -0.021413507626827852 0.0608717974648077
000050 d5 e6 8b 87 a6 18 c7 3f 8f 2d 0d aa 66 06 b9 bf
       0.1804397737358189 -0.0977539220013368
000060 f8 6f fe 34 34 32 cc 3f 88 14 f1 e0 a3 99 a8 bf
       0.22028210246651247 -0.048047181328493116
000070 6e 6a 86 d1 cc 94 a6 bf 82 73 6f c6 c9 49 aa 3f
       -0.044104004456319554 0.05134420916849704
000080 2c 80 87 db bf 99 af bf 4d 37 14 e1 c2 6c a4 bf
       -0.06171989016343135 -0.039892282462558805
000090 1b 8a bf ec ae 0d c9 3f f7 c5 a8 56 40 cf bd 3f
       0.19573008117647892 0.1164436542101369
0000a0 5b cc 43 ed 13 87 c0 bf 73 35 4f d6 90 2f d3 3f
       -0.12912224850842588 0.2997781842103315
0000b0 7c f1 b4 74 ab fe d5 3f 62 af 17 a2 0c 1b 8d 3f
       0.3436688079562129 0.014211748787566317
0000c0 da b8 38 2a fd c8 c4 3f 7c 55 53 4d 17 ec cb 3f
       0.16238369523620727 0.21814242625866231
0000d0 7d af 44 c7 e3 ce a6 3f e3 31 c6 d4 16 f3 d0 3f
       0.0445471935985031 0.2648369863389048
0000e0 35 29 36 1a fd fb c0 bf 0a b2 8a 83 77 de c4 3f
       -0.13269008426534304 0.16303914950312076
0000f0 c0 d8 50 70 11 44 c0 3f 17 ff e8 82 7a eb b9 3f
       0.1270772741715458 0.1012493676762428
000100 75 ac 88 aa ea d1 a5 bf 32 31 5e ff cb dd 75 bf
       -0.042617162053226666 -0.005338475098948957
000110 4d 7d 37 63 ec 77 c4 3f 09 91 3d cd 64 3b ba 3f
       0.15990977139061116 0.10246877680544143
000120 d3 16 59 01 9a 3c d1 3f a1 63 91 73 79 55 bf 3f
       0.2693238270916087 0.12239798614008503
000130 fe 71 22 f0 a0 bf c6 3f 6c cf 3f 4c 4d fc ca 3f
       0.17772304272956768 0.2108246443091234
000140 36 1b 44 48 2e 66 c6 3f 0d 8a a8 42 7b d3 ab 3f
       0.17499331024756665 0.05434785069180146
000150 ab 0d 01 dd 45 f7 ab 3f 21 f1 59 5a 2b 4a bb 3f
       0.05462091753772865 0.10660048442690996
000160 46 b6 ae 6a 3b 1b a2 3f a3 cf 6e df 0e f6 d7 3f
       0.03536401440883856 0.3743931943856699
000170 c6 01 94 0d 89 74 cb 3f 6d 57 ab 3f 86 64 cc 3f
       0.21449387705798822 0.2218177615056293
000180 28 8b 79 2f cf 18 b7 3f 65 f0 7d bb 44 d8 cd 3f
       0.090222310152552 0.23316249041443196
000190 fd d8 53 aa 43 60 b6 3f 06 10 c4 ad fe 46 a7 3f
       0.08740637691866833 0.045463522636083595
0001a0 e8 a0 fe 1f b9 c1 91 3f 64 e0 50 f5 8a 24 96 bf
       0.017340557649419802 -0.021623774741073368
0001b0 94 dc 63 2d 4e a2 b8 bf ac d7 ce 43 92 85 8a 3f
       -0.09622658355862007 0.01295007962640312
0001c0 dc 52 c6 67 15 2b b8 3f 0c 5a a4 6d 26 31 b9 bf
       0.0944074037891584 -0.09840622116858116
0001d0 a8 c4 36 33 08 42 b6 bf 3a 3c 75 ea 4a ee bb 3f
       -0.0869450688394574 0.10910480712958384
0001e0 fb f4 1f 24 6f 5b a1 bf be ff 32 d3 df 68 c0 bf
       -0.03390071216561271 -0.12820051014386807
0001f0 41 09 5f ba 33 e6 a4 3f ad 02 46 93 1f c5 a8 bf
       0.04081880235709657 -0.048378931739539645
000200 c6 b6 23 0e cd 42 c0 bf 7f b9 42 8e 29 38 a6 bf
       -0.12703860464482924 -0.04339723455028643
000210 48 7f 85 89 ea d0 ae 3f b3 84 c2 05 c6 f6 b6 bf
       0.060187653815545306 -0.08970296517010716
000220 59 1b 43 a0 d2 45 ae 3f d6 2d 29 d9 eb 04 98 3f
       0.05912645536732581 0.023456273202368504
000230 3c cc 75 24 4b 7b a4 bf 41 e0 8a a3 25 1e 74 3f
       -0.040003154946042646 0.004911562945089599
000240 11 d0 86 ae 21 3f bf bf c0 ce bc 1f 8f 39 9b bf
       -0.12205706129935857 -0.026586757957558715
000250 b3 a7 73 c7 4d 1b c1 bf 3f 5d e5 6f 90 86 b0 bf
       -0.13364574660164194 -0.06455328685602967
000260 df d4 7a b6 28 92 7e bf 0b 18 97 3c d0 20 c1 bf
       -0.0074636068672379865 -0.13381388624674204
000270 c5 e0 6b 92 cf a4 c1 bf c3 91 3d 1e e9 4c c5 bf
       -0.1378421273182139 -0.166409625783798
000280 39 b4 f2 6e b4 b1 99 3f 96 75 ed 9a 0d 65 bb bf
       0.025091952583057717 -0.1070106986275817
000290 ba 9d 39 fc 3e f1 b5 3f 84 2a ae aa c5 3e c0 bf
       0.08571237237776233 -0.1269156535530166
0002a0 2e 62 34 d9 17 d2 b5 3f 03 c5 35 ec a9 cb 8d 3f
       0.08523701718184704 0.014548614045198699
0002b0 d6 04 6a 18 4b f6 82 3f 39 b7 5d 1a 6d 64 ad bf
       0.009258829767761528 -0.0574068159756806
0002c0 68 0b 29 4f a4 8e b3 bf 15 19 18 9f 7e a6 c7 bf
       -0.07639529163956882 -0.18476851242321204
0002d0 1c b1 c2 39 9d 5f 78 3f 9f 1a d2 c0 cb 32 b8 bf
       0.00595055977116157 -0.09452508409058645
0002e0 1e 27 de da 90 d2 b8 bf db f5 a2 11 59 83 ae 3f
       -0.09696297973109977 0.059595855143452524
0002f0 da c6 e3 02 00 af c9 bf 5d 97 33 dd e7 8a c8 bf
       -0.2006530775175211 -0.19173906613212469
000300 90 df 91 74 2e 28 a5 3f 2d 28 02 b6 e6 51 a5 3f
       0.04132218525859266 0.041640481679749854
000310 34 a4 b5 51 df cb b5 3f 64 ca 27 26 9a 1c ca bf
       0.08514209503995646 -0.2039978681855984
000320 47 fa a7 db f3 5f bb bf 5c 58 37 fe 85 df bf 3f
       -0.10693287003230366 0.12450444656801224
000330 3f 3a 0c 28 cc a2 7f 3f 96 76 fa 34 41 e5 a1 3f
       0.007723615156250362 0.034952199666105674
000340 2d 8b 8f 0e 20 75 97 bf bb 56 2d bd 30 18 a5 3f
       -0.02290773476478163 0.04120018300333813
000350 82 98 64 3e a9 9e bb 3f 05 74 14 6d 68 3f b4 bf
       0.10788972638383323 -0.07909252799113638
000360 2b 97 46 46 38 1d bd bf 5b e5 7b 64 1a 78 ab 3f
       -0.11372710910526666 0.053650688902005604
000370 df 01 d4 68 27 79 c0 bf 61 99 b4 ea 4e 9d ac bf
       -0.1286973249298304 -0.05588766684586478
000380 c7 19 f3 4f 6f b7 ba 3f a1 8b 1a bc 64 77 b3 bf
       0.10436149312872721 -0.07604055015921897
000390 96 10 82 1a cf e3 b4 bf 51 4a c8 9d 5b 44 ab 3f
       -0.08160108945054598 0.05325590420774929
0003a0 f2 2a fc a6 71 6e a3 bf 1e 02 1a 9d 09 50 a7 bf
       -0.03795199550048335 -0.04553251307243421
0003b0 7f 66 db c6 a0 dd b7 bf e2 2f 07 86 06 a6 b8 3f
       -0.09322552542598748 0.09628334781808648
0003c0 27 40 ba ce f2 10 a7 bf 41 7b d6 60 62 ba 96 3f
       -0.04505118154077108 0.022195374641906133
0003d0 be 83 a7 c5 72 b0 a5 3f bc 3f 07 64 b3 a9 92 3f
       0.042361818912247426 0.01822548196815864
0003e0 ab db f9 b1 35 00 a1 3f f9 ce 13 97 6e cf 7e bf
       0.03320472524222081 -0.007522041313894106
0003f0 ad 2b 40 64 d4 6b 94 3f 6a 6f 99 77 95 4b ab bf
       0.01994258748895177 -0.05331103405907707
000400 90 ba f9 37 42 53 ac 3f 70 ad 6a 07 0c 11 aa bf
       0.05532271321577753 -0.05091130819831846
000410 ec 62 67 87 ee 74 b8 3f f5 2a 98 69 46 00 c1 3f
       0.09553423696287283 0.13282089382149534
000420 e2 dc a3 95 a9 65 b2 3f 43 0a 74 01 38 07 b9 bf
       0.07186374572107782 -0.09776639972191341
000430 96 63 9a e1 98 90 8b 3f 13 33 51 b2 c5 de b0 bf
       0.013459391007289583 -0.06589923480460085
000440 0d 8f 20 cf d5 da a3 3f 35 1f b7 89 15 b0 b9 3f
       0.03877895501525872 0.10034308063688686
000450 3c 79 44 7f fd 15 80 bf 6d 2c 73 17 12 27 96 3f
       -0.007854443022151096 0.021633417779224496
000460 fc 46 7c c7 34 93 a3 3f 0e 33 c9 73 42 d9 96 bf
       0.03823246894002172 -0.02231315452290788
000470 68 9d ca 51 d6 a9 b6 bf 4f ae 7f 71 1e db b4 3f
       -0.08852900978910372 0.08146848937001859
000480 fe 7b 7c 9a 77 f4 c0 bf e0 1f 5a d9 fb c4 bc 3f
       -0.1324605469062305 0.11238073402830606
000490 87 4f b2 2c da 06 b7 bf a5 f6 9f b8 d5 b2 b1 bf
       -0.08994830695365695 -0.0691350532287865
0004a0 9c 08 2d 59 62 80 95 bf 79 cd 9c d6 a9 bc a8 3f
       -0.02099755925451828 0.04831438774854297
0004b0 4a e7 a2 f4 db 3e b4 3f 66 df 48 a0 98 11 c2 3f
       0.07908415529791771 0.14116199327849727
0004c0 ef 7b 82 8a c0 e9 96 bf 3c 1d 68 b1 d5 36 bd 3f
       -0.022376068548165703 0.1141179617044274
0004d0 2b 37 5e 15 f0 43 c5 3f 6a 1c 70 3d 5e e9 bb 3f
       0.16613579791413122 0.109029664992805
0004e0 c5 f0 ec 34 71 84 b0 bf 37 83 07 1e c1 e9 89 bf
       -0.06452090780379922 -0.012652882317469511
0004f0 cb 69 cc 64 17 a7 a8 bf e0 64 69 d2 bd 10 b0 3f
       -0.048149806074622235 0.06275545489315304
000500 53 18 b6 ad 0d 5e cd 3f 66 55 1b af 22 83 89 bf
       0.22943278295514577 -0.012457152336916532
000510 33 2a 0a 40 89 a8 c5 3f 72 26 49 5b 00 c5 8b bf
       0.16920581461848058 -0.013559344087428846
000520 6a c2 66 ed a1 26 c4 bf e6 81 27 58 4e 69 c5 3f
       -0.15742897121301108 0.16727618507776681
000530 78 36 ed 26 c4 c5 be 3f 4e 67 75 28 ad 0a b2 bf
       0.12020517301899669 -0.07047540891417478
000540 89 cf 15 b0 a7 b7 c3 3f ce c7 f5 b3 4f 61 bb 3f
       0.15404220674428995 0.10695360320622102
000550 06 10 bf 39 e1 1f c0 bf e4 6e dc 99 fc 85 c9 3f
       -0.12597289390225813 0.19940145027873435
000560 54 2a 43 d8 27 d2 d4 3f 14 24 30 8f d6 73 b1 3f
       0.3253268825471072 0.0681737994747354
000570 29 3a 59 dd f7 b2 c5 3f a1 d6 d1 8d 79 c6 c5 3f
       0.16952417667421685 0.17011947083272097
000580 0d e7 22 5b cb 06 ba 3f 91 67 e0 0e 2e 58 c0 3f
       0.10166617369659665 0.12769103742976687
000590 d0 42 1a 52 fe f2 c1 3f ec d3 12 03 3f 22 b5 3f
       0.1402280712977899 0.08255380463636158
0005a0 8a d5 c3 1b 5d 5d 81 3f 9c 86 38 0a 45 3b 86 3f
       0.008478858384914262 0.010855235456861671
0005b0 1b 57 fc ba 30 b4 73 3f 48 08 9b 0e 05 38 b9 bf
       0.0048105147868875665 -0.09851104361135399
0005c0 34 f1 a1 78 49 07 b7 bf da e8 3f c4 04 48 c9 3f
       -0.08995494074946891 0.19751033384802136
0005d0 e5 f1 bb fe 5b 33 d5 3f 08 37 c0 19 b7 03 7a 3f
       0.33125972629912176 0.006351199375797874
0005e0 0e e6 a0 a7 e1 c5 b0 3f 80 e0 63 f6 b8 f1 a3 3f
       0.06551943151944092 0.038953571392938535
0005f0 b2 eb 7d 05 72 87 d3 3f dc 84 27 0e 37 bb cd 3f
       0.30514193092647723 0.23227585021144292
000600 bb 83 17 88 04 01 bc 3f 1b f1 d7 69 0a 5d a3 bf
       0.10939052889399552 -0.03781921903643789
000610 a6 7e 8c 52 38 f2 b4 3f 0e 36 45 f3 64 9a d4 3f
       0.0818209840331244 0.3219234824835845
000620 41 a4 4a 97 e2 15 ba 3f 02 c7 58 a6 90 63 d0 3f
       0.10189644044534509 0.2560769676666582
000630 e4 96 9d 67 d3 4e b7 bf 63 c6 30 2b 2a 27 c9 3f
       -0.09104653625180564 0.1965077124491926

bias_hh_l0 f8 [200]
000000 06 df 8d d6 a4 2b 79 bf 3a b3 61 00 f5 24 cf 3f
       -0.006145137690388719 0.2433153392661554
000010 d9 2d 1a 5a e0 51 b3 bf 55 58 44 0b 28 0a bd 3f
       -0.07546808433305986 0.11343622469971255
000020 b5 08 98 d7 4e a3 b7 3f d1 c6 ff e6 36 a1 b9 3f
       0.0923356319763425 0.1001161874735559
000030 f8 d4 bd c8 24 d7 af bf f1 dc c0 91 1f 46 b1 bf
       -0.06218829107721463 -0.06747624691421429
000040 d6 2a f3 4a 6e 52 b0 bf 09 5d b8 16 7f 63 ae 3f
       -0.06375779466467732 0.059352847598512844
000050 d3 cd 17 af 43 51 b5 3f c9 96 06 25 95 d4 c3 bf
       0.0832712461922747 -0.15492500598809603
000060 e6 7f f3 a7 4a 6b 9e 3f 8e 14 f1 60 72 3a a3 bf
       0.029706160069394992 -0.03755528863306622
000070 45 35 c3 28 ff f4 b4 bf 22 32 42 e6 9a 20 84 bf
       -0.08186335320643419 -0.009827814247068526
000080 f3 1f 1e a9 cc 37 c4 3f 41 f2 ba a7 4d 73 c2 3f
       0.1579528642434976 0.14414377870515874
000090 45 14 7f 19 b6 ca bd 3f f5 c5 a8 56 e6 d8 be 3f
       0.11637437937231805 0.12049712768273209
0000a0 0b 9d e1 95 f4 59 9f 3f 78 35 4f be 63 03 d7 3f
       0.03061659016421196 0.3595818861475304
0000b0 84 f1 b4 b4 5b 37 d2 3f f3 7a 21 6a 31 fe c0 3f
       0.28462879798078 0.1327573555199347
0000c0 65 5c 1c 55 dd 74 d4 3f 7a 55 53 ed 72 c7 ce 3f
       0.3196328478965767 0.24046169841919235
0000d0 f0 2b d1 b1 cb 45 c0 3f da 63 8c 49 23 bb c2 3f
       0.12712999517893264 0.14633599368315126
0000e0 74 52 6c 34 ce 67 b8 bf 78 90 55 1c a9 0b 9d 3f
       -0.09533394603597306 0.028364794115433217
0000f0 76 4e 5e df 54 9c b1 bf 89 7f 74 61 ca e2 c2 3f
       -0.06879167989091592 0.1475460983137931
000100 c3 a9 bb 6a 0f 05 be 3f e2 1c 0a 00 db c4 b7 3f
       0.11726471286571098 0.09284752608265337
000110 ab fa 6e 06 07 2b b5 3f 89 c8 9e 66 90 ec c7 3f
       0.08268779666011976 0.18690686236147183
000120 8b 2d b2 c2 19 ec cb 3f 37 c7 22 a7 4f 9e a3 3f
       0.21814271933213222 0.03831719317658016
000130 77 7e 9c 08 50 20 63 3f 6d cf 3f 0c 12 6f c9 3f
       0.0023347438008299265 0.19870210264309254
000140 73 36 88 d0 30 b1 be 3f 84 22 aa 70 99 e4 cc 3f
       0.11989121523967032 0.2257262992973389
000150 af 0d 01 dd 6d 42 af 3f e3 0e a6 a5 04 b2 b7 bf
       0.06105368922046794 -0.09256009143978931
000160 c1 d6 55 e5 85 28 d2 3f a3 cf 6e 5f 54 43 d6 3f
       0.28372332950617013 0.3478594715081675
000170 c8 01 94 ed 59 df cd 3f ec ae 56 bf 33 f7 bf 3f
       0.2333786401795932 0.12486575528481197
000180 88 2c e6 bd 31 4c 95 3f 28 f8 be 9d 04 a7 d6 3f
       0.020798470702669408 0.3539439716804531
000190 fb d8 53 ea 38 ae bf 3f 0f 10 c4 ad 4f a0 a0 3f
       0.12375217171561197 0.03247307773747831
0001a0 2d be 02 c0 cd 23 8e bf f5 e3 55 81 84 c8 c0 3f
       -0.014716727659418083 0.1311193114777606
0001b0 60 23 9c 12 ab 51 bc 3f 26 4a 0c 2f d9 67 a8 bf
       0.11062115864127753 -0.04766730021778569
0001c0 5b 5a 73 f0 f5 bf a3 bf f3 4b b7 e4 d8 6d ae 3f
       -0.03857391891658742 0.05943181793158905
0001d0 4e 3b c9 0c 74 fa b3 3f 79 0f 2b 56 d4 cc 98 bf
       0.0780403643814058 -0.024218862304010245
0001e0 8a 05 f0 6d 94 e7 b3 3f 76 ff 65 66 61 ea b9 bf
       0.07775237735770282 -0.10123261213266041
0001f0 75 12 be 74 6f 2b 9c 3f 5f 01 a3 69 c6 fc bb bf
       0.02750944280662045 -0.10932579115888562
000200 9d 6d 47 bc 97 7b b2 bf 25 68 d4 1b 37 b6 65 3f
       -0.07219837519317314 0.002650363573263997
000210 23 a0 9e 4d e8 b5 c0 bf aa 84 c2 a5 88 05 b4 bf
       -0.13055137434025807 -0.07820943877097145
000220 74 c9 79 bf b4 e9 95 bf 47 d2 d6 26 55 d9 94 bf
       -0.021399330317259893 -0.020360308166077947
000230 d4 19 c5 6d 70 22 bc 3f ec a3 8e cb 6b 6f ac bf
       0.10990050010614222 -0.05553757533863987
000240 03 68 43 47 5a 3d c7 bf ad 98 21 f0 30 45 a8 3f
       -0.1815598342862473 0.04740288668908597
000250 a9 3d 9d bb e5 32 9f bf b7 a2 1a 10 d1 ce b3 3f
       -0.030467595649779664 0.0773745216671483
000260 a3 d6 b3 c5 66 b5 c4 bf fd 2f 2e d9 98 ff b3 bf
       -0.16178593305055697 -0.07811885168320028
000270 5a 3e 28 7b 11 8a b8 3f 89 23 7b dc 3d 4c bd bf
       0.09585675484435666 -0.114444605186817
000280 fb 52 43 64 a0 46 bd bf ae ba 76 5d 1a ef c2 bf
       -0.11435892532183438 -0.14792184413587023
000290 16 31 e3 a1 e8 f2 c3 bf 92 2a ae 9a ec f7 c2 bf
       -0.1558504858461524 -0.14819104721785387
0002a0 9c 3b 97 4d 1e 12 a6 bf ad 8e f2 c4 69 a3 aa bf
       -0.04310698220398665 -0.05202799348014984
0002b0 e2 f5 2b cf c9 42 73 bf a3 db 2e 2d ff 8c bb bf
       -0.00470236617797812 -0.10762019017316375
0002c0 fd 4a 6f 0d 0b 7e 70 3f 40 32 30 1e 3d 3c b4 bf
       0.004026454137561639 -0.07904417025583488
0002d0 0c 2b 9c 53 6c 56 b8 3f cc ca 5b be e2 e5 ac 3f
       0.09506871262798827 0.056441388833169265
0002e0 02 39 f1 d6 c7 ea 8f bf d2 f5 a2 91 f0 6f a8 3f
       -0.015584527251260475 0.0477290323046692
0002f0 98 c8 e1 e8 55 07 98 3f ba 2e 67 9a 45 b2 bd bf
       0.023465483035075424 -0.11600146312337759
000300 8d df 91 f4 c3 b6 a3 3f 68 5f f7 27 e7 84 82 bf
       0.0385037647292271 -0.009042554766821545
000310 c5 2d 25 d7 68 61 c3 bf 5b ca 27 e6 d5 5b c4 bf
       -0.15141020302904287 -0.1590525983625238
000320 55 fa a7 db 18 b6 b3 bf 6c a7 c8 c1 44 2b b7 bf
       -0.07699733126353554 -0.0905039761643402
000330 cb 61 40 81 89 0f c1 3f af 9d 3e cd 6e 2f c1 3f
       0.1332866555319597 0.13426003476818724
000340 d3 e2 a3 a3 f2 f7 b6 bf 2e a9 d2 82 c0 04 a0 bf
       -0.08972088332292154 -0.03128625485381274
000350 4f 4c 32 1f 0f 6b c4 3f 1d 74 14 cd 94 e2 ba bf
       0.15951718352570984 -0.10501985556443612
000360 51 a3 e5 66 ba 6f 9d 3f ed ca f7 c8 ff e4 96 3f
       0.02874652150186147 0.022357937470540646
000370 2b fe 2b f7 07 6d c3 3f 6f 99 b4 6a 9f 32 a0 bf
       0.15176486557901234 -0.03163622071797333
000380 36 e6 0c 90 b7 f5 b8 bf a2 8b 1a 7c fd ec b5 bf
       -0.09749934450965089 -0.08564743308902092
000390 b9 f7 de 57 3c 08 72 3f 97 b5 37 a2 5a 85 ab bf
       0.004402385440640027 -0.05375178556628695
0003a0 b0 0a bf c9 c1 54 c5 bf 0c 01 8d 2e 1a a1 b1 bf
       -0.16664907790080496 -0.06886447559827874
0003b0 60 99 24 b9 79 94 be 3f 39 7f 39 30 08 56 80 3f
       0.1194530560502236 0.00797659299058716
0003c0 ef df a2 d8 ca fe b4 3f 24 61 ca a7 b1 dd b3 bf
       0.08201282299967237 -0.07760153147171828
0003d0 17 1f 96 0e f6 88 c0 bf 1b 30 fe 66 13 e4 b0 bf
       -0.12917972290255683 -0.06598016037440894
0003e0 a8 48 0c 9c 6b 11 99 bf f3 c2 8e 16 e5 39 b8 3f
       -0.024480515860951485 0.09463340569233107
0003f0 e1 0a 10 b9 46 cc b2 3f 72 6f 99 37 4a 7c a8 bf
       0.07342950838214392 -0.0478232567663487
000400 56 dd fc 5b e6 4b ba 3f b0 56 b5 83 bc 55 be bf
       0.10272063966555342 -0.11849573340927111
000410 43 5e ec ec 00 86 60 3f 28 a8 3e b3 1b 92 97 bf
       0.0020170229030432043 -0.023018296065551308
000420 2c 46 b8 54 83 f4 a9 bf 79 eb 17 7d a7 aa a5 3f
       -0.050693611232542984 0.042317613620943946
000430 26 67 99 c7 30 5a ab bf 7e 66 d7 96 ce 23 c0 3f
       -0.053422474255695726 0.12609274258902653
000440 13 71 df f0 28 52 a0 bf 2d 83 23 59 f2 d5 99 bf
       -0.031876830485744766 -0.025230204287143444
000450 ac 3c a2 bf c1 86 9b bf 1f cb dc 05 44 85 bd 3f
       -0.02688124401225582 0.11531472342612091
000460 e1 e3 0e e2 59 c3 8b bf 79 cc 24 cf 8b 94 76 bf
       -0.013556196414230061 -0.005512758378517829
000470 45 a6 58 8d 6b 32 55 3f 42 ae 7f b1 17 77 bc 3f
       0.0012937593759353588 0.11119220813241618
000480 20 f8 f8 74 2b d1 b7 bf 20 e0 a5 66 ee c1 b6 bf
       -0.09303542714857871 -0.08889665609410757
000490 64 b0 4d 33 28 16 b1 3f 59 09 60 87 47 71 b8 3f
       0.0667443394901866 0.09547850661332315
0004a0 ae ee a5 4d 5b 8a 85 3f b2 cc 58 2a f1 f5 c1 bf
       0.010517800624021714 -0.14031805579870632
0004b0 a1 73 51 fa 8e b1 c2 3f 69 df 48 80 05 88 c9 3f
       0.14604365561072277 0.1994635464086472
0004c0 f8 9e a0 62 eb ad b9 bf c5 e2 97 8e ce de b2 bf
       -0.10031005056282172 -0.07371226292878948
0004d0 ab dc 78 55 26 92 a5 3f 62 e2 f8 a3 b0 97 58 bf
       0.042130659040077255 -0.0015010094647448726
0004e0 15 7a 98 58 50 68 89 3f c8 87 1f 6e 24 7e c2 3f
       0.012405994132731949 0.1444745576582689
0004f0 87 e5 cc 26 55 d0 c4 3f 20 36 2d db 85 90 a0 bf
       0.16260780710744546 -0.03235262203689282
000500 59 18 b6 cd 1d 78 c5 3f 58 d5 c6 2b be 25 ac bf
       0.16772816223618994 -0.0549754551351877
000510 a6 a8 28 80 f9 dc af 3f b7 6c 5b 52 44 d8 98 3f
       0.062232777494800204 0.02426249268215194
000520 f2 84 cd 7a 27 b5 be bf da 03 4f 30 02 be b8 3f
       -0.119951693993716 0.09664930037889921
000530 36 9b 76 33 18 3c c4 3f 46 4c c5 9b 67 85 c6 3f
       0.15808393967491846 0.17594618898383113
000540 ee 7b ae 00 69 46 9a 3f c9 c7 f5 33 bb 72 b8 3f
       0.025659218470192195 0.0955006601195968
000550 50 00 0f 64 d0 77 84 3f 73 37 ee fc 00 0f d3 3f
       0.009994152120157335 0.29779076290366574
000560 4b 2a 43 d0 66 58 d0 3f 16 12 98 a7 d3 5f c2 3f
       0.2553956064045095 0.1435494011240201
000570 14 9d ac 26 55 02 d1 3f 4c ad a3 3b dc 84 b7 3f
       0.26576737190994604 0.09187103706397187
000580 1a ce 45 36 6c 74 ae 3f cc 33 70 a7 0c 7e d3 3f
       0.05948198473461393 0.3045684466495089
000590 7a 7a cb db 2e bf bc bf fe 69 89 e1 7e 40 c0 3f
       -0.11229222169957068 0.1269682503942277
0005a0 b1 7a 78 c3 77 f8 b0 3f 6b 79 c7 f5 36 41 8a bf
       0.06629131815177904 -0.01281969964560111
0005b0 6e c5 af ab 1f 48 bd 3f 1c 84 4d b7 25 41 c0 bf
       0.11438177053039109 -0.12698813867885483
0005c0 d3 0e 5e 27 9e f8 b1 3f 92 5c 00 ef dc c9 a7 bf
       0.07019985638731478 -0.0464619676351329
0005d0 e7 f1 bb 2e c2 a8 d9 3f 1f f9 c7 9c 43 4b a9 bf
       0.4009252029789238 -0.04940234459717118
0005e0 95 f5 19 5f 18 9e 3b bf 1d f8 98 dd 17 42 cb 3f
       -0.00042141051299168206 0.2129545051593035
0005f0 72 d7 fb fa b4 6f c1 3f dc 84 27 ee a7 b9 ca 3f
       0.13622152571741314 0.20879077080375097
000600 d7 c1 0b 84 88 59 c1 3f be 03 8a 05 cd 4f c0 3f
       0.13554483840518003 0.12743532915558647
000610 a7 7e 8c b2 fc 52 bb 3f 14 36 45 73 fc 90 d0 3f
       0.10673503264524219 0.2588492513358187
000620 41 a4 4a f7 c9 09 b9 3f ab 8f 73 9a ee 87 93 bf
       0.09780561721221749 -0.019073227097478867
000630 1e 69 62 18 39 0e b5 3f 64 c6 30 ab a2 5f c9 3f
       0.08224827618906658 0.1982310615435835

weight f8 [1, 50]
000000 42 d1 85 c3 9a 56 c1 bf 40 c9 be 88 93 e1 c8 3f
       -0.1354554609967043 0.194384042520662
000010 73 47 c7 d6 a0 67 a8 3f a5 6c 26 e1 7c 01 9c bf
       0.047665621011801294 -0.027349425546714063
000020 fd 30 28 63 61 2b c6 bf 8f d9 1d d7 db 72 b5 bf
       -0.17319886533403653 -0.08378385545606747
000030 b8 cc 1d f6 80 ba c1 3f 5b 8d cc f8 e1 09 c7 bf
       0.13850414292719448 -0.1799890961493514
000040 be 96 79 eb 65 fe be bf da b9 1b 42 97 e7 c4 3f
       -0.12106930731678298 0.1633175919336754
000050 1d 08 7e d6 61 a3 bd bf e0 8a fa 59 24 c2 a9 bf
       -0.11577426420811361 -0.05030931089756563
000060 d1 39 bc ed 0d c9 c8 3f dc 9b f3 b2 5f 82 c6 bf
       0.19363569362799507 -0.17585369336958834
000070 a7 f0 6f 94 6e 85 b3 3f 3e df 74 98 5a c9 c2 3f
       0.07625476001698193 0.14676983303228924
000080 26 03 53 1b 8c bd c0 bf 33 32 c8 74 e0 12 bb bf
       -0.13078452429001536 -0.10575678683398664
000090 91 85 88 52 42 a2 b5 bf be 74 59 84 ec 00 be bf
       -0.08450712695095876 -0.11720159751117173
0000a0 3a 33 9d f3 af 53 c2 3f 34 b1 dd 26 73 c7 d3 3f
       0.14317893405168453 0.30904845042711604
0000b0 64 17 51 69 52 29 c8 3f e4 ad 14 81 d6 13 ac 3f
       0.18876104490680767 0.05483885122006507
0000c0 5d 36 28 03 42 b3 d9 bf 29 b8 c3 8f cc 2c cd 3f
       -0.40156603153523013 0.22792965907814391
0000d0 89 ac 63 72 33 b0 a2 3f c8 07 5e f9 16 6b cb 3f
       0.03650055667261493 0.21420561958444595
0000e0 60 10 6a 54 71 3c b3 bf 50 5c 76 0e d9 9c c0 bf
       -0.0751410323228483 -0.1297866173378872
0000f0 04 52 3c cf cb 2b c4 bf da b1 dc 5d c7 ed b4 3f
       -0.1575865518467624 0.08175321618609335
000100 96 64 aa 4e 50 62 be 3f f0 c0 9b 40 d8 e7 6b bf
       0.11868764801546869 -0.0034064506224852284
000110 5f 1e be e3 4b 3c ba 3f 43 bc 7b f5 03 f2 c6 3f
       0.10248255071757616 0.17926072584620742
000120 37 87 48 9a 9a cb d2 bf 25 07 10 5d c3 96 c4 bf
       -0.2936769968674641 -0.16085092586586672
000130 a4 f7 8d c5 b9 cb bf bf bd 6f a3 68 dd 31 c5 3f
       -0.1242023570357263 0.16558425530717882
000140 f2 44 fc 1c 28 da c1 bf a2 c3 3e 9d 15 da cc bf
       -0.1394701139002233 -0.22540540864932007
000150 86 2d e8 34 59 5b c4 bf 84 20 73 7e dd e8 ba 3f
       -0.15903773387286096 0.10511574113036387
000160 f7 85 46 2c 3b 64 ba bf f7 a7 89 e7 f4 74 cb 3f
       -0.10309190588898064 0.21450673394730277
000170 13 3f 31 25 6a cc cd bf a0 08 80 17 81 14 ca bf
       -0.23280073944123866 -0.2037507405039536
000180 2f a2 2a 7f b2 90 8d 3f 61 3a 1c d8 6c 50 c8 bf
       0.014436144357504592 -0.18995438148745605

bias f8 [1]
000000 0f 35 c7 ca 20 21 b0 3f
       0.06300549460066328
