practice13/lightning_logs/version_2/checkpoints/epoch=4-step=250.ckpt (torch, 321567 bytes, 33 tensors)

model.param_proj.proj.0.weight f4 [1, 40]
0.30844215 -0.08064916 0.11045978 0.14263551 0.030713147 -0.34263498 -0.22866479 0.23938596
-0.239439 0.076413274 -0.1457816 -0.22295217 0.05899863 -0.068904854 -0.25049186 -0.10960566
0.059803106 0.29627854 -0.16313784 -0.05529091 0.15380602 -0.32804134 -0.058932424 -0.029980114
0.20302357 -0.13509308 -0.10510508 -0.064650714 0.15528306 0.11814854 -0.28411978 -0.048862416
-0.024983311 0.13556226 -0.2377368 0.20576231 0.10675454 -0.28335536 -0.23795956 -0.24227904
00000000: 21ec 9d3e 632b a5bd bd38 e23d 0b0f 123e
00000010: 239a fb3c da6d afbe 1a27 6abe 9821 753e
00000020: 7f2f 75be 907e 9c3d c647 15be 934d 64be
00000030: 8ca8 713d fd1d 8dbd 7840 80be ef78 e0bd
00000040: 1af4 743d d2b1 973e 9b0d 27be b978 62bd
00000050: 537f 1d3e 09f5 a7be 2063 71bd db98 f5bc
00000060: 69e5 4f3e d755 0abe 5541 d7bd 9867 84bd
00000070: 8602 1f3e ddf7 f13d 2678 91be f523 48bd
00000080: cda9 ccbc d5d0 0a3e 4771 73be 5bb3 523e
00000090: 20a2 da3d f413 91be acab 73be ff17 78be

model.param_proj.proj.1.weight f4 [1, 40]
0.018472746 0.0011234691 0.08265021 0.095635824 0.10862844 -0.045241676 -0.05385266 -0.095604435
-0.18354985 0.05667721 -0.100218326 0.08355858 0.12587151 -0.040283654 -0.13262208 -0.10992588
-0.13072045 -0.018529478 -0.16892657 -0.10707889 0.17733024 -0.07661023 -0.080172546 -0.023999838
0.011401991 -0.07009548 -0.096470505 -0.13509718 0.1443235 -0.03681935 0.04230588 -0.1197866
0.061427172 0.07692461 -0.07834982 0.13788557 0.13633196 -0.0037796893 -0.021409031 -0.17336322
00000000: 2854 973c 5e41 933a 8344 a93d b7dc c33d
00000010: 9678 de3d 564f 39bd 9b94 5cbd 42cc c3bd
00000020: 7ef4 3bbe 5d26 683d 443f cdbd c320 ab3d
00000030: 76e4 003e 7900 25bd 15ce 07be d220 e1bd
00000040: 95db 05be 22cb 97bc 16fb 2cbe 2d4c dbbd
00000050: 0f96 353e d3e5 9cbd 8131 a4bd 4f9b c4bc
00000060: 6bcf 3a3c 388e 8fbd 5492 c5bd ea56 0abe
00000070: 8ac9 133e e3cf 16bd ee48 2d3d ad52 f5bd
00000080: 0f9b 7b3d a68a 9d3d df75 a0bd e031 0d3e
00000090: 9b9a 0b3e aab4 77bb fe61 afbc 2186 31be

model.param_proj.proj.2.weight f4 [1, 40]
-0.24203683 0.3090935 -0.31438276 -0.33237913 -0.011463068 0.25588673 0.24973622 -0.2989378
0.2912709 -0.25124884 -0.017744793 0.26113597 0.122681595 -0.072264306 0.053433247 0.14361538
-0.12951542 -0.2141748 -0.078380056 0.015500845 -0.18564452 0.20239641 0.16253111 -0.064665586
-0.273923 0.11157305 -0.2096589 0.30241898 -0.2647313 -0.29782513 0.19980115 0.07802868
0.17437051 0.15181725 0.18594007 -0.2844297 -0.091996446 0.24988964 0.26923606 0.30294925
00000000: 81d8 77be 8141 9e3e c7f6 a0be 992d aabe
00000010: 98cf 3bbc 9603 833e daba 7f3e 600e 99be
00000020: 7621 953e b0a3 80be 875d 91bc 9db3 853e
00000030: 7d40 fb3d 4fff 93bd d2dc 5a3d e90f 133e
00000040: b19f 04be a450 5bbe b985 a0bd 42f7 7d3c
00000050: 9919 3ebe 0141 4f3e 8e6e 263e 646f 84bd
00000060: a33f 8cbe 6980 e43d d3b0 56be a9d6 9a3e
00000070: dc8a 87be 897c 98be ac98 4c3e 80cd 9f3d
00000080: 2f8e 323e fb75 1b3e 1367 3e3e c5a0 91be
00000090: a268 bcbd 12e3 7f3e 4fd9 893e 2a1c 9b3e

model.rnn.weight_ih_l0 f4 [160, 32]
0.1074629 0.036496848 -0.036047805 0.16185859 -0.027809922 0.06774381 0.14432187 -0.033730034
0.16882367 0.15939392 0.21474893 0.04940663 0.08367164 0.16171554 0.23286462 0.15517688
0.1520621 -0.02057458 0.018146602 -0.054511525 0.034570623 0.16524985 -0.12573875 0.08419212
0.22645737 0.03597203 -0.15666033 -0.18441904 -0.034229357 -0.032566376 -0.1633981 0.22629118
0.25924286 -0.035793792 0.16351748 0.1639745 0.24089424 0.23841506 -0.021826671 0.17093025
0.22657108 0.18593702 0.114571415 -0.0011651197 0.04486144 0.123613484 0.17039141 0.010820254
0.09712935 0.13781418 0.22938658 -0.018719085 0.063546695 0.10938453 -0.2565693 -0.024145529
0.14085653 0.08344288 -0.040291257 -0.021142008 0.07214435 -0.08909677 -0.11446763 0.23557763
0.15819168 0.16364089 0.18716218 0.024501685 -0.023288017 0.25361198 0.2283562 0.056286063
0.22617953 0.19359492 0.0770941 0.21409462 -0.03545578 0.2433222 0.13712642 0.11633005
0.15355152 0.04073266 0.120023474 0.037681364 0.10939984 -0.052245446 0.055717446 0.008598273
0.19776918 -0.13266103 -0.09611161 -0.11505489 0.011629023 0.02234391 -0.075770274 0.18783115
0.09937856 0.2517456 0.015213121 -0.01697554 0.13323608 0.022037303 0.18919569 0.0622135
-0.01569095 0.017208926 -0.027274977 0.21377549 0.06780629 0.16060665 0.09265424 0.1277808
0.018465217 0.17711371 0.1998558 0.23243327 0.16993695 -0.034028895 0.036094517 -0.02716174
0.13302894 -0.055917356 -0.12592012 -0.2577276 -0.075880185 -0.17915118 0.011730239 0.19526866
-0.0003956488 0.22368759 0.02090319 -0.03898947 -0.020448338 -0.0013239443 0.19303817 0.18274741
0.12720856 0.13709992 0.06134536 0.036634408 -0.03431301 -0.024726117 0.19624472 -0.034204353
0.122962736 -0.0419449 0.0813011 0.22546497 0.041575044 0.21404605 0.034037422 0.05280225
0.22847216 -0.027651358 0.084056355 -0.26958618 0.06766123 -0.25121665 -0.2016633 0.14837836
0.010467412 0.032683335 -0.0075323684 0.1580961 0.2133147 -0.0056851315 0.07470077 0.080784746
0.14380057 0.16683973 0.036818255 0.15376087 0.18195787 0.1393361 0.1874348 -0.053316914
0.08223436 0.025310645 0.058349866 0.11578368 0.14891595 0.018458186 -0.09066258 0.07663237
0.06692016 0.012906524 0.08896741 -0.13979816 0.093319535 -0.042869993 -0.103200085 0.068279386
0.12636954 0.26268327 0.03844584 0.10169112 0.06396073 -0.031167187 -0.014954362 0.05877102
0.14018762 -0.044791393 0.19963883 0.17574899 0.103675134 0.13742958 0.1962897 -0.025523799
0.19783272 -0.0032333164 -0.047026537 -0.048275314 0.102222085 0.08131873 -0.07859578 0.053124927
0.11607282 -0.10345666 -0.08985742 -0.14028226 0.017827999 -0.11523542 -0.08130956 0.17186612
0.006666688 0.02045374 0.2045732 0.11786985 0.1848984 -0.0024997608 0.18769348 0.1924271
0.17404723 -0.056507017 0.054385595 0.22674388 0.18242605 0.16267638 -0.015110337 0.13851565
0.12670937 0.10104001 0.0054198583 0.18798292 0.1666138 0.20763949 -0.08193995 0.08715335
0.10292769 0.12448661 0.08751848 -0.23268768 0.03235331 -0.15107006 -0.24435486 -0.018309934
00000000: 8215 dc3d b87d 153d dda6 13bd 42be 253e
00000010: a2d1 e3bc 44bd 8a3d 1dc9 133e 8128 0abd
00000020: 1de0 2c3e 2938 233e 25e7 5b3e 9b5e 4a3d
00000030: 095c ab3d c298 253e 1074 6e3e b0e6 1e3e
00000040: 2bb6 1b3e 068c a8bc 2fa8 943c 7a47 5fbd
00000050: ed99 0d3d 4237 293e a9c1 00be eb6c ac3d
00000060: 71e4 673e 6857 133d 916b 20be 58d8 3cbe
00000070: 1534 0cbd 5264 05bd d551 27be e0b8 673e
00000080: 7bbb 843e 839c 12bd 2071 273e eee8 273e
00000090: fbac 763e 1423 743e d9cd b2bc 5708 2f3e
000000a0: 4002 683e 4666 3e3e 6ba4 ea3d eeb6 98ba
000000b0: a1c0 373d 1129 fd3d 167b 2e3e 6f47 313c
000000c0: c1eb c63d 291f 0d3e 51e4 6a3e c458 99bc
000000d0: c524 823d ff04 e03d 0d5d 83be d8cc c5bc
000000e0: b23c 103e 1ae4 aa3d 7208 25bd 0132 adbc
000000f0: 6bc0 933d 5e78 b6bd 016e eabd 433b 713e
00000100: 00fd 213e 7a91 273e 71a7 3f3e c2b7 c83c
00000110: 83c6 bebc 6ed9 813e 35d6 693e 378c 663d
00000120: 9b9b 673e bf3d 463e 83e3 9d3d 9f3b 5b3e
00000130: 143a 11bd 7429 793e de6a 0c3e 733e ee3d
00000140: 9c3c 1d3e 4ad7 263d dece f53d c657 1a3d
00000150: 060d e03d 52ff 55bd fa37 643d c5df 0c3c
00000160: 0184 4a3e 4bd8 07be 2ad6 c4bd e6a1 ebbd
00000170: a887 3e3c 930a b73c 722d 9bbd cf56 403e
00000180: fd86 cb3d cde4 803e 7440 793c 4a10 8bbc
00000190: 0a6f 083e 9387 b43c 84bc 413e 95d3 7e3d
000001a0: 4f8a 80bc bcf9 8c3c c66f dfbc f6e7 5a3e
000001b0: 06de 8a3d 1276 243e 82c1 bd3d f8d8 023e
000001c0: 5e44 973c 4c5d 353e 00a7 4c3e fd02 6e3e
000001d0: f403 2e3e e261 0bbd d8d7 133d 4c82 debc
000001e0: bd38 083e 9909 65bd 34f1 00be dff4 83be
000001f0: 1267 9bbd 6873 37be 3030 403c 82f4 473e
00000200: 156f cfb9 5c0e 653e 2b3d ab3c 6cb3 1fbd
00000210: 4683 a7bc 3388 adba ccab 453e 2322 3b3e
00000220: f642 023e ec63 0c3e 4645 7b3d f60d 163d
00000230: cc8b 0cbd 6d8e cabc 60f4 483e dd19 0cbd
00000240: e3d3 fb3d 6ace 2bbd 3181 a63d 4ae0 663e
00000250: 984a 2a3d e32e 5b3e d36a 0b3d 2c47 583d
00000260: 9bf4 693e 1a85 e2bc bd25 ac3d 3307 8abe
00000270: f991 8a3d 789f 80be d380 4ebe 7ff0 173e
00000280: 827f 2b3c f6de 053d 16d2 f6bb f2e3 213e
00000290: 2b6f 5a3e 574a babb b8fc 983d 7972 a53d
000002a0: 7540 133e 09d8 2a3e bdce 163d 7d73 1d3e
000002b0: 2a53 3a3e 1fae 0e3e e9ee 3f3e d662 5abd
000002c0: 7d6a a83d 4558 cf3c 4500 6f3d fe1f ed3d
000002d0: 6c7d 183e 9f35 973c 4ead b9bd 6ff1 9c3d
000002e0: 700d 893d e375 533c 8c34 b63d 4027 0fbe
000002f0: 501e bf3d 7298 2fbd 915a d3bd 10d6 8b3d
00000300: 0467 013e 6c7e 863e 6379 1d3d 6f43 d03d
00000310: d8fd 823d 5452 ffbc 2403 75bc e2b9 703d
00000320: 588d 0f3e 2e77 37bd 1f6e 4c3e 8bf7 333e
00000330: a153 d43d 57ba 0c3e 2b00 493e 4917 d1bc
00000340: a994 4a3e 0ce6 53bb e69e 40bd 56bc 45bd
00000350: d059 d13d 6f8a a63d d3f6 a0bd 8699 593d
00000360: 96b7 ed3d 16e1 d3bd 2b07 b8bd 27a6 0fbe
00000370: 060c 923c 8c00 ecbd a085 a6bd acfd 2f3e
00000380: 3b74 da3b 9a8e a73c a37b 513e bf65 f13d
00000390: 0256 3d3e 07d3 23bb b832 403e 9c0b 453e
000003a0: 7039 323e e773 67bd 6ec3 5e3d 8c2f 683e
000003b0: e5cd 3a3e a394 263e 5991 77bc 0cd7 0d3e
000003c0: 1ac0 013e 11ee ce3d 1199 b13b 987e 403e
000003d0: cf9c 2a3e 729f 543e 22d0 a7bd 757d b23d
000003e0: c1cb d23d d6f2 fe3d e43c b33d ae45 6ebe
000003f0: e884 043d 1cb2 1abe 2938 7abe b7fe 95bc

model.rnn.weight_hh_l0 f4 [160, 40]
-0.11909664 0.08763931 -0.031621497 -0.096495315 0.07452549 0.055982083 -0.09038468 -0.052092195
-0.086452335 -0.017187912 -0.0628082 0.0637403 0.11826364 -0.12387262 -0.10355581 0.023086742
-0.04587039 0.10598739 -0.07883582 -0.10850908 0.0324534 0.017777212 0.012184497 -0.034664273
-0.019568533 -0.117851235 -0.117382534 0.09270403 -0.041562084 -0.12005571 0.1080946 0.00033574743
-0.06826032 0.055393793 -0.030608898 -0.043246187 -0.0027508803 -0.048326775 0.122403055 -0.06905867
0.07879667 -0.04558727 0.051276922 -0.04847349 -0.09440819 -0.0075990204 -0.1083125 0.03022497
0.10973721 0.10315505 -0.010970467 -0.012944054 0.059744187 0.052274298 0.03634154 0.03847822
0.049926545 -0.009752451 -0.10049488 0.116526656 -0.12188399 -0.09349859 -0.05194541 0.010274525
0.08290666 -0.09692725 -0.08147266 0.08045 -0.011084259 0.04588017 -0.089220256 0.029928911
-0.12582244 -0.057539456 -0.025087353 0.03351628 -0.042206153 -0.05194822 0.08493345 -0.04187451
-0.00032218586 0.01212068 -0.07551918 -0.11921966 0.06382813 -0.013347388 0.057039857 0.045870855
-0.12634145 -0.07553628 0.09194756 0.012666925 -0.12125776 -0.011983379 0.11435723 -0.044043023
-0.062923275 0.032757446 0.022634426 -0.087028906 -0.0011764141 0.09959911 0.06869099 -0.12356744
-0.016736291 0.022419957 -0.026997108 0.10474516 -0.012995436 -0.059165545 0.08492365 -0.048773408
-0.068061985 -0.11939012 0.009048169 0.061239637 0.039848927 0.03378922 -0.108189434 -0.10228508
0.037188925 -0.04658923 -0.021140754 -0.06777187 -0.11181745 0.01652477 0.039910413 -0.02144657
0.1214426 0.05838716 -0.049720947 0.073013715 -0.047810826 -0.00063842366 0.12294629 -0.101560205
0.010332471 0.12294675 0.10498876 0.05201724 0.06566692 0.018448101 0.10823293 0.079858854
0.106624536 -0.0027831357 -0.036250386 0.11814846 0.016002875 -0.097395115 0.041224327 -0.04875267
0.1257607 0.03133467 0.037475638 -0.077661395 0.06698504 0.07431992 0.11452701 0.046864342
-0.11245839 -0.08313741 -0.076973476 -0.08475902 -0.10341658 0.012103971 0.00580113 0.045126624
-0.024022898 0.052993663 -0.09868605 -0.118223086 0.019524887 0.023494115 -0.046569068 -0.029612022
-0.021994246 0.025933327 0.010203387 -0.039482087 0.06382562 -0.011398241 0.012860272 0.037826803
-0.031435225 0.08613609 -0.084485695 -0.08995884 -0.054417297 0.014831036 0.038902074 -0.015816737
0.012221197 0.100166544 0.05487788 -0.09543547 0.08755558 -0.06050647 -0.01966681 0.08102881
0.036850072 -0.087809 0.02362819 0.097178504 -0.02115746 0.11251267 -0.017460965 0.08085136
0.07994351 0.06304766 -0.08852123 -0.021056967 -0.022695897 -0.064864695 0.122775294 -0.05735996
0.09585139 -0.10442182 0.07571437 -0.029812204 -0.08316755 -0.11477558 -0.021783723 0.1185605
0.07473525 -0.0906624 0.082664534 0.00039004028 -0.116176516 -0.017191438 -0.06611099 -0.056255504
-0.09177792 0.08851359 0.004816681 -0.094272 -0.11810945 0.05085101 -0.036507804 -0.09643448
-0.04752016 0.005854582 0.102550626 -0.053732086 -0.013687056 0.06756582 0.053798214 0.05872019
0.048873622 0.0009106988 0.12177237 -0.025589645 -0.016803253 0.04447054 -0.12398488 -0.086126834
00000000: f0e8 f3bd 3d7c b33d 8b85 01bd 569f c5bd
00000010: d2a0 983d 784d 653d 9a1b b9bd a05e 55bd
00000020: ec0d b1bd aacd 8cbc 96a1 80bd 468a 823d
00000030: 3534 f23d eeb0 fdbd 1215 d4bd 6820 bd3c
00000040: 97e2 3bbd eb0f d93d ad74 a1bd 023a debd
00000050: dbed 043d 84a1 913c 7ca1 473c 20fc 0dbd
00000060: 304e a0bc fd5b f1bd 4166 f0bd 9cdb bd3d
00000070: 013d 2abd c5df f5bd b460 dd3d 4207 b039
00000080: 11cc 8bbd 9ae4 623d 83bf fabc ea22 31bd
00000090: 1d48 34bb 4cf2 45bd 74ae fa3d a26e 8dbd
000000a0: 2660 a13d b8b9 3abd c007 523d 238c 46bd
000000b0: 1559 c1bd 3401 f9bb f2d2 ddbd 5b9a f73c
000000c0: e7bd e03d f442 d33d 79bd 33bc 4c13 54bc
000000d0: 52b6 743d 931d 563d deda 143d 579b 1d3d
000000e0: c77f 4c3d bfc8 1fbc 42d0 cdbd 87a5 ee3d
000000f0: 509e f9bd 307c bfbd b6c4 54bd 7b56 283c
00000100: f8ca a93d cb81 c6bd 23db a6bd f8c2 a43d
00000110: c09a 35bc d8ec 3b3d 1cb9 b6bd 7a2d f53c
00000120: 99d7 00be 7eae 6bbd fe83 cdbc 5e48 093d
00000130: 5ce0 2cbd a8c7 54bd 97f1 ad3d 9b84 2bbd
00000140: 0eeb a8b9 d195 463c cda9 9abd 7029 f4bd
00000150: 53b8 823d 01af 5abc a0a2 693d 14e3 3b3d
00000160: a75f 01be c4b2 9abd 014f bc3d ef88 4f3c
00000170: fd55 f8bd ef55 44bc 2034 ea3d 7566 34bd
00000180: ebdd 80bd ac2c 063d d56b b93c 363c b2bd
00000190: e831 9aba 9efa cb3d ddad 8c3d ed10 fdbd
000001a0: 8c1a 89bc 0faa b73c 0a29 ddbc a184 d63d
000001b0: cfea 54bc 9257 72bd 73ec ad3d a0c6 47bd
000001c0: 1564 8bbd cf82 f4bd c53e 143c 6ad6 7a3d
000001d0: a138 233d 9166 0a3d 6c92 ddbd d77a d1bd
000001e0: 6a53 183d 59d4 3ebd 602f adbc facb 8abd
000001f0: 8c00 e5bd f45e 873c 1a79 233d b8b0 afbc
00000200: e6b6 f83d 6027 6f3d 31a8 4bbd 3788 953d
00000210: 49d5 43bd e35b 27ba 44cb fb3d ccfe cfbd
00000220: 8649 293c 81cb fb3d 5904 d73d 0810 553d
00000230: 617c 863d 7920 973c 3aa9 dd3d 0a8d a33d
00000240: f75d da3d 4565 36bb 497b 14bd d2f7 f13d
00000250: 7618 833c 1777 c7bd d7da 283d e1b0 47bd
00000260: 6ac7 003e c858 003d 0e80 193d f00c 9fbd
00000270: 742f 893d 0b35 983d 238d ea3d d3f4 3f3d
00000280: 9650 e6bd f243 aabd 45a4 9dbd 2396 adbd
00000290: 12cc d3bd bc4f 463c 6817 be3b b2d6 383d
000002a0: abcb c4bc e20f 593d e91b cabd f21e f2bd
000002b0: a8f2 9f3c bb76 c03c 35bf 3ebd e994 f2bc
000002c0: 472d b4bc 2172 d43c 1b2c 273c f8b7 21bd
000002d0: 02b7 823d b0bf 3abc e4b3 523c 47f0 1a3d
000002e0: 39c2 00bd 1e68 b03d d606 adbd 573c b8bd
000002f0: ace4 5ebd e0fd 723c c857 1f3d 1a92 81bc
00000300: 6a3b 483c 1e24 cd3d a1c7 603d ac73 c3bd
00000310: 5750 b33d a2d5 77bd 4a1c a1bc 6ff2 a53d
00000320: 1af0 163d 34d5 b3bd e88f c13c 8605 c73d
00000330: 6952 adbc 0b6d e63d 4c0a 8fbc 6695 a53d
00000340: 6cb9 a33d 221f 813d 9e4a b5bd a97f acbc
00000350: bfec b9bc c8d7 84bd 9d71 fb3d 47f2 6abd
00000360: bc4d c43d 1bdb d5bd 2310 9b3d b938 f4bc
00000370: c053 aabd 760f ebbd c773 b2bc d9cf f23d
00000380: cb0e 993d 35ad b9bd 064c a93d 527e cc39
00000390: f4ed edbd 0fd5 8cbc 3365 87bd 2c6c 66bd
000003a0: 10f6 bbbd 9d46 b53d 40d5 9d3b ae11 c1bd
000003b0: 5ee3 f1bd 2649 503d 3589 15bd 717f c5bd
000003c0: 80a4 42bd cbd7 bf3b 1006 d23d 2d16 5cbd
000003d0: ac3f 60bc f35f 8a3d 845b 5c3d 9584 703d
000003e0: b52f 483d f6bb 6e3a cb63 f93d 60a1 d1bc
000003f0: faa6 89bc be26 363d c9eb fdbd 4463 b0bd

model.rnn.bias_ih_l0 f4 [160]
0.08429285 0.103913896 0.14857663 0.017853774 0.22495972 -0.038154982 0.052370057 0.06734935
0.17014131 0.21798474 0.20488939 0.017584773 -0.014465915 0.21607675 0.2524258 0.018718647
0.07524025 0.1310263 0.15809648 0.19543076 0.036759052 0.17927961 0.0008917578 0.2540315
0.17478016 0.068040945 0.023856275 0.1890469 0.07038838 0.16775674 -0.04162987 0.17194839
0.043244075 -0.03947333 0.14805715 -0.04398803 -0.025943303 0.12573387 0.078965425 0.23726314
0.04861375 -0.10403246 -0.11296979 0.12327138 -0.040876586 -0.07440526 -0.10829975 0.021063365
-0.008779284 -0.07731154 0.031183414 -0.045445528 -0.110475875 -0.06443221 -0.0051647737 0.10087779
-0.096106365 0.08562037 0.0037436981 0.08468173 -0.07409959 -0.059375614 -0.06218561 0.0075633596
0.004844305 0.07401168 0.07483707 0.006945741 0.04012364 -0.003243288 0.07739891 -0.024274709
-0.05428912 -0.11235398 0.06243739 -0.017670568 -0.099111676 -0.017696964 0.047142576 0.102760695
0.019850945 -0.057381764 -0.2031788 0.22480804 0.03263779 -0.011291337 -0.14473282 0.109148115
0.056178585 0.07877315 -0.20931338 0.061769176 0.071104564 -0.16616862 0.034817945 0.025529874
-0.0060432763 0.16847265 0.038553566 0.11626558 0.056278136 0.08455873 -0.16976038 -0.16946527
-0.061408352 0.033109207 0.04422058 0.24030298 0.029764617 0.19403337 -0.040235464 0.06871302
-0.037124712 0.19852959 -0.05257075 0.037117656 -0.053383976 -0.08116403 -0.19323076 0.22723803
-0.039533813 0.25705734 0.2467611 0.2504602 0.19030182 0.0906032 0.14049686 0.16757831
0.08719697 0.18413757 0.24247882 0.11656265 0.13694133 0.23678228 0.039421953 -0.050597347
-0.032748234 0.12677942 0.22073643 0.1959572 0.11711478 0.24482334 0.013191736 0.0717139
0.16755684 0.06007783 0.21286443 0.13536705 -0.012326425 0.116830245 0.23086035 0.005870504
0.120493405 0.16653706 0.13352962 0.011421637 0.022562446 -0.019882107 0.19814052 0.18395221
00000000: bba1 ac3d cfd0 d43d 7924 183e 1442 923c
00000010: d75b 663e 6648 1cbd fc81 563d 75ee 893d
00000020: 8639 2e3e 6437 5f3e 86ce 513e f10d 903c
00000030: 7202 6dbc 3943 5d3e f43d 813e d957 993c
00000040: 8f17 9a3d c22b 063e 0be4 213e 001f 483e
00000050: a990 163d 1395 373e dac4 693a 6b10 823e
00000060: 92f9 323e 0d59 8b3d 3c6e c33c 8395 413e
00000070: c827 903d 6cc8 2b3e 1584 2abd 3d13 303e
00000080: b320 313d c9ae 21bd 4b9c 173e cb2c 34bd
00000090: 0d87 d4bc 61c0 003e a0b8 a13d 1cf5 723e
000000a0: 361f 473d f80e d5bd b55c e7bd b575 fc3d
000000b0: 356e 27bd c961 98bd 42cc ddbd 148d ac3c
000000c0: fcd6 0fbc 8355 9ebd 5c74 ff3c 1725 3abd
000000d0: 2d41 e2bd 09f5 83bd 433d a9bb 0499 ce3d
000000e0: 6ad3 c4bd bc59 af3d d558 753b 9d6d ad3d
000000f0: 87c1 97bd d833 73bd 57b6 7ebd 0fd6 f73b
00000100: fabc 9e3b 7093 973d 2e44 993d 1999 e33b
00000110: b058 243d 588d 54bb 5283 9e3d c1db c6bc
00000120: 455e 5ebd d819 e6bd 59be 7f3d dec1 90bc
00000130: 10fb cabd 39f9 90bc 9318 413d 3374 d23d
00000140: 739e a23c 2409 6bbd 1a0e 50be 1434 663e
00000150: 34af 053d 4dff 38bc d734 14be 0c89 df3d
00000160: 841b 663d d153 a13d 3f56 56be ad01 7d3d
00000170: 459f 913d 1b28 2abe 439d 0e3d 0724 d13c
00000180: ad06 c6bb 1884 2c3e 58ea 1d3d a61c ee3d
00000190: e783 663d 212d ad3d aad5 2dbe 4e88 2dbe
000001a0: 5387 7bbd 859d 073d a420 353d fc11 763e
000001b0: edd4 f33c afb0 463e f1cd 24bd 69b9 8c3d
000001c0: 1510 18bd 574b 4b3e 6d54 57bd af08 183d
000001d0: 28a9 5abd 5439 a6bd 49de 45be 16b1 683e
000001e0: 35ee 21bd 059d 833e f1ae 7c3e 523c 803e
000001f0: 7bde 423e 2c8e b93d 69de 0f3e a699 2b3e
00000200: 5394 b23d 8f8e 3c3e 5e4c 783e 66b8 ee3d
00000210: 593a 0c3e 0e77 723e ea78 213d 2a3f 4fbd
00000220: 0323 06bd 77d2 013e bb08 623e 01a9 483e
00000230: e0d9 ef3d f8b2 7a3e 2722 583c bdde 923d
00000240: 0594 2b3e 2c14 763d 22f9 593e a99d 0a3e
00000250: c6f4 49bc b244 ef3d a866 6c3e 5b5d c03b
00000260: 3fc5 f63d b188 2a3e fdbb 083e d121 3b3c
00000270: e1d4 b83c cddf a2bc 59e5 4a3e f85d 3c3e

model.rnn.bias_hh_l0 f4 [160]
0.14669642 0.063841216 0.18672264 0.1261174 0.11656557 0.061679598 0.12038905 0.15572058
0.0073544555 0.1735825 0.13850246 0.10041005 0.05827151 -0.015606174 0.16707447 0.19868408
0.011504271 0.16044222 -0.017165191 0.2324601 0.2096832 0.0606552 0.23246932 0.22710234
0.08391648 0.0107476795 0.090203755 0.11744921 0.07384536 -0.006869362 0.16734165 0.21766798
0.07373011 -0.04228256 0.17712557 -0.012291962 0.17169008 0.19294071 0.23342127 0.08553619
-0.087421626 0.036585532 -0.08115349 -0.026189333 0.04975122 0.052405935 0.04766257 0.10004683
0.023239987 -0.027493415 0.050269235 -0.07499003 0.014658981 -0.037033703 -0.108740814 -0.09958833
-0.100433305 -0.087507315 -0.084244974 0.12579712 0.0128074745 -0.016960016 -0.11616431 -0.055722367
-0.007786652 -0.023200752 -0.108005404 -0.10408027 0.02634257 -0.08706761 0.008654091 0.05823508
0.022276798 0.07441571 -0.0039914637 -0.10037573 -0.058722235 -0.10891514 -0.042514976 -0.066458136
0.13918914 0.035003792 -0.10197343 0.1815429 0.08166771 -0.15494008 -0.17748238 0.029997917
-0.016880643 0.06461982 -0.07034038 -0.0008054233 0.09788599 -0.012601117 -0.16143376 0.006631102
0.17761444 0.17353345 0.058906924 0.06365671 0.10644341 -0.19066218 -0.06987888 -0.026154986
-0.12630498 0.053512495 0.18795112 0.06996055 0.044111088 0.0700134 -0.063580215 -0.016911322
-0.19350106 0.17852293 -0.1659014 0.18092078 -0.21744743 -0.15786077 -0.11380907 -0.043334402
0.12594531 -0.008609984 0.03524352 -0.043993533 0.086234905 0.07705916 -0.0151133975 -0.0089440085
0.08045957 0.04382852 0.13375723 0.032853015 0.22227722 -0.052113947 0.009969887 0.21989083
0.004301274 0.06447158 0.24915846 0.091444075 0.24622272 0.10909138 0.25599915 0.085047014
0.06512742 0.14168918 0.0819442 0.06365793 0.059749022 0.15066884 0.064699635 0.20051546
-0.034192245 -0.045166668 0.11995216 0.09643727 0.24810115 0.23424055 -0.0014111674 -0.03172708
00000000: 9637 163e 2fbf 823d 3834 3f3e eb24 013e
00000010: eeb9 ee3d bfa3 7c3d 898e f63d 3775 1f3e
00000020: a5fd f03b 9cbf 313e 97d3 0d3e c9a3 cd3d
00000030: 1bae 6e3d 0ab1 7fbc 9215 2b3e d773 4b3e
00000040: 697c 3c3c f74a 243e 049e 8cbc 050a 6e3e
00000050: 31b7 563e 9671 783d 700c 6e3e 848d 683e
00000060: 67dc ab3d 0917 303c bfbc b83d 3689 f03d
00000070: 3c3c 973d 6318 e1bb 9c5b 2b3e 5be4 5e3e
00000080: d0ff 963d 7a30 2dbd 6860 353e 3a64 49bc
00000090: 86cf 2f3e 4092 453e fc05 6f3e 992d af3d
000000a0: 1c0a b3bd b6da 153d cd33 a6bd 038b d6bc
000000b0: efc7 4b3d 9ba7 563d d439 433d 5ae5 cc3d
000000c0: c961 be3c df39 e1bc 1de7 4d3d 5f94 99bd
000000d0: 392c 703c a7b0 17bd 81b3 debd f7f4 cbbd
000000e0: faaf cdbd 0937 b3bd a188 acbd f6d0 003e
000000f0: 71d6 513c bbef 8abc 8ee7 edbd 233d 64bd
00000100: 2c27 ffbb 810f bebc f031 ddbd 0928 d5bd
00000110: 60cc d73c 8150 b2bd e3c9 0d3c e887 6e3d
00000120: d57d b63c 4467 983d d3ca 82bb ca91 cdbd
00000130: ba86 70bd e70e dfbd 2f24 2ebd 341b 88bd
00000140: 9987 0e3e 2360 0f3d 72d7 d0bd 62e6 393e
00000150: 6641 a73d 9da8 1ebe f1bd 35be 31be f53c
00000160: 4649 8abc 6557 843d 9e0e 90bd 0b23 53ba
00000170: 7378 c83d ea74 4ebc e44e 25be b749 d93b
00000180: 8fe0 353e c1b2 313e 6348 713d 735e 823d
00000190: 01ff d93d f23c 43be a91c 8fbd fb42 d6bc
000001a0: 1856 01be eb2f 5b3d 4276 403e 7a47 8f3d
000001b0: d4ad 343d 2f63 8f3d 5836 82bd 9d89 8abc
000001c0: 2425 46be b7ce 363e 0ee2 29be 4c43 393e
000001d0: 8aaa 5ebe 41a6 21be bb14 e9bd 6a7f 31bd
000001e0: cff7 003e e410 0dbc 825b 103d 9032 34bd
000001f0: ed9b b03d 31d1 9d3d 2f9e 77bc e489 12bc
00000200: fdc7 a43d 8985 333d a8f7 083e e290 063d
00000210: a49c 633e 6f75 55bd bd58 233c 102b 613e
00000220: b4f1 8c3b ad09 843d 6523 7f3e 0847 bb3d
00000230: cf21 7c3e 4d6b df3d 5212 833e 212d ae3d
00000240: 8661 853d f816 113e 5cd2 a73d 175f 823d
00000250: 64bb 743d ef48 1a3e 3e81 843d ed53 4d3e
00000260: 2b0d 0cbd af00 39bd 7aa9 f53d e780 c53d
00000270: 3a0e 7e3e c1dc 6f3e ecf6 b8ba 41f4 01bd

model.rnn.weight_ih_l1 f4 [160, 40]
0.23297353 -0.01528017 -0.045172103 0.26181927 0.20717618 -0.13564014 -0.10144619 0.020406606
0.06027736 -0.11517192 -0.14927512 -0.001620385 0.0048122588 0.0049619507 0.0037378378 -0.16127889
0.24663973 0.057450574 0.25858727 0.071273275 0.052000575 -0.26342842 -0.07702728 -0.039329212
-0.12127495 0.31857574 0.2771584 0.28735492 0.21544768 0.25742498 -0.039383203 0.2268143
-0.06618275 0.19012964 -0.26421952 0.16820644 -0.22651435 -0.2832578 -0.28198236 0.18937424
0.12223542 -0.06291605 -0.2620457 0.26203197 0.20090507 -0.2780692 -0.096748374 0.26339227
0.27574587 -0.07288519 -0.22279646 0.011178737 0.19295996 -0.07050246 0.0050629526 -0.27285665
-0.0054777847 0.19092327 0.013619962 0.28988382 0.16143449 -0.20731547 -0.08497452 -0.23290876
-0.21146642 0.12545422 0.0086982995 0.041563153 0.16614813 0.23812425 -0.08241693 0.078080274
-0.106434435 0.24990827 -0.057899076 0.10309783 -0.2061606 0.020796828 -0.1656603 0.23807357
0.0363914 -0.1500918 -0.10131062 0.22412992 0.28677794 -0.15382154 -0.222176 0.11831335
0.32309407 -0.0042184056 -0.05385145 -0.13943863 0.2577163 -0.11781151 -0.1643699 -0.110796526
0.13066721 0.0023493976 0.15955046 0.25304085 0.019323952 -0.015199924 0.013260281 -0.10777442
0.012467216 0.14519566 0.170683 0.3021911 0.26970476 -0.007132554 -0.13365488 0.13909847
-0.0151711665 0.1292745 -0.008428647 0.03374302 -0.2716716 -0.26245096 -0.019142509 0.06336135
0.16077948 -0.27090433 -0.19195642 0.21773288 0.26124942 -0.056178715 -0.11744409 0.24812657
0.27834654 -0.23679714 -0.069803424 -0.15344547 0.07324785 -0.024753686 -0.26074073 -0.18656386
0.27829874 -0.00089702883 0.2782881 0.158156 0.070540905 -0.12703016 -0.06791525 -0.21642198
-0.2684997 0.17027162 0.24456589 0.156999 0.13549937 -0.013249852 -0.17844719 0.089323595
-0.09259697 0.053922497 -0.050610036 0.02910569 -0.22489692 -0.1637069 -0.1192976 0.068369724
-0.16874614 0.10954715 -0.084307596 -0.057645187 0.032670356 0.15246353 0.0403369 -0.046164017
0.07865618 0.20829968 -0.01986447 0.1655778 0.038161933 0.1470707 0.17358592 -0.116941966
-0.17134292 -0.005811337 -0.002041607 -0.11508461 0.032429174 0.060327996 -0.05678165 0.19843657
-0.048996642 -0.09034046 0.06945396 -0.18034223 -0.083799265 0.09630909 0.14595674 0.026800258
-0.036424715 -0.1450378 0.2164855 0.0533162 0.14345497 -0.004571865 0.10803528 -0.16650127
0.1121685 -0.0439014 -0.068175256 0.28704783 0.32941863 -0.062483516 -0.17205223 0.18680365
0.23613916 -0.25413433 -0.09345106 -0.13335758 0.25718406 -0.08200233 -0.07384447 -0.18945701
0.15643919 0.09365739 0.015524422 0.13795719 0.24196114 -0.27309695 -0.1893515 -0.2995696
-0.011516618 0.23164377 0.09367054 0.05389403 0.11472094 0.29147705 -0.2554557 0.15900782
-0.05909929 0.21712716 -0.269316 0.24518661 -0.032602686 -0.031215435 -0.046081368 0.11526768
0.27245098 -0.18386316 -0.34398323 0.15247288 0.23813291 -0.03351707 -0.08662088 0.22541755
0.32410145 -0.2867207 -0.084674284 -0.19243518 0.26347145 -0.08614854 -0.2421793 -0.22699039
00000000: 9d90 6e3e ae59 7abc 6206 39bd 2d0d 863e
00000010: fe25 543e 40e5 0abe 05c3 cfbd c12b a73c
00000020: 65e5 763d 41df ebbd 94db 18be 1963 d4ba
00000030: 27b0 9d3b dc97 a23b 83f6 743b 4b26 25be
00000040: 208f 7c3e 4b51 6b3d 8d65 843e b9f7 913d
00000050: 8efe 543d 17e0 86be 7bc0 9dbd ab17 21bd
00000060: 005f f8bd 5c1c a33e b5e7 8d3e 2f20 933e
00000070: 519e 5c3e 35cd 833e 4850 21bd 0242 683e
00000080: d28a 87bd 58b1 423e c847 87be 4f3e 2c3e
00000090: 61f3 67be 2b07 91be fe5f 90be 52eb 413e
000000a0: 9056 fa3d 21da 80bd db2a 86be 0e29 863e
000000b0: 0fba 4d3e 165f 8ebe 0324 c6bd 5adb 863e
000000c0: 902e 8d3e d544 95bd c124 64be 0527 373c
000000d0: 4c97 453e 9863 90bd 20e7 a53b deb3 8bbe
000000e0: fd7e b3bb 6481 433e 4326 5f3c a76b 943e
000000f0: 154f 253e 824a 54be 1f07 aebd a27f 6ebe
00000100: a78a 58be 1277 003e 5083 0e3c 203e 2a3d
00000110: bc22 2a3e d8d6 733e 35ca a8bd 8de8 9f3d
00000120: 4cfa d9bd f4e7 7f3e 9527 6dbd f524 d33d
00000130: c41b 53be 1c5e aa3c dba2 29be 8fc9 733e
00000140: 260f 153d aab1 19be f17b cfbd 5082 653e
00000150: 8fd4 923e 6583 1dbe 1b82 63be 454e f23d
00000160: 966c a53e 8d3a 8abb 5793 5cbd 00c9 0ebe
00000170: 64f3 833e 2947 f1bd 9550 28be 4ae9 e2bd
00000180: a0cd 053e 5af8 193b 3261 233e 928e 813e
00000190: 444d 9e3c 1a09 79bc a641 593c d6b8 dcbd
000001a0: 4b43 4c3c 2cae 143e 86c7 2e3e cbb8 9a3e
000001b0: be16 8a3e 33b8 e9bb d3dc 08be d46f 0e3e
000001c0: 7c90 78bc 8960 043e 4f18 0abc 1f36 0a3d
000001d0: 8a18 8bbe f95f 86be c0d0 9cbc 98c3 813d
000001e0: 60a3 243e f9b3 8abe 3990 44be 5ef5 5e3e
000001f0: 7cc2 853e a71b 66bd 8786 f0bd e414 7e3e
00000200: 7083 8e3e f37a 72be 19f5 8ebd cf20 1dbe
00000210: f802 963d 3ec8 cabc cf7f 85be 990a 3fbe
00000220: 2c7d 8e3e 9626 6bba c77b 8e3e a5f3 213e
00000230: c077 903d 3214 02be 2717 8bbd b99d 5dbe
00000240: cb78 89be af5b 2e3e 7b6f 7a3e 59c4 203e
00000250: 59c0 0a3e e815 59bc dcba 36be 4aef b63d
00000260: 7ba3 bdbd d6dd 5c3d 784c 4fbd 0e6f ee3c
00000270: 614b 66be c8a2 27be 4d52 f4bd 6d05 8c3d
00000280: cacb 2cbe 425a e03d 76a9 acbd 5c1d 6cbd
00000290: 5ad1 053d 661f 1c3e 4e38 253d 7b16 3dbd
000002a0: 7e16 a13d 834c 553e d0ba a2bc 3a8d 293e
000002b0: b04f 1c3d b499 163e 82c0 313e 457f efbd
000002c0: 8574 2fbe 076d bebb 7bcc 05bb 7bb1 ebbd
000002d0: 74d4 043d 7d1a 773d e093 68bd f532 4b3e
000002e0: b4b0 48bd 6b04 b9bd e13d 8e3d a2ab 38be
000002f0: f39e abbd b33d c53d af75 153e 378c db3c
00000300: 1532 15bd ca84 14be 60ae 5d3e 1662 5a3d
00000310: dce5 123e 95cf 95bb 9a41 dd3d 4f7f 2abe
00000320: 99b8 e53d f4d1 33bd 789f 8bbd eff7 923e
00000330: 8fa9 a83e b7ee 7fbd 762e 30be 7549 3f3e
00000340: 77ce 713e e51d 82be 4563 bfbd e48e 08be
00000350: a1ad 833e d6f0 a7bd c53b 97bd 0501 42be
00000360: 9831 203e 72cf bf3d 255a 7e3c a644 0d3e
00000370: a9c4 773e 5dd3 8bbe 5ce5 41be 3061 99be
00000380: 32b0 3cbc 0634 6d3e 57d6 bf3d fdbf 5c3d
00000390: d0f2 ea3d 7b3c 953e 17cb 82be f2d2 223e
000003a0: 1912 72bd 9556 5e3e c9e3 89be 3312 7b3e
000003b0: 658a 05bd 83b7 ffbc d1bf 3cbd 7611 ec3d
000003c0: b27e 8b3e a046 3cbe 921e b0be da21 1c3e
000003d0: 1dd9 733e 3249 09bd 4a66 b1bd dcd3 663e
000003e0: a0f0 a53e 0ecd 92be b669 adbd ba0d 45be
000003f0: bbe5 863e a56e b0bd dafd 77be 2b70 68be

model.rnn.weight_hh_l1 f4 [160, 40]
-0.042328827 0.09642037 -0.018115884 -0.059953153 0.0003120062 0.116269834 -0.045459785 0.034416202
-0.040430475 0.012927965 -0.0074959127 0.03816773 0.12577805 0.12571017 0.07719857 -0.055826586
-0.013918958 0.002846523 0.031385466 -0.032665912 -0.07806359 0.020525903 0.10113658 -0.08797188
0.00047935903 -0.093981266 0.10460992 0.0005789105 0.041172843 -0.06359471 0.089717746 -0.029567568
-0.013485805 0.031548817 -0.025313295 0.1169402 -0.117704324 -0.008784442 0.09094578 -0.07107326
-0.07000032 -0.083944336 0.006033389 0.09214312 -0.071846016 -0.04546104 0.042930808 0.093206756
0.058686346 -0.12318832 -0.05546351 0.05052333 0.0048385207 -0.07511786 -0.08169565 -0.02886621
-0.10560226 -0.077354126 0.089512944 -0.07961598 0.113572925 -0.09401296 0.059509546 0.021749845
0.055429295 -0.09239627 -0.034549065 -0.12591214 -0.019462386 -0.017041992 -0.030403076 0.023408838
-0.09305174 0.084848225 -0.09499767 0.038508717 -0.03744332 -0.029960247 0.009682567 -0.08582132
-0.03252062 0.029313259 0.097491704 -0.11798378 0.0871629 0.0228736 0.102303445 0.11829642
-0.09161018 -0.05903097 0.12522279 0.07210986 0.105221055 0.10166795 -0.07587497 -0.01644407
-0.10329141 0.00046825214 0.09205039 -0.09080965 0.086624615 -0.025232993 -0.028000727 0.029344596
0.08865435 0.009119695 -0.11129116 -0.018638795 0.114135385 -0.11264062 -0.09750476 0.078974634
0.012590335 -0.030295169 0.056636028 0.008073415 -0.031043885 0.11726244 -0.0068824906 -0.0848463
-0.09923971 -0.10834046 -0.07244377 0.028402617 -0.041835025 0.08642899 -0.06102085 -0.032604907
-0.017034544 0.07643555 0.00017227688 0.11999001 0.01013993 -0.04998738 0.07376849 0.084246956
-0.03868127 -0.09438504 -0.10712068 -0.05099187 -0.09515527 -0.011699298 0.0543635 0.107212506
-0.053508356 0.07380294 0.068102345 0.076709054 -0.09213164 -0.056185625 -0.046930317 -0.10807865
-0.052695245 0.10533277 -0.09320858 -0.10156545 -0.071985774 0.09051121 0.04920587 -0.11537302
0.06804351 0.040628605 -0.0069967075 -0.02032205 -0.063824624 -0.09895316 -0.003674045 0.055844292
0.06906615 -0.06629351 -0.12469872 0.047411904 -0.11635599 -0.05450683 0.075122274 0.10628253
-0.036008757 -0.007485999 -0.06291754 -0.011825384 -0.11084522 0.023790266 0.0025719071 0.01808363
0.0457981 -0.10808047 -0.037661538 0.06215132 -0.017285803 0.10625065 -0.019984052 0.056569606
-0.087105 0.02686422 -0.09937523 -0.06718298 0.020066578 -0.118915066 0.08085305 0.037238
0.054506175 -0.06060766 -0.06288041 0.08236943 0.04836149 -0.009062793 -0.026574511 -0.107768
0.038751435 -0.053386766 0.03355154 0.051781546 -0.014624309 -0.106900044 -0.100027345 -0.11331451
-0.066982895 0.08771608 -0.011851153 0.079859875 -0.0020557852 -0.037886776 -0.043468244 0.09562341
-0.04176327 -0.08115758 -0.0068404125 0.07350271 0.078047566 -0.044369522 -0.04904579 0.0028414866
-0.00424124 0.04398033 0.027092446 -0.063805945 -0.11360387 0.020453561 -0.021343043 -0.03990398
-0.042127818 -0.061423983 0.10056928 0.10259981 0.10333622 -0.067848206 0.04804336 0.1020696
0.03652491 -0.051293507 -0.03220772 -0.010958807 -0.049165975 0.04956456 -0.09875502 -0.063403085
00000000: fe60 2dbd 0b78 c53d c367 94bc 7091 75bd
00000010: c394 a339 e11e ee3d 0a34 3abd 01f8 0c3d
00000020: 6d9a 25bd d1cf 533c 46a0 f5bb c455 1c3d
00000030: f6cb 003e 2bba 003e 491a 9e3d 6baa 64bd
00000040: 570c 64bc bb8c 3a3b 0c8e 003d b1cc 05bd
00000050: cedf 9fbd f025 a83c b220 cf3d 9a2a b4bd
00000060: 7b52 fb39 4079 c0bd ba3d d63d 07c2 173a
00000070: dba4 283d f13d 82bd f0bd b73d af37 f2bc
00000080: 91f3 5cbc 5539 013d d45d cfbc 587e ef3d
00000090: f70e f1bd 9fec 0fbc c841 ba3d db8e 91bd
000000a0: 545c 8fbd 02eb abbd bcb3 c53b 88b5 bc3d
000000b0: 0124 93bd 5b35 3abd 37d8 2f3d 2fe3 be3d
000000c0: 1861 703d 284a fcbd b52d 63bd 8df1 4e3d
000000d0: 748c 9e3b 65d7 99bd 0d50 a7bd d478 ecbc
000000e0: ff45 d8bd d76b 9ebd 9052 b73d b40d a3bd
000000f0: ec98 e83d de89 c0bd 48c0 733d bb2c b23c
00000100: d409 633d 413a bdbd 5283 0dbd 1def 00be
00000110: 956f 9fbc a69b 8bbc df0f f9bc e4c3 bf3c
00000120: e991 bebd e8c4 ad3d 238e c2bd 51bb 1d3d
00000130: 2b5e 19bd 316f f5bc a1a3 1e3c 17c3 afbd
00000140: 5734 05bd 5c22 f03c bba9 c73d 7ba1 f1bd
00000150: 7682 b23d 6a61 bb3c 7884 d13d 6545 f23d
00000160: 1e9e bbbd 75ca 71bd 673a 003e 56ae 933d
00000170: 237e d73d 4937 d03d 5664 9bbd b7b5 86bc
00000180: 728a d3bd bd7f f539 ea84 bc3d 69fa b9bd
00000190: 3f68 b13d 6cb5 cebc c861 e5bc 1464 f03c
000001a0: 6990 b53d c66a 153c 9fec e3bd 63b0 98bc
000001b0: d0bf e93d 20b0 e6bd 93b0 c7bd 74bd a13d
000001c0: b147 4e3c 932d f8bc 2efb 673d 5b46 043c
000001d0: bf4f febc 4a27 f03d 8486 e1bb e6c3 adbd
000001e0: 303e cbbd 9ae1 ddbd 665d 94bd 9bac e83c
000001f0: 345b 2bbd af01 b13d 00f1 79bd b98c 05bd
00000200: 078c 8bbc 3e8a 9c3d 39a5 3439 53bd f53d
00000210: f321 263c 91bf 4cbd ef13 973d ab89 ac3d
00000220: 4070 1ebd f24c c1bd 1662 dbbd dadc 50bd
00000230: c4e0 c2bd 6aae 3fbc 43ac 5e3d 3b92 db3d
00000240: 942b 5bbd ff25 973d 3e79 8b3d a319 9d3d
00000250: 83af bcbd e622 66bd 013a 40bd 5758 ddbd
00000260: f8d6 57bd b5b8 d73d 24e4 bebd 8c01 d0bd
00000270: 476d 93bd f15d b93d 188c 493d b148 ecbd
00000280: 655a 8b3d 2e6a 263d a344 e5bb 6e7a a6bc
00000290: 7cb6 82bd f4a7 cabd 3fc8 70bb fcbc 643d
000002a0: 8e72 8d3d e4c4 87bd 0b62 ffbd fc32 423d
000002b0: 0d4c eebd 8e42 5fbd b5d9 993d a8aa d93d
000002c0: eb7d 13bd 1c4d f5bb e9da 80bd 41bf 41bc
000002d0: d202 e3bd cee3 c23c 718d 283b 1f24 943c
000002e0: ca96 3b3d 4b59 ddbd fc42 1abd 6292 7e3d
000002f0: f59a 8dbc f199 d93d 98b5 a3bc 88b5 673d
00000300: 1b64 b2bd 5a12 dc3c 3e85 cbbd 3b97 89bd
00000310: aa62 a43c be89 f3bd 4996 a53d e086 183d
00000320: de41 5f3d bd3f 78bd 72c7 80bd 4eb1 a83d
00000330: b316 463d 1c7c 14bc cab2 d9bc 78b5 dcbd
00000340: d3b9 1e3d 15ac 5abd 576d 093d e318 543d
00000350: cc9a 6fbc 69ee dabd 23db ccbd 7011 e8bd
00000360: 542e 89bd 7da4 b33d 572b 42bc 938d a33d
00000370: 5aba 06bb 2a2f 1bbd c20b 32bd 35d6 c33d
00000380: f60f 2bbd f235 a6bd 8a25 e0bb 9788 963d
00000390: 67d7 9f3d d1bc 35bd 3de4 48bd 3c38 3a3b
000003a0: 1afa 8abb b824 343d faf0 dd3c b1ac 82bd
000003b0: 25a9 e8bd 3a8e a73c 9bd7 aebc 5b72 23bd
000003c0: 388e 2cbd b797 7bbd 44f7 cd3d d91f d23d
000003d0: f1a1 d33d 00f4 8abd 1dc9 443d de09 d13d
000003e0: 259b 153d 2419 52bd 3eec 03bd 918c 33bc
000003f0: 4362 49bd 3504 4b3d 1240 cabd 7ad9 81bd

model.rnn.bias_ih_l1 f4 [160]
0.18909612 0.26120147 0.2272275 0.14844467 0.10988396 0.065911666 0.17497161 0.19930908
-0.015101987 0.2600405 -0.13287213 0.105617985 0.08407079 -0.14223577 0.0658708 0.010984493
0.13573186 0.17980523 0.0713953 -0.10757626 0.19109829 0.26867124 -0.08270048 -0.064473696
0.11227649 0.0702076 -0.109862015 0.12500872 0.09710055 0.07512563 0.029192403 0.03990329
-0.12601396 -0.025385987 0.07741873 0.031656895 -0.027239962 0.14551206 0.041406732 0.0025560313
0.030449832 0.08178028 0.09293932 -0.095996454 0.10531202 0.043513697 0.043303445 0.06338594
-0.06925658 -0.116919436 0.043608468 0.115459874 -0.12591243 -0.11763746 -0.07920021 -0.017818106
0.06394058 -0.0171684 -0.08666486 0.001272718 -0.0009814054 -0.085616596 0.100797564 -0.03937032
0.076946065 -0.03329248 -0.11338063 -0.11824021 0.033349082 -0.070400335 0.057721652 -0.07943025
-0.08373342 0.101275615 -0.033527363 -0.09001708 0.08120445 -0.039254066 -0.055134118 0.037285242
0.0093692 0.025348492 0.07614637 0.0432938 -0.05723836 0.041517682 -0.19105016 -0.064657465
-0.19580387 -0.061330836 0.12585053 0.047818866 0.14169294 0.11877985 0.0993865 0.01418662
-0.11413741 0.03505429 -0.12127968 0.09225581 0.21391222 -0.18222144 0.064981274 -0.117737144
0.02173892 0.027821304 -0.07282107 -0.104538254 0.009711639 0.1663714 -0.051988084 0.08045764
-0.083825015 0.06568061 0.060331624 0.21058299 -0.118627355 -0.17013709 0.056483924 -0.18238424
0.16645108 0.19438985 0.085360244 0.006939611 -0.12629078 0.19249566 0.06318691 0.19764099
0.10834915 0.05966803 -0.06505803 -0.08156412 -0.10704542 0.01035619 -0.047219634 -0.038535442
0.13460624 0.17774668 0.0030508495 0.011091778 0.062310252 0.015381072 -0.10801174 0.14608131
0.23516312 0.04391354 -0.13639788 0.14572911 0.08900448 -0.050698284 0.15027818 0.097876646
0.13963191 0.16918592 0.03286765 0.0228581 -0.1472604 0.20793279 0.1766468 0.0049508032
00000000: 6aa2 413e 33bc 853e 53ae 683e e101 183e
00000010: d70a e13d b2fc 863d c22b 333e ae17 4c3e
00000020: 536e 77bc 0724 853e a20f 08be 3e4e d83d
00000030: 4e2d ac3d 41a6 11be 45e7 863d 4ef8 333c
00000040: 4bfd 0a3e dd1e 383e b337 923d f150 dcbd
00000050: 45af 433e 478f 893e df5e a9bd c90a 84bd
00000060: 37f1 e53d 01c9 8f3d 56ff e0bd 4902 003e
00000070: a7dc c63d 77db 993d e824 ef3c a271 233d
00000080: ce09 01be 46f6 cfbc b68d 9e3d a9aa 013d
00000090: 5726 dfbc 1d01 153e 1b9a 293d 1783 273b
000000a0: ed71 f93c 6b7c a73d f856 be3d ca99 c4bd
000000b0: d4ad d73d 6b3b 323d f45e 313d 7dd0 813d
000000c0: 65d6 8dbd 7573 efbd cb9e 323d 3a76 ec3d
000000d0: 30ef 00be e9eb f0bd b833 a2bd 47f7 91bc
000000e0: 47f3 823d bfa4 8cbc 597d b1bd 54d1 a63a
000000f0: 80a2 80ba c157 afbd f46e ce3d c642 21bd
00000100: e695 9d3d b25d 08bd 1b34 e8bd ec27 f2bd
00000110: 0c99 083d 0d2e 90bd 8a6d 6c3d 54ac a2bd
00000120: 6d7c abbd 9769 cf3d fd53 09bd e05a b8bd
00000130: 854e a63d dfc8 20bd 50d4 61bd 69b8 183d
00000140: 4681 193c a4a7 cf3c a1f2 9b3d d754 313d
00000150: c572 6abd 720e 2a3d a7a2 43be 226b 84bd
00000160: cf80 48be 0b36 7bbd f6de 003e b7dd 433d
00000170: f417 113e da42 f33d 268b cb3d ff6e 683c
00000180: e0c0 e9bd 1695 0f3d 7b61 f8bd 9df0 bc3d
00000190: ce0b 5b3e 4298 3abe e714 853d 2c20 f1bd
000001a0: d215 b23c 81e9 e33c 3723 95bd 2718 d6bd
000001b0: 911d 1f3c 445d 2a3e 75f1 54bd fac6 a43d
000001c0: 73ac abbd 8e83 863d 4b1e 773d 11a3 573e
000001d0: e6f2 f2bd 6b38 2ebe b05b 673d efc2 3abe
000001e0: 2772 2a3e 220e 473e 5ad1 ae3d ad65 e33b
000001f0: 5f52 01be 951d 453e 2368 813d 6662 4a3e
00000200: 29e6 dd3d 7766 743d 253d 85bd 170b a7bd
00000210: a13a dbbd 02ad 293c 6069 41bd 57d7 1dbd
00000220: 38d6 093e 3a03 363e c3f0 473b 4aba 353c
00000230: 0939 7f3d e400 7c3c 4235 ddbd 5796 153e
00000240: 9ace 703e afde 333d e3ab 0bbe 033a 153e
00000250: fb47 b63d 01a9 4fbd 86e2 193e 8d73 c83d
00000260: abfb 0e3e 133f 2d3e 3ba0 063d e940 bb3c
00000270: 6ecb 16be 55ec 543e e6e2 343e 593a a23b

model.rnn.bias_hh_l1 f4 [160]
0.27559572 0.062329177 0.03200826 0.2855665 -0.11839869 0.18014464 0.009470658 0.24642396
0.17835122 0.1653817 0.07674315 0.13930261 -0.045774825 0.033512484 0.04886489 0.017990874
0.052343007 0.21063147 0.1060597 -0.04792751 0.18569763 0.2608641 0.098585546 -0.13111869
0.22091116 0.07084787 0.15764473 0.24558908 0.270586 0.09003037 0.031745724 0.10790021
0.14480446 0.09462891 0.10452649 0.15672347 -0.08483922 0.09850781 0.0072559947 0.060405795
-0.06184871 0.11145258 -0.10361965 -0.003315404 -0.035793692 -0.009890192 -0.060398336 0.0625184
0.025733609 0.03151041 0.09032387 0.070238434 -0.01708497 0.013981363 -0.028695624 0.008248138
0.008635568 -0.059355713 0.059846874 -0.08794187 -0.07172996 0.05107857 -0.09201622 0.012089965
0.08947829 0.051062245 0.11705753 -0.010022644 -0.033476077 -0.12304922 0.045180425 -0.12699628
0.10301454 -0.06398209 -0.036868144 -0.004216004 -0.008838837 -0.04952198 0.02319733 0.012923247
0.11398171 -0.10363247 -0.07181273 0.06793455 -0.07646875 -0.105411835 -0.08894695 -0.03142309
-0.19150357 0.23671594 -0.058489155 -0.119370155 -1.1852913e-05 0.0664884 -0.16661757 -0.055589102
-0.14143538 0.0010710361 -0.14878193 -0.14086135 -0.01997005 -0.13729304 0.06025974 0.109794624
-0.042994004 -0.1494402 0.17315365 -0.10611873 0.20189683 0.13953337 -0.11732937 -0.11206008
-0.03676698 0.090424895 0.019900378 0.005044318 0.029557742 -0.07413039 -0.10679401 -0.0017947033
0.14027369 0.11340587 0.24196854 0.16576082 -0.11367582 0.08356826 0.20064844 0.16995251
0.19752291 0.066165425 -0.010558171 -0.041488666 0.006102124 0.11097944 -0.032600682 -0.0511255
-0.106139794 0.1010988 0.033190392 -0.05378886 -0.012430752 0.25969684 -0.02197009 -0.07004688
0.14462999 -0.09972444 -0.10090351 0.1468002 0.08361729 0.04902102 0.19731687 0.13007416
-0.07448538 -0.008445242 0.19368976 0.21300462 0.029167464 0.25586057 0.076159455 0.039215963
00000000: e21a 8d3e e14c 7f3d 181b 033d c635 923e
00000010: 037b f2bd d677 383e d22a 1b3c 9056 7c3e
00000020: b4a1 363e d259 293e 832b 9d3d 58a5 0e3e
00000030: 627e 3bbd 6344 093d 8d26 483d 9961 933c
00000040: 9f65 563d c7af 573e d435 d93d a34f 44bd
00000050: 8527 3e3e fb8f 853e 38e7 c93d fa43 06be
00000060: 8936 623e b018 913d 9f6d 213e b47b 7b3e
00000070: 408a 8a3e d861 b83d ce07 023d c9fa dc3d
00000080: 9f47 143e cdcc c13d fc11 d63d 1e7c 203e
00000090: 2fc0 adbd 76be c93d b2c3 ed3b 116c 773d
000000a0: 1355 7dbd 4041 e43d 8a36 d4bd 4047 59bb
000000b0: 689c 12bd 790a 22bc 3f64 77bd a609 803d
000000c0: 4acf d23c 0f11 013d b9fb b83d 2bd9 8f3d
000000d0: c7f5 8bbc 1612 653c 1613 ebbc 3323 073c
000000e0: 337c 0d3c fa1e 73bd ff21 753d de1a b4bd
000000f0: 28e7 92bd c337 513d 0073 bcbd fd14 463c
00000100: 6540 b73d a526 513d dcbb ef3d 0436 24bc
00000110: 361e 09bd 3b01 fcbd 1c0f 393d 500b 02be
00000120: 4af9 d23d 0b09 83bd 0d03 17bd 6826 8abb
00000130: c5d0 10bc 8fd7 4abd 5408 be3c 07bc 533c
00000140: 3e6f e93d 433d d4bd 8d12 93bd 4521 8b3d
00000150: a69b 9cbd 29e2 d7bd d229 b6bd 7fb5 00bd
00000160: 8319 44be aa65 723e 5392 6fbd 5778 f4bd
00000170: e0db 46b7 122b 883d cc9d 2abe 66b1 63bd
00000180: 70d4 10be 0262 8c3a 4a5a 18be f53d 10be
00000190: 3b98 a3bc 8c96 0cbe ebd2 763d 01dc e03d
000001a0: 7b1a 30bd da06 19be 314f 313e c754 d9bd
000001b0: 0bbe 4e3e d6e1 0e3e 614a f0bd c17f e5bd
000001c0: f998 16bd b030 b93d 1e06 a33c ce4a a53b
000001d0: 1423 f23c add1 97bd d1b6 dabd 403c ebba
000001e0: e8a3 0f3e 5641 e83d 9ac6 773e 34bd 293e
000001f0: dece e8bd d625 ab3d c976 4d3e 0808 2e3e
00000200: 7243 4a3e bd81 873d 2efc 2cbc 05f0 29bd
00000210: 54f4 c73b 3049 e33d 4b88 05bd f968 51bd
00000220: d25f d9bd e30c cf3d a6f2 073d b551 5cbd
00000230: 5aaa 4bbc fcf6 843e 9efa b3bc bd74 8fbd
00000240: e219 143e 543c ccbd 80a6 cebd cb52 163e
00000250: 8b3f ab3d 44ca 483d 6f0d 4a3e 2932 053e
00000260: ca8b 98bd ea5d 0abc 9c56 463e e21d 5a3e
00000270: 9bf0 ee3c 2800 833e 7df9 9b3d eba0 203d

exp_avg f4 [1, 40]
-0.00014139962 0.00014138347 -0.00013983408 -0.000141853 -1.9613321e-06 0.00014194449 0.00014180165 -0.00013247065
0.0001408903 -0.00014174043 -3.271729e-06 0.00011905607 4.339889e-05 -1.6538906e-05 1.52009015e-05 5.6324032e-05
-5.2230018e-05 -0.00014087139 -2.7121587e-06 1.7518483e-06 -0.00011819299 0.00014039343 3.6288304e-05 -2.8032195e-05
-0.00014123354 4.9243074e-05 -7.8917365e-05 0.0001407001 -0.00014130527 -0.00013577366 0.000110162175 3.577301e-05
4.8087477e-05 5.3952073e-05 0.00012550101 -0.00014133018 -3.0194306e-05 0.00014200486 0.00014058425 0.0001404259
00000000: ac44 14b9 5640 1439 6da0 12b9 60be 14b9
00000010: 6e9f 03b6 efd6 1439 97b0 1439 d2e7 0ab9
00000020: f4bb 1339 28a0 14b9 e08f 5bb6 bead f938
00000030: 3407 3638 08bd 8ab7 6007 7f37 783d 6c38
00000040: 8e11 5bb8 e0b6 13b9 8802 36b6 0d21 eb35
00000050: 61de f7b8 9336 1339 4534 1838 ae26 ebb7
00000060: 1718 14b9 598a 4e38 7080 a5b8 e588 1339
00000070: 582b 14b9 775e 0eb9 de06 e738 fa0a 1638
00000080: 89b1 4938 994a 6238 ec98 0339 0832 14b9
00000090: c749 fdb7 24e7 1439 cc69 1339 4a3f 1339

exp_avg_sq f4 [1, 40]
5.2382993e-06 5.3949643e-06 3.530782e-06 5.3718995e-06 3.108399e-08 6.4368633e-06 6.5864397e-06 2.1328585e-06
6.2135373e-06 5.774123e-06 1.1856861e-07 8.62957e-07 3.1767533e-07 6.887185e-08 3.7991097e-07 4.1897616e-07
9.530199e-07 4.424401e-06 1.2411208e-06 4.417902e-08 3.0929123e-06 5.369293e-06 5.6880456e-08 3.4983705e-07
4.771187e-06 6.8459457e-07 2.9739076e-07 5.6391286e-06 6.0591055e-06 1.9211354e-06 3.4413947e-07 1.1530979e-06
1.2375061e-07 8.674527e-07 2.0695238e-06 6.0213406e-06 5.0966565e-07 5.6879603e-06 3.8025887e-06 5.7250236e-06
00000000: a6c4 af36 6406 b536 5ff2 6c36 4440 b436
00000010: 3581 0533 3cfc d736 1601 dd36 3b22 0f36
00000020: e17d d036 57bf c136 c89f fe33 f4a5 6735
00000030: f78c aa34 b3e6 9333 91f6 cb34 a5ef e034
00000040: 07d3 7f35 5175 9436 9694 a635 59bf 3d33
00000050: d48f 4f36 e029 b436 b94c 7433 3dd1 bb34
00000060: 2f18 a036 fbc4 3735 13a9 9f34 bf37 bd36
00000070: 524f cb36 dbec 0036 2bc2 b834 24c4 9a35
00000080: 4fe0 0434 e5da 6835 26e2 0a36 ec0a ca36
00000090: f5cf 0835 35db be36 fa2f 7f36 9419 c036

exp_avg f4 [1, 40]
-0.12640314 0.12641324 -0.124948904 -0.12654433 -0.0013536322 0.12716685 0.12692761 -0.11884862
0.12627494 -0.12683381 -0.0036403092 0.10501474 0.039903346 -0.02313103 0.016039448 0.04720231
-0.053465843 -0.12624542 -0.0029667367 0.00033458392 -0.1060577 0.12487148 0.027722254 -0.030118052
-0.1261276 0.044637002 -0.07312187 0.1256435 -0.126373 -0.11911152 0.10126419 0.027076188
0.054792576 0.05455128 0.11230479 -0.12650698 -0.02218666 0.12697579 0.124735355 0.12537533
00000000: d36f 01be 7972 013e 36e5 ffbd d694 01be
00000010: 5c6c b1ba 0738 023e 50f9 013e e866 f3bd
00000020: 384e 013e b9e0 01be 4192 6ebb f811 d73d
00000030: b171 233d 497d bdbc 2965 833c 3657 413d
00000040: 00ff 5abd 7b46 01be 956d 42bb 186b af39
00000050: c834 d9bd 9ebc ff3d c819 e33c 22ba f6bc
00000060: 9827 01be 4ad5 363d ebc0 95bd b1a8 003e
00000070: ec67 01be bef0 f3bd 9a63 cf3d e2ce dd3c
00000080: 2e6e 603d 2a71 5f3d 0e00 e63d 0c8b 01be
00000090: ccc0 b5bc f105 023e 4075 ff3d 6462 003e

exp_avg_sq f4 [1, 40]
0.5394725 0.5398758 0.5181702 0.54381716 0.00013337567 0.54753137 0.5458926 0.4499347
0.5346532 0.544162 0.00019798055 0.32822126 0.03507878 0.0035065012 0.0067189466 0.061626114
0.05972291 0.53187203 0.001234959 7.0641334e-05 0.3664046 0.5298843 0.018970283 0.015611756
0.5346263 0.052185442 0.11792602 0.53544056 0.53879535 0.46829808 0.24076118 0.030513912
0.04398168 0.05975971 0.4021658 0.53877115 0.018446911 0.5454769 0.52345896 0.53137743
00000000: df1a 0a3f 4d35 0a3f cda6 043f 9a37 0b3f
00000010: c2da 0b39 042b 0c3f 9ebf 0b3f d75d e63e
00000020: 08df 083f 334e 0b3f 0099 4f39 9e0c a83e
00000030: c4ae 0f3d 54cd 653b 9c2a dc3b aa6b 7c3d
00000040: 03a0 743d c428 083f 59de a13a 4725 9438
00000050: 6299 bb3e 7fa6 073f 9167 9b3c 73c8 7f3c
00000060: 45dd 083f 67c0 553d 3283 f13d a212 093f
00000070: 7eee 093f c4c4 ef3e 198a 763e 50f8 f93c
00000080: 2226 343d 99c6 743d ade8 cd3e e8ec 093f
00000090: fa1d 973c 60a4 0b3f 6801 063f 5a08 083f

exp_avg f4 [1, 40]
0.01952701 -0.019521942 0.019290747 0.019569784 0.00031004852 -0.019611865 -0.019593172 0.018311823
-0.019429866 0.019572068 0.00035149718 -0.016534746 -0.0056195613 0.0020612825 -0.0022396145 -0.0074114976
0.0072979545 0.019452434 0.000310541 -0.00014565981 0.016674573 -0.019403689 -0.0046634856 0.0040823873
0.019471925 -0.0068830973 0.010848127 -0.019456973 0.019500908 0.018750235 -0.015269861 -0.004798452
-0.0070914435 -0.00787876 -0.017600771 0.019505864 0.003811052 -0.019593837 -0.019362599 -0.019392656
00000000: 1cf7 9f3c 7bec 9fbc a107 9e3c d050 a03c
00000010: 028e a239 10a9 a0bc dc81 a0bc ad02 963c
00000020: 622b 9fbc 9a55 a03c 2749 b839 e073 87bc
00000030: 4c24 b8bb 9516 073b 7fc6 12bb 26dc f2bb
00000040: ae23 ef3b b65a 9f3c 1cd0 a239 42bc 18b9
00000050: 1d99 883c 7cf4 9ebc 27d0 98bb 8cc5 853b
00000060: 9683 9f3c 9b8b e1bb 58bc 313c 3b64 9fbc
00000070: 5ec0 9f3c 189a 993c 702e 7abc 553c 9dbb
00000080: 575f e8bb ea15 01bc 7e2f 90bc c3ca 9f3c
00000090: d8c2 793b 4183 a0bc 509e 9ebc 59dd 9ebc

exp_avg_sq f4 [1, 40]
0.020818565 0.021377955 0.016080609 0.021431064 2.9472685e-05 0.023497298 0.023278011 0.010763031
0.021849904 0.022137344 0.00015916137 0.0051600086 0.00074818847 9.5891635e-05 0.000736771 0.0014786401
0.0016755974 0.018820703 0.0013616533 5.771633e-05 0.011268825 0.019825984 0.00022328497 0.0005133519
0.019687163 0.0015774651 0.001450415 0.021164374 0.021939695 0.010366205 0.0024411767 0.0024251658
0.00042755457 0.0011732114 0.009496416 0.021929968 0.001157386 0.022201965 0.016944326 0.02105079
00000000: b28b aa3c d220 af3c 7bbb 833c 3390 af3c
00000010: 1c3c f737 687d c03c 87b1 be3c 6d57 303c
00000020: 92fe b23c 6059 b53c 8ee4 2639 4a15 a93b
00000030: 1422 443a 6e19 c938 dd23 413a eece c13a
00000040: b89f db3a e02d 9a3c 8179 b23a 7014 7238
00000050: e1a0 383c 1a6a a23c 9a21 6a39 7692 063a
00000060: f946 a13c f2c2 ce3a da1b be3a e960 ad3c
00000070: e0ba b33c 04d7 293c 26fc 1f3b 88ef 1e3b
00000080: 6729 e039 71c6 993a db96 1b3c 7aa6 b33c
00000090: 6eb3 973a e5e0 b53c d4ce 8a3c b572 ac3c
