practice13/lightning_logs/version_1/checkpoints/epoch=4-step=250.ckpt (torch, 300447 bytes, 33 tensors)

model.param_proj.proj.0.weight f4 [1, 40]
000000 e1 25 15 3e df 45 24 be c1 8d c3 3d 05 01 9e bd
       0.14565231 -0.16042279 0.09548522 -0.07715038
000010 8e a9 4a 3e 36 43 50 bd 6b 9e 42 3e ce 84 ae bc
       0.19791242 -0.050845347 0.19005744 -0.02130356
000020 c8 2e a9 bd 12 6a 82 bc 0e eb 3d 3d f0 d2 44 bd
       -0.08260876 -0.015919719 0.046366744 -0.04805273
000030 82 c2 89 3d 07 fc cc 3d 2c 39 8d 3d 47 1e a8 bd
       0.067265525 0.10009008 0.0689567 -0.082089
000040 00 e8 e8 3d 5a cd f3 bd 8f fd 1e bd 44 b5 d0 bd
       0.113723755 -0.11904402 -0.03881603 -0.10190824
000050 05 c2 99 3d b2 ca 18 be 2b d5 52 bd 34 be 9c 3d
       0.075077094 -0.14921072 -0.051472824 0.07653466
000060 fc ff e3 bc 81 d0 8f bc 76 2d 56 3e 34 4c 44 3d
       -0.027832024 -0.017555477 0.2091578 0.047924235
000070 9f 00 34 3e 4d ea 20 bd 81 44 b5 ba f9 7d bd 3c
       0.17578362 -0.039285947 -0.001382962 0.023131358
000080 c0 0f 63 3d 2c d8 00 3e 02 e9 4c 3d c7 c8 30 3e
       0.055434942 0.12582463 0.0500269 0.1726409
000090 ca c5 7f bd 59 a3 e9 bd 26 ee 8a 3d 45 e0 f3 bd
       -0.062444486 -0.11408109 0.067837045 -0.119080104

model.param_proj.proj.1.weight f4 [1, 40]
000000 d2 37 bb 3d 27 e9 98 bd 8e 35 8c 3d f6 a5 b5 bd
       0.09141506 -0.07466345 0.06846152 -0.08869545
000010 a9 00 29 bd 3e ef b9 3d cc e9 be 3d 04 30 ab bc
       -0.041260395 0.09078835 0.09321937 -0.02089692
000020 cb bc c9 3c 63 1b 10 bd 53 40 1e be f2 ab 9b bd
       0.024626156 -0.035182368 -0.15454225 -0.07601155
000030 ef 3d 2a be 52 7c 19 be 96 8f 67 3c 8f d1 19 3e
       -0.16625188 -0.1498883 0.014133355 0.15021347
000040 81 19 04 be 4f e0 dd 3b 51 4b 1b be 09 e5 c8 3c
       -0.12900354 0.0067711244 -0.1516545 0.024523275
000050 ff c3 e4 3d 45 f1 e0 bd 11 e8 06 be 86 0e 0a 3d
       0.11170196 -0.109835185 -0.13174464 0.033705257
000060 82 f4 93 bd cd 64 7a 3d 3a cc 0a 3e 66 e7 1e 3e
       -0.072243705 0.061131287 0.13554469 0.15517959
000070 38 23 09 3e 0c 53 f4 3d d7 04 2e be 86 74 f5 3d
       0.13392341 0.119299024 -0.16994034 0.11985116
000080 23 5c 34 3c a8 5e 91 3d 44 dc 02 be 09 08 1a 3e
       0.011008295 0.07098132 -0.12779337 0.15042128
000090 4e 23 35 be a7 45 a0 3d d9 7b ff bc cb 6c 79 3d
       -0.17689249 0.07825785 -0.031186985 0.06089477

model.param_proj.proj.2.weight f4 [1, 40]
000000 e3 65 29 be 7e 44 e8 3d 4a 02 91 bb 04 f1 13 be
       -0.16542773 0.11341189 -0.0044253217 -0.14447409
000010 be 8d 83 3e b6 43 21 3e 32 69 44 3e 7e d3 6f be
       0.25694078 0.15748486 0.19180754 -0.23420522
000020 73 20 21 be cb 37 22 be 13 78 5b 3e 20 03 54 3e
       -0.15735035 -0.15841596 0.21432523 0.20704317
000030 6b 55 10 bd db 33 04 3e 35 99 d3 bd 0a eb 55 be
       -0.03523771 0.12910406 -0.10331956 -0.20890442
000040 f7 06 48 3e 99 a2 d3 bd 6f 60 51 bd 1a 70 d7 bd
       0.19533907 -0.103337474 -0.051117357 -0.105194286
000050 37 96 8d 3d fa f4 04 3e 5b 30 17 3e 11 19 0d 3e
       0.06913417 0.12984076 0.1476454 0.13779093
000060 97 3c 30 be 5a 14 44 3e 5f a3 ab 3d 6e 92 0f 3e
       -0.17210613 0.19148389 0.0838077 0.14020702
000070 18 10 61 3d 15 fd c9 3c da 9b 6f bd 9e ee f4 bd
       0.05494699 0.024656812 -0.05849824 -0.11959575
000080 7b 40 ec 3d 1e a4 39 3e 5e 42 6e 3e 43 70 80 be
       0.11535736 0.18129012 0.23267505 -0.2508565
000090 b7 fc a8 bd 9d 2f 1c be 0a 57 0c be f1 1a 7d be
       -0.082513265 -0.15252538 -0.13705078 -0.24717309

model.rnn.weight_ih_l0 f4 [160, 21]
000000 24 57 e4 3d 13 b9 56 3e 8e dc 9d bd 92 15 12 bd
       0.11149433 0.20969038 -0.07708083 -0.035665102
000010 95 78 09 3c 37 d2 20 3e 82 3c 82 3c f4 65 98 3c
       0.008390565 0.1570519 0.015897993 0.018603303
000020 f8 bc 98 3c d1 4a 18 bd 00 bd 39 3e 5f d1 01 bd
       0.018644795 -0.037180725 0.18138504 -0.031693812
000030 ae 8d 18 3e a7 74 58 3e 7e a7 75 bd 9a a4 29 3e
       0.14897797 0.2113825 -0.059974186 0.16566697
000040 5a dd 05 bd 37 74 bf 3d 29 57 5a bd 46 d7 09 3d
       -0.0326818 0.09348338 -0.05330578 0.033652566
000050 de cc 17 bd 49 f3 f5 3c 38 61 8a 3d 45 23 4d 3e
       -0.03706061 0.030023234 0.06756824 0.20032986
000060 85 6c 4d 3e 4d f4 a6 3b 01 3e d3 3d 63 33 09 3e
       0.20060928 0.005095041 0.10314561 0.13398509
000070 90 79 ad 3c 52 22 ce 3d 8e 46 a6 bd af 49 0c 3c
       0.02117613 0.1006514 -0.08118926 0.008562489
000080 26 a7 03 3e 68 62 13 bd ae fc a0 bb 90 4f 12 3e
       0.12856731 -0.03598252 -0.0049129343 0.14288163
000090 e8 59 18 3e a8 66 4a be e5 b3 00 3e 66 d9 fa 3c
       0.14878047 -0.19765723 0.12568624 0.030621242
0000a0 c8 53 14 be 59 d3 ba bd 8e 81 5d 3d 19 81 4c 3c
       -0.14485085 -0.091223426 0.05407863 0.012481951
0000b0 b0 4e 56 3d 45 c3 de 3d 45 8a bf bd b3 63 05 bc
       0.052321136 0.108770885 -0.09352545 -0.008141446
0000c0 70 ca 0a 3e 30 31 c2 bd 49 3a 2d 3e 02 38 87 bc
       0.13553786 -0.09482038 0.16916765 -0.016506199
0000d0 ee d9 ad 3d b9 fb e3 3d d7 d8 fc bd 97 cd 0f bc
       0.084888324 0.11131997 -0.123460464 -0.008777044
0000e0 eb d4 be 3d 84 73 cc bc 31 77 eb bd f0 44 b7 3d
       0.09317955 -0.024957426 -0.11497343 0.08948696
0000f0 7b d6 0a 3e 42 bc 15 3d 9d 8f a0 3d 57 ad 79 bd
       0.1355838 0.03655649 0.07839892 -0.060956325
000100 1c c9 eb 3d cc 9e 0d 3d 2d eb 12 bd d3 76 3b 3e
       0.11512968 0.03457527 -0.035868812 0.18307047
000110 56 50 1e 3e e6 db 20 3d 1f 5e 9c 3d 0c 92 e5 3d
       0.15460333 0.03927221 0.0763514 0.11209497
000120 dd dd 78 3d 80 04 22 3e 51 f6 23 3e ba 0c 29 3d
       0.06075846 0.15822029 0.16011931 0.041271903
000130 77 05 60 bd 48 10 53 3d 02 0d 2d 3d b2 1d ae bc
       -0.05469271 0.0515292 0.042248733 -0.021254394
000140 7c 2c 09 bd 8f 86 88 bd 01 ec 8b bd 26 f2 86 bd
       -0.03348969 -0.0666629 -0.068321235 -0.06589155
000150 25 37 66 bd d3 b3 a2 3c 6b e6 36 bd 4b e0 42 3e
       -0.056204934 0.019861137 -0.044653337 0.19030873
000160 d6 3a dc 3d d5 ee 2a 3c 68 ec 54 3d 9c 0a 8b bd
       0.107534096 0.010432919 0.051983267 -0.06789133
000170 93 3f 96 3d 21 8d e8 3d bf 03 68 bc 0b 83 26 3e
       0.073363446 0.11355043 -0.014161049 0.16260926
000180 e0 96 51 3e 5c bf 9b bb 0e d1 0e bd 5d d2 22 3c
       0.2046771 -0.0047530364 -0.03486734 0.00993785
000190 9f 93 9e 3d 7f c6 b8 bd c7 a6 58 bd 3f 55 aa 3c
       0.07743 -0.09022235 -0.052893426 0.020792602
0001a0 e2 c8 13 bd 99 5f c8 bc f2 74 0d 3e 9b 39 35 3e
       -0.03608025 -0.024459647 0.13814142 0.17697756
0001b0 b8 a5 e5 3d 4d be 0e 3c 2e c1 31 3d 07 f0 23 3d
       0.11213249 0.008712363 0.04339712 0.04002383
0001c0 94 d0 2b 3e 5c 7f 6e 3e 10 df 14 3e 9c 13 c8 3d
       0.16778785 0.23290771 0.14538217 0.09769365
0001d0 b2 65 63 3e 7b d8 ec 3d 61 bf 3e 3e e7 5e 4a bd
       0.22206762 0.11564728 0.18627693 -0.049406912
0001e0 31 c0 44 3d b6 55 4c be 4e 19 da 3d c7 fb 94 bd
       0.04803485 -0.19954571 0.10649358 -0.07274585
0001f0 f8 61 6e be d4 91 82 bc 56 91 ad bc d7 3c e9 3d
       -0.2327956 -0.015938677 -0.021187466 0.113885574
000200 cb 38 a6 3d c1 90 77 bd e0 2e 98 bd cb 90 00 3d
       0.08116301 -0.060440782 -0.07430816 0.031388085
000210 d1 cb c8 bd a4 a7 4c bd 64 b1 90 bd 23 06 1a 3d
       -0.098045 -0.049964562 -0.070650846 0.03760351
000220 b1 9b 2a 3d d1 bf d6 bd 70 d9 71 3d 0d 5d a0 3d
       0.041652385 -0.10485805 0.059045255 0.07830248
000230 cc ae d7 bd 6d 83 fd 3d 52 7a e5 3d 7b c0 f3 3d
       -0.10531387 0.12378583 0.112049714 0.11901947
000240 75 28 ee 3d 97 35 ca bd 42 03 db 3d fa 76 40 b9
       0.1162881 -0.09873503 0.10693981 -0.00018354869
000250 2a cf 34 3e a5 46 5b bd 6a 5a c6 3c 3f 78 f5 bc
       0.17657152 -0.05353417 0.024213035 -0.029964564
000260 19 8f a0 bd 00 ba e2 3d a3 1d 11 bd 59 6f 3c 3e
       -0.07839794 0.11070633 -0.035428654 0.18401851
000270 1e 28 02 bd 0d 4b 38 3d ab 8a 10 bd fb 6b a8 bd
       -0.03177654 0.04499345 -0.035288494 -0.08223721
000280 61 49 dc 3d 2a 33 78 bd f9 17 cc 3d 04 40 d4 bd
       0.107561834 -0.06059567 0.0996551 -0.103637725
000290 53 d2 ee 3d 71 af 7d 3d 3b e3 37 be 7f c4 53 3e
       0.1166121 0.061934892 -0.17957775 0.20680426
0002a0 6d d9 ec 3d f7 ab 61 3e 00 6f bb bd d0 68 23 3c
       0.11564908 0.22038256 -0.09152031 0.00997372
0002b0 44 d7 7e bc e0 72 0b 3d ca 59 1f 3d 7f df 51 3c
       -0.015554253 0.0340451 0.03890399 0.012809633
0002c0 e7 de ea bc eb 46 9c bd d0 69 e4 3d fa 7c 0c 3e
       -0.028670741 -0.07630714 0.11152995 0.1371955
0002d0 b4 c6 c9 3c a6 c4 d2 3d bd 13 03 3e 4a a0 4e 3d
       0.024630882 0.10291414 0.12800498 0.050445832
0002e0 3f 34 49 3d 31 3b 1e bb 31 ff 46 3e a9 d7 3d 3d
       0.04912209 -0.0024144168 0.19433285 0.046348248
0002f0 46 4e 6e 3d d3 54 3d 3d 9f c2 8c bd cb 38 11 3e
       0.058180116 0.046223473 -0.068730585 0.14181821
000300 53 41 43 3a 08 54 cd 3d 11 d3 d0 bc a1 59 8d 3c
       0.0007448394 0.10025793 -0.02549127 0.017254652
000310 33 2e 22 3d 49 53 02 3d 20 73 d7 bd ae c2 13 be
       0.03959484 0.03181771 -0.10520005 -0.14429733
000320 60 fb ef 3d f0 a6 eb 3d b7 9c 83 bd 3f ae aa bd
       0.11717868 0.1150645 -0.06426375 -0.08334016
000330 3f 9c 1f be 98 a2 b9 3d 5a 01 c3 3d ba 80 38 bd
       -0.15586947 0.090642154 0.09521742 -0.04504464
000340 da fa 5e bd ec ba 9b bc f8 40 3b bd 54 7b 7d 3d
       -0.05443845 -0.01901003 -0.045716256 0.061885193
000350 20 d2 bd 3d e2 66 93 bd ce a4 41 3e b4 00 43 3e
       0.09268594 -0.07197358 0.18910524 0.19043237
000360 ea b2 9a 3d 3b 25 fb 3d 0c 30 22 3e 7e b2 b2 3d
       0.075536564 0.122629605 0.15838641 0.08725451
000370 04 7e 18 3d 66 0e e4 3d 65 ee aa bd c7 a0 a6 3d
       0.037229553 0.11135559 -0.083462514 0.081361346
000380 89 a3 34 3e 7b 90 e7 3d dd ac 25 3d 4d ed 96 3d
       0.17640509 0.11306854 0.04044806 0.0736948
000390 6e 63 de 3d c7 b7 dc bc d7 7a 4a 3e ab de b3 3d
       0.108588085 -0.0269431 0.19773422 0.08782705
0003a0 b9 79 24 bd e0 75 81 3b 34 ee 95 bc 72 59 c0 3d
       -0.040155146 0.0039508194 -0.01830206 0.0939206
0003b0 00 d0 5c 3e e6 2d a6 3d e5 5c 33 3e ee d5 6d 3e
       0.2156372 0.08114223 0.17515905 0.23226139
0003c0 ba e9 6d bd c0 6d d4 3c c1 b3 6e 3c bb a0 a6 3d
       -0.058084227 0.02593124 0.014569224 0.08136126
0003d0 7f b2 6d 3e 50 86 5d 3e bc ac bf 3d 79 09 17 be
       0.23212622 0.21633267 0.09359118 -0.14749707
0003e0 fb 6e 2a 3b f9 c2 fd 3d 54 83 df bd 43 4d e4 3d
       0.002600609 0.12390704 -0.10913721 0.11147549
0003f0 61 6e 1b 3c f8 10 d5 3d cf 86 00 bc a5 79 90 bd
       0.009486766 0.10403627 -0.007844641 -0.07054452

model.rnn.weight_hh_l0 f4 [160, 40]
000000 fd ca e2 3d 53 a0 93 bc a1 01 10 3d 86 1e 90 bd
       0.11073873 -0.018020784 0.035157803 -0.07037072
000010 62 b6 cb 3c f1 b9 82 bc 08 0a 3b 3e 72 f6 bc bd
       0.02486724 -0.015957804 0.18265545 -0.09226693
000020 75 fb a0 bd 81 50 be bc 78 e6 7d bd 2b 0d 7b 3d
       -0.078604616 -0.023231747 -0.06198737 0.061291855
000030 b4 09 49 bd a2 25 2c bd da 44 1e 3e 03 72 b7 bd
       -0.04908152 -0.042028077 0.15455952 -0.08957293
000040 08 f5 8f 3d 3f fc 45 3e 41 32 f6 3d 33 f9 72 3d
       0.07029158 0.19334505 0.12021304 0.059319686
000050 42 4f dd bd 30 c1 33 bd a4 fa e7 3d 20 b0 35 bc
       -0.10806133 -0.04388541 0.11327103 -0.011089355
000060 e6 10 30 3e d5 c0 48 3e 05 1f e0 bc 5d 96 81 bd
       0.17193946 0.1960481 -0.027358541 -0.06327508
000070 9d 59 49 3d 5d e3 f1 bd c8 2b de 3d d0 8d e8 bd
       0.049157728 -0.11810944 0.10848194 -0.113551736
000080 5f 36 b8 3d 8d cf 27 be 3d b9 5a bb af 5a 79 bd
       0.089947455 -0.16387768 -0.003337457 -0.0608775
000090 0d de 19 3c 81 90 20 bd 36 51 9a 3d fc f4 ef 3d
       0.00939132 -0.03920031 0.07535021 0.11716649
0000a0 24 0d 90 bc 05 08 0c be 50 09 1b be 93 b6 c4 bd
       -0.017584391 -0.13674934 -0.15140271 -0.09605136
0000b0 ac af de bd fb f1 bd bd 83 85 89 bd 7d 97 ae bd
       -0.108733505 -0.0927467 -0.067149185 -0.08524988
0000c0 55 13 f2 3d 5a 17 2a 3d 3e 76 2f 3e 05 e0 c9 3d
       0.118200935 0.041526176 0.1713495 0.098571815
0000d0 b6 1e 2d 3e 3d 7c 1d 3b ed fe 49 bd 60 4b eb bc
       0.16906247 0.002403035 -0.04931538 -0.028722465
0000e0 ab 92 9c 3c 7f 7a ad 3b b2 a2 5f 3d 90 d1 fb bd
       0.019112905 0.0052941437 0.054598518 -0.1229583
0000f0 52 99 5c 3c a9 e8 3c 3b b4 e8 c3 3c 8e d7 15 3e
       0.013464289 0.00288252 0.023914672 0.14633009
000100 d0 84 a0 3d 56 f2 ea 3d f3 f3 63 bd 18 f6 1d 3e
       0.07837832 0.11472003 -0.05565257 0.15425909
000110 38 26 29 be 34 2a a6 3d f9 6d 2a 3d 8d 5f 4f 3d
       -0.16518486 0.08113518 0.041608784 0.050628234
000120 0d 9e 06 3d 73 e5 b5 bd c6 98 37 be 05 af 2f bc
       0.032865573 -0.088816546 -0.17929372 -0.01072288
000130 6b 0d 26 3e e3 f9 d6 3c fb 9a 3b bd 91 eb e1 3d
       0.16216056 0.026242202 -0.045802098 0.11031259
000140 1e 7e ab bd ae 43 da 3d 1a a5 44 bc 86 32 d5 bb
       -0.08373664 0.1065744 -0.012002254 -0.006506267
000150 ea cc c8 3d d6 64 09 3e 20 9c 41 3e be b1 16 bd
       0.09804709 0.13417372 0.18907213 -0.036790602
000160 3a 7b 06 bc d9 73 5e 3d aa 3f 3b 3e bd 89 14 3e
       -0.00820809 0.0543097 0.18286005 0.14505668
000170 4b c7 90 bd 48 08 9d 3d 83 4a 20 3e 4e 09 a8 3b
       -0.07069262 0.07667595 0.15653424 0.0051280623
000180 d8 4b ec 3d 72 9f b1 3c 17 0f b9 3d b9 37 92 3d
       0.115379035 0.021682475 0.09036081 0.071395345
000190 47 f8 aa 3c 33 17 74 3d 6e 01 d0 3d aa d1 18 bd
       0.020870341 0.059592437 0.10156523 -0.037309326
0001a0 15 d9 9e 3d 7f 17 8f 3d b2 0c 23 3e c8 70 e4 3d
       0.07756249 0.069869034 0.15922812 0.11154324
0001b0 c9 70 44 be 43 b0 f1 3d e4 b9 e5 bd ac 1d f3 3d
       -0.19183649 0.118011974 -0.112170964 0.11870894
0001c0 30 96 65 3c a6 0f 08 be 77 fb c9 3d c2 b8 27 bc
       0.014012858 -0.1328722 0.09862416 -0.010236921
0001d0 07 6e 9d 3b 0b c7 25 3e b3 72 d8 bd ae 18 e4 3d
       0.004804376 0.1618921 -0.10568752 0.1113752
0001e0 0e 1d 15 3e ba eb 22 3d cf 3f d1 3d 76 ec 86 3d
       0.14561865 0.039775588 0.10217249 0.0658807
0001f0 5d dc 02 3d b4 07 c3 3d ad 1f 18 bb 17 4f ed 3d
       0.031948436 0.09522954 -0.002321224 0.11587351
000200 65 74 46 3e b4 46 1d be 7e 9f 5a 3e b3 27 74 bd
       0.19380338 -0.15359002 0.21349904 -0.059608173
000210 44 45 58 bd 8e 30 24 be 50 17 e1 bd 06 0b e4 3d
       -0.05280043 -0.16034147 -0.10990775 0.11134915
000220 21 89 9b 3c e3 50 3b 3c 86 a3 60 bd e1 77 f6 bc
       0.018986287 0.011432859 -0.054843448 -0.03008646
000230 10 0b ab 3c da 91 a4 3d a9 a4 8b bd 77 5e 17 3e
       0.020879298 0.080356315 -0.06818516 0.14782129
000240 42 ec 28 38 c9 90 12 3e 83 b5 37 3e e2 f8 ba 3d
       4.0274354e-05 0.14313044 0.17940335 0.09129502
000250 72 9b 17 be 7e f5 7e 3d 7e f8 84 3c eb 7e 40 3e
       -0.14805391 0.06224584 0.016231772 0.18798415
000260 b1 7f 35 3d bf de d8 bd 69 61 c2 3d 49 40 0b be
       0.04431123 -0.105893604 0.09491236 -0.13598742
000270 10 6f 20 3c 7c 3a 1d 3e 31 4a aa bc 40 30 47 3e
       0.009792104 0.15354341 -0.02078733 0.19452
000280 a0 76 d8 3b 93 55 26 3e 4f 31 07 be ac 8d da 3d
       0.006605938 0.16243581 -0.13202403 0.10671553
000290 bd 0c 0e 3e 78 ef 30 bd 3e 27 06 3e a1 85 0f bc
       0.13872047 -0.043197125 0.13100907 -0.008759887
0002a0 b1 29 f8 3d 42 5c 18 bd c2 87 be bd 9c c4 9a bd
       0.12117327 -0.03719736 -0.093032375 -0.075570315
0002b0 88 5d 04 3e 6c e9 ff 3c c8 26 25 3d 3e bf 3a 3e
       0.12926304 0.031239234 0.040320188 0.18237016
0002c0 bb 58 0e bc d3 a1 13 3e 82 cf 9d bd 75 80 9b 3d
       -0.008688147 0.144172 -0.077055946 0.075928606
0002d0 6a c3 ed 3c a7 bf 54 bd a7 06 02 be 3a d6 43 3e
       0.029023845 -0.051940586 -0.1269785 0.1912469
0002e0 47 5d de 3d 01 a7 48 bc aa e4 e2 bd 5b 56 ca 3c
       0.10857635 -0.012246848 -0.110787705 0.02469938
0002f0 fe 14 80 bb 76 b3 37 bd 41 cd d1 bd 9a 1c bf bd
       -0.0039087525 -0.04484888 -0.10244227 -0.09331627
000300 18 8c 0f 3d 53 6b d0 3d 30 ac 4c 3d a8 2a 63 3d
       0.035045713 0.101767205 0.0499689 0.055460602
000310 3b f4 91 bc de e7 11 3e 07 55 0f 3e 8e df c8 bc
       -0.017816653 0.14248607 0.13997279 -0.024520662
000320 15 f6 9e bd 8a c6 77 bd 28 7b 11 3e 9f a2 ad bd
       -0.0776178 -0.060492076 0.14207137 -0.08478283
000330 b8 77 c0 bb 4b 68 74 3d d3 0d ee 3d a7 27 13 bd
       -0.0058736466 0.059669774 0.116237305 -0.035926487
000340 23 3e d4 3d 6d e5 80 bd 3d fc 9a 3d 20 21 1b 3e
       0.10363414 -0.062937595 0.07567642 0.15149355
000350 f8 05 21 3e bb bc 49 be 53 c2 2c bd c3 33 20 3e
       0.15724933 -0.19700901 -0.04217751 0.15644746
000360 2f 6f 16 be 92 be fa bd ce 1f 4f bd 7f 0d 29 3e
       -0.1469085 -0.1224338 -0.05056744 0.16509055
000370 97 63 a1 bd 14 f2 99 bd 83 c8 c1 3d da 1c ce 3d
       -0.078803234 -0.07516876 0.09462073 0.10064097
000380 7c f7 6c bd e6 6b 88 3c 14 01 1a 3e b9 d3 07 3e
       -0.057853207 0.016653012 0.15039474 0.1326436
000390 9c 31 3b be 74 e1 6c 3d 8b 65 0b 3d 1f 9f 05 bc
       -0.18280643 0.057832196 0.034032386 -0.008155613
0003a0 14 4c b8 3d b0 ff dc 3b 76 4d 75 3b c2 aa a0 3d
       0.08998886 0.0067443475 0.0037430204 0.078450695
0003b0 5b c2 35 3d fa cb 1b 3b 58 d0 1f be 7f 48 85 3d
       0.044374805 0.0023772703 -0.1560682 0.06507968
0003c0 1d a5 0b bd 28 41 da 3d 7c 02 eb bd 04 e1 50 bd
       -0.03409301 0.10656959 -0.11475083 -0.05099584
0003d0 43 2f d0 bc cc e3 ab bd 50 66 c2 3d c7 a6 22 3e
       -0.025413161 -0.08393058 0.09492171 0.15883933
0003e0 f1 da a3 3d f7 ad f8 bd 03 73 aa 3d 59 3d df bd
       0.08000744 -0.12142556 0.08322718 -0.10900373
0003f0 d6 ea 92 bc c7 80 03 bd 43 0d 15 3d 6b 3e ac 3c
       -0.017934244 -0.032105234 0.0363896 0.021025857

model.rnn.bias_ih_l0 f4 [160]
000000 d9 9d 64 bc bb b3 e3 3b f2 c6 eb 3d 6a f9 29 3e
       -0.013953649 0.006948916 0.11512555 0.1659905
000010 1d f0 03 3e 24 74 b6 bc 1d eb 19 3e 90 52 80 bd
       0.12884565 -0.022272177 0.15031095 -0.062657475
000020 c6 71 38 bd 75 e9 8f 3d b2 7e 36 3e 61 05 cc bb
       -0.045030378 0.0702695 0.17821768 -0.006226227
000030 98 fb 62 bd 33 16 0b 3e 13 ea c7 3d 84 80 6a bd
       -0.05541572 0.13582687 0.09761443 -0.05725147
000040 4a 4b 71 bd 95 c5 11 3d c4 58 3e 3e 61 32 e4 3d
       -0.058909692 0.03558882 0.18588549 0.111424215
000050 08 0d 37 3e a6 42 1d 3e 99 c3 ae bd f8 f1 a4 3d
       0.17876065 0.15357456 -0.08533401 0.080539644
000060 a3 aa 82 bd 5c 44 3f 3e 79 d5 52 3e cb b1 c4 3b
       -0.063802026 0.18678421 0.20589246 0.00600264
000070 d4 ee 3d 3e 4e 63 38 3e df d1 36 3d 01 ea 08 3d
       0.18548137 0.18006632 0.044633742 0.03342629
000080 df ba f0 3d 04 a4 e9 ba ee 69 35 3d 17 28 63 3e
       0.11754393 -0.001782537 0.044290476 0.22183262
000090 1b e7 a8 3c a1 ee b2 bd 0f 3a c1 3d 2f 8d 4f 3e
       0.020618012 -0.08736921 0.09434902 0.20268701
0000a0 f4 b7 97 3d 23 7a 86 3c b5 6f 90 bc 3c 9e 8d 3d
       0.07408133 0.016415661 -0.017631391 0.069149464
0000b0 2c 9b 54 3d 97 10 34 3d 68 d1 02 3c b1 99 74 bd
       0.051905796 0.043961134 0.007984497 -0.059716884
0000c0 5c 82 c8 3b bc fb 55 bd 46 59 91 3d 0c e8 99 bd
       0.0061190557 -0.052242026 0.07097106 -0.075149626
0000d0 1d d3 39 3e 59 30 ca 3d 75 15 97 3d 77 b5 99 bd
       0.1814694 0.09872503 0.073771395 -0.07505315
0000e0 ae a5 0b be 0c 1a 14 3e 4c 79 98 3b 37 ff 05 3e
       -0.1363742 0.14463061 0.0046531316 0.13085638
0000f0 f6 fd dc bd de a7 15 be d0 83 17 3e 09 3b c8 bd
       -0.10790627 -0.14614818 0.14796376 -0.09776885
000100 46 01 8f 3d c6 e2 66 bc ee 60 1d bd cf 96 6b bb
       0.06982665 -0.014092153 -0.038422517 -0.0035948043
000110 6c 0f a5 3b f0 48 ba bd f7 c6 c5 bd 7f 8e ef bb
       0.005037239 -0.09095943 -0.0965709 -0.007310688
000120 ac 1d e9 bb 1d b4 16 bd 0c b6 0a 3e ba 67 e1 3d
       -0.007114133 -0.036792863 0.13546008 0.110061124
000130 66 8b 0d 3c 96 90 bc bc 07 6d c0 3d 97 8c d1 3d
       0.008639192 -0.023018163 0.09395795 0.102318935
000140 91 99 a2 bd 9b 26 b6 bd ac 39 84 3d 22 53 99 bd
       -0.07939447 -0.08894082 0.064563125 -0.074865595
000150 55 ab e3 3d 3b 15 47 3e 56 fa 39 3e ca 47 9d 3d
       0.11116663 0.19441693 0.18161902 0.07679708
000160 02 76 c0 bd a4 79 05 be eb 22 08 3c d9 44 17 3c
       -0.09397508 -0.13034683 0.008309106 0.009232723
000170 51 1f 0f 3e ef d6 29 be 02 24 3a 3e 9d 63 28 3e
       0.1397679 -0.16585897 0.18177798 0.1644425
000180 c7 ad c7 3c de 37 fa 3d f0 31 84 bd 09 b8 4f 3e
       0.024374856 0.12217687 -0.06454837 0.20285048
000190 a8 03 b9 3d 4c 87 8c 3d b2 61 9b 3d a3 0f 31 3e
       0.090339005 0.06861743 0.07586993 0.17291121
0001a0 59 a9 7b 3d 0f 94 d5 bd b5 a1 6e 3d f1 79 b7 3d
       0.0614408 -0.104286306 0.058259685 0.08958805
0001b0 3f 78 13 bd 15 e6 c3 3c 06 40 e9 bc e1 1e 17 3e
       -0.036003347 0.023913423 -0.028472912 0.14757873
0001c0 dc ce ab 3d c6 7c 4e be 63 71 a5 bd 9e 4c 83 bd
       0.08389065 -0.20164785 -0.080782674 -0.06411098
0001d0 ed 5c ac 3d d6 94 81 3c 5b 13 a3 3d 6b 32 a5 bd
       0.08416162 0.01581804 0.07962676 -0.08066257
0001e0 3c bb 2a 3e f8 ce 41 3e 69 d2 f9 3d 13 3f f3 3d
       0.16672987 0.18926609 0.12198336 0.11877265
0001f0 20 6e ac 3d 4b cf b1 bd 76 fb 39 3d 99 9b 0c 3e
       0.08419442 -0.08682116 0.045405827 0.13731231
000200 0f db 48 3e 35 53 8c 3d da 18 6f 3e e0 9c 0e bd
       0.19614814 0.06851808 0.23349324 -0.034817576
000210 fe c3 16 3d 8f 7a 24 bd 94 df b8 bd cd 2b b8 bd
       0.036808006 -0.040155943 -0.09027019 -0.08992729
000220 9b 52 27 3e 42 c6 28 3d 24 6e 29 bd a8 1e 87 bd
       0.16340105 0.0412047 -0.041364804 -0.06597644
000230 d2 b4 b4 3d d2 3e ad bd 80 3f 49 3e 8d bc 1c 3e
       0.08823551 -0.08459248 0.1965313 0.15306301
000240 cc 70 5d 3e 38 8b 55 bd c8 ec e1 3d ff c6 b0 bd
       0.2162506 -0.052134722 0.110314906 -0.086317055
000250 0e 2b 57 bd 2f 15 b3 bd de d2 d7 3d 14 6a 8b 3d
       -0.052531295 -0.08744275 0.105382666 0.06807342
000260 ce 35 b8 bd d5 03 ce 3d 6c 9d 04 3e 83 69 25 3e
       -0.089946374 0.10059325 0.12950677 0.16153531
000270 8f 25 88 3d c3 67 e4 3d 37 b4 29 3e 19 05 13 3e
       0.06647789 0.111526035 0.16572653 0.14357413

model.rnn.bias_hh_l0 f4 [160]
000000 ce 29 63 bd 9d 80 93 bd 83 db 6c 3c 73 4e 0f 3e
       -0.05545979 -0.072022654 0.014456633 0.1399477
000010 c9 22 b1 3d 42 e6 99 bd 2e d1 d2 3d b5 8a 44 3e
       0.08649213 -0.07514621 0.10293804 0.19193538
000020 d3 a9 9d 3c a4 5a c4 3d e6 fe 0d 3e da 2b c0 3d
       0.019246018 0.09587601 0.13866767 0.09383364
000030 70 d5 90 3d d2 97 98 3d ef 0e fd 3d 47 37 2a bd
       0.0707196 0.074508324 0.12356364 -0.041556623
000040 63 97 cc bc 5d 2a 43 3e a2 d4 3e 3e 04 84 21 3e
       -0.02497453 0.19059129 0.186358 0.15773016
000050 37 65 ec 3d d3 57 bf 3a 44 e0 fa 3d 6f 09 b1 bd
       0.11542743 0.0014598317 0.122498065 -0.086443774
000060 d9 b4 45 3e 7d 4a 1d 3e 3f 97 de 3b 15 6c eb 3d
       0.19307269 0.15360446 0.0067929323 0.114952244
000070 ce 76 13 3e 29 fb 13 3d 59 5f 47 3d 4e ee 03 3d
       0.14400789 0.036128197 0.048674915 0.032209687
000080 48 f4 4e 3e 58 3a fe bc 06 42 fd 3d 7b 7f 18 3e
       0.20210373 -0.03103368 0.123661086 0.1489238
000090 49 ff 56 3e 91 11 4b bd 6e 8f 92 bd de 67 01 3e
       0.20995821 -0.0495773 -0.07156263 0.12637278
0000a0 86 d1 b0 bd aa ac 9c bd 98 84 71 bd 0e 82 30 3e
       -0.086337134 -0.076501206 -0.058964342 0.17237112
0000b0 38 72 ab bd 30 8c f3 3d 96 a8 df bd 72 96 d6 bd
       -0.08371395 0.11891973 -0.10920827 -0.10477914
0000c0 57 41 94 3c d6 22 25 be a1 d3 9c bd 02 9b b7 3d
       0.018097563 -0.1612657 -0.076575525 0.08965112
0000d0 5b 32 59 3c 70 3c 1e 3d 23 67 b1 bb e4 19 a3 bc
       0.013256635 0.038631856 -0.005413906 -0.019909807
0000e0 62 ef c6 bb 16 b9 d0 bd 14 41 42 3e af 4c 95 bd
       -0.006071017 -0.10191552 0.18970138 -0.07290017
0000f0 5a 93 09 bd 3d 4d bc 3c b6 29 03 3e 66 60 3e 3d
       -0.03358779 0.022986049 0.1280888 0.04647865
000100 74 68 26 3e bb 53 c4 bd d6 3d 13 be 1d e9 6a bd
       0.16250783 -0.09586283 -0.14379057 -0.05735122
000110 ae 3b 8f 3c 73 b8 ac bd 81 ab 14 3d 4f 0f 92 3c
       0.017484512 -0.084336184 0.03629637 0.017829565
000120 6a 80 18 3e 33 20 28 3e 15 9a 6d 3d 9a ed 13 3d
       0.14892736 0.16418533 0.058008272 0.036115266
000130 23 88 82 3d 62 14 bc bd b8 dd 20 bc cd ca 95 bd
       0.06373622 -0.09183575 -0.009818487 -0.07314072
000140 84 33 6d 3c 51 99 ec 3d 9d 07 d4 ba ad 50 10 be
       0.014477614 0.1155268 -0.0016176585 -0.14093275
000150 88 50 24 3e f2 e0 33 3e 35 99 a7 3d e0 51 17 3e
       0.16046345 0.17566279 0.08183519 0.14777327
000160 04 61 41 3e 28 ec 4d 3d 87 52 31 bc 70 e1 62 3e
       0.18884665 0.050274044 -0.010822899 0.2215631
000170 11 83 18 3d b7 c1 78 bc 38 a6 6c 3d 54 3f 40 3d
       0.03723437 -0.015182904 0.057775706 0.046935394
000180 1f 49 70 bd f0 c4 0f bb d4 ae bd bd 09 29 4f 3e
       -0.058663484 -0.0021937452 -0.092618614 0.20230497
000190 48 1b 8b 3c 0a 89 1a 3e 9e ce 85 3d a6 4c 4a 3e
       0.016980782 0.15091339 0.0653355 0.19755802
0001a0 1e f6 d6 bc dd ce b1 3b c9 b0 25 bd ce 1f f6 3d
       -0.026240405 0.0054262714 -0.0404518 0.12017785
0001b0 fc e3 a2 3c ee 7e 0d be b2 63 a7 bd 54 b1 9e bc
       0.019884102 -0.13817951 -0.08173312 -0.019371666
0001c0 99 db d5 bd 02 e8 cd bd 08 d3 29 be 0f fc e0 3c
       -0.104422756 -0.100540176 -0.16584408 0.02746394
0001d0 f1 bf a5 bd 5a 12 09 3e 3d 64 15 3e 66 4c 77 bd
       -0.080932505 0.13385907 0.14589019 -0.060375594
0001e0 1b 8e 4b bd 4a f4 71 3d 7d 68 ca 3b 9f 6a 1c 3d
       -0.04969607 0.059070863 0.0061770068 0.03818762
0001f0 d7 58 47 3e 91 42 35 3e 3e be 9a bd 06 47 21 3d
       0.19467483 0.17701174 -0.07555817 0.039374374
000200 90 d0 92 3d 36 b5 32 bc 94 53 40 bd e1 d3 95 3d
       0.071686864 -0.010907462 -0.046954706 0.07315803
000210 9b 47 ee 3d 18 84 72 3e f1 98 5d 3d e8 89 b1 3b
       0.116347514 0.23683202 0.054100934 0.005418051
000220 62 e7 07 3b 39 d6 d5 bd a2 46 3a 3d 86 f9 10 bd
       0.002073728 -0.1044125 0.045477517 -0.035394214
000230 69 37 5d 3e d4 a3 3d 3d 25 57 75 3d 4b 41 fb 3d
       0.21603169 0.046298817 0.05989756 0.12268313
000240 16 d9 9f 3d 0d 27 8a 3d f4 d8 19 bd b9 e8 3f 3e
       0.07805078 0.067457296 -0.03756042 0.1874112
000250 3d e7 1e 3e a8 c5 dd 3d 07 51 63 bd d4 84 ca 3d
       0.15517898 0.108287156 -0.055497196 0.09888616
000260 50 d0 d8 bd 75 b8 28 3e b6 e5 f9 3d d0 3d 1f bd
       -0.105866075 0.16476615 0.12202017 -0.03887731
000270 d7 9d 8c bd 4d b5 45 3e 16 06 a6 3d e5 54 01 3c
       -0.06866043 0.19307442 0.081066296 0.007893776

model.rnn.weight_ih_l1 f4 [160, 40]
000000 05 76 6d 3d 45 96 93 3d f7 71 9d bd 76 a6 2e bd
       0.05797388 0.07206396 -0.07687753 -0.04263922
000010 28 37 d5 3d 84 53 0a 3e c9 04 79 bd 8a 74 4a 3e
       0.10410911 0.13508421 -0.06079558 0.19771019
000020 33 27 47 3d fb 38 38 be f7 12 32 bd 5e 6e 1c 3d
       0.048621368 -0.17990486 -0.043475118 0.03819119
000030 77 1a 34 3e 44 de c0 bd d1 e7 84 bc 09 4d 76 3e
       0.1758822 -0.09417394 -0.01622382 0.24052824
000040 9b b0 10 be 8e 47 b3 bc 29 9b 54 3b 9f c2 31 bc
       -0.1412987 -0.021884706 0.0032441115 -0.010849624
000050 e3 48 c1 3d 8d bc 88 bc 8f 70 8c 3d 12 11 85 3c
       0.0943773 -0.01669147 0.06857406 0.016243491
000060 e6 ac 9e bd cb 8d 46 3e 3a 87 5e 3e 45 bf 98 bb
       -0.077478215 0.19390027 0.21731272 -0.004661473
000070 a1 51 e3 3c f2 2e 4b be 7b 44 3d be 72 9d f2 bc
       0.027748885 -0.19842127 -0.18483154 -0.029616091
000080 cd 2b 3f 3e c7 9a 3b 3d f4 c5 aa bd f3 e7 58 be
       0.18669052 0.045801904 -0.08338538 -0.21182232
000090 7b 1b 6d 3d 70 62 f1 3d 56 ad 81 bc da 92 9a bc
       0.057887536 0.117863536 -0.015829723 -0.018868852
0000a0 c8 41 15 3e 88 dc a2 3b 66 b2 06 bd a6 a1 00 bc
       0.14575875 0.004970137 -0.032884978 -0.00785104
0000b0 b5 3d 8c bd aa 7b b1 bd b4 07 7d 3d 30 23 d3 3d
       -0.06847707 -0.08666165 0.061774924 0.10309446
0000c0 2c 9c be 3d f5 cd 06 be 23 d7 0f 3d 72 97 c4 bc
       0.09307131 -0.13164504 0.03511728 -0.023997996
0000d0 73 28 41 bd 95 c9 28 be c8 2a 42 3e 7a cf 71 3d
       -0.047157716 -0.16483147 0.18961632 0.059035756
0000e0 2e a6 b6 bd 0b b3 4c bd 6b 0d 9c 3d 3a cf 48 3e
       -0.08918415 -0.049975436 0.07619747 0.196103
0000f0 32 81 50 3e d2 55 da 3d 75 45 9f 3d bc 29 f3 3d
       0.20361784 0.106609 0.0777692 0.118731946
000100 91 66 1b 3e b5 ff 3a 3d b6 6c 08 3e dc c1 62 bd
       0.15175845 0.045654017 0.1332272 -0.05536066
000110 68 fe b6 bc e5 d3 f0 b9 70 04 2e be 3b e5 c4 bd
       -0.022338107 -0.0004593424 -0.1699388 -0.09614035
000120 48 f5 22 3e 33 b7 16 bd f6 72 9b bd 73 c4 b1 3d
       0.1591388 -0.036795806 -0.075902864 0.08680048
000130 27 5c 71 3d 4b dc 08 3e 54 21 64 3c ae 3a 21 3d
       0.058925774 0.13365285 0.013923962 0.039362602
000140 1f 92 66 bd c4 2e 1c 3e 4f 38 c6 3c 53 dc ce bd
       -0.056291696 0.15252215 0.024196772 -0.10100617
000150 11 91 de 3d b5 7b da 3d 2d 52 af 3d 19 49 1e be
       0.10867513 0.106681265 0.08560596 -0.15457572
000160 cf f5 c3 b8 8d 94 04 3d 76 0e 9e bd 54 7c 1a 3e
       -9.34411e-05 0.03236823 -0.07717602 0.1508649
000170 fa 6c 15 bd 02 f0 f5 3c 72 92 3d bd fe fa f5 3d
       -0.03648088 0.030021671 -0.04628224 0.120107636
000180 e2 b8 0b be 13 3b d8 bd 33 45 0d be f2 88 0d be
       -0.13644746 -0.105581425 -0.13795929 -0.13821772
000190 2e 28 fd bd b8 22 09 3d 3e 01 0d 3e 8a 31 09 bd
       -0.12361179 0.033480376 0.13770005 -0.03349451
0001a0 46 d8 f7 bd a9 3a 69 bc c1 e6 55 bd e3 fa 16 3e
       -0.12101798 -0.014235177 -0.052222017 0.14744143
0001b0 29 90 ce bd c9 80 55 bd 09 37 40 3c 4d 2f de 3b
       -0.1008609 -0.052124772 0.011731871 0.006780541
0001c0 05 29 d8 3d e4 f6 13 be 20 46 0d be a8 5e 56 bd
       0.10554699 -0.1444965 -0.13796282 -0.052336365
0001d0 10 51 dd 3b ce 2e c2 bd 98 c5 03 3e 6e 0c f9 3d
       0.006754048 -0.094815835 0.12868345 0.12160574
0001e0 f6 c4 50 3d e3 99 b4 3d 3a ef f3 3d 39 b7 12 be
       0.050969087 0.08818414 0.11910863 -0.14327706
0001f0 20 1b fd 3d fe 7c c3 3d 88 1d e0 3d 17 ba 98 3d
       0.12358689 0.09545325 0.10943133 0.07457369
000200 6f fe c1 bd 7b 5e 97 bd 38 bc 51 bc 81 31 d7 3d
       -0.094723575 -0.073910676 -0.0128012225 0.10507489
000210 ba 26 86 3d 62 ae f9 bd b4 73 bb 3d ce a2 3d bd
       0.06550355 -0.12191464 0.09152928 -0.04629784
000220 4b e7 dd 3d 16 ac a0 bd 96 c9 15 be d8 11 aa 3b
       0.10835131 -0.07845323 -0.1462768 0.0051901154
000230 4f 60 21 3e f1 86 95 bd 92 6d 46 bd 09 b5 f6 3d
       0.15759395 -0.07301129 -0.04844434 0.120462485
000240 4a 70 c6 bd 8f 04 3c bd 39 12 ee 3c af aa 56 bd
       -0.09689386 -0.045902785 0.029061424 -0.05240887
000250 71 10 af bd c9 6d c7 3c 9f 32 b4 3d e1 1c 4e bd
       -0.08548058 0.024344342 0.08798718 -0.05032051
000260 8c d5 ab 3d 12 c6 ce bc 32 8b cc 3d d3 28 c9 3b
       0.0839034 -0.025240932 0.09987487 0.0061389
000270 47 b0 8d bd 6f 19 c8 3b 7e 97 50 bd a2 76 8f bc
       -0.06918388 0.0061065475 -0.050925724 -0.017512623
000280 4a 9d f5 3d 35 25 3c be f6 68 c0 bd 64 82 30 bd
       0.11992891 -0.18373568 -0.0939502 -0.0430931
000290 56 7a 6d bd 06 1b e8 3c 57 de f0 3c ae 18 d7 3d
       -0.057977997 0.028333198 0.029402895 0.10502754
0002a0 ba 48 c2 bd 5d 72 ef bd 1a 80 1b 3e 0a d7 fc bc
       -0.09486528 -0.11691735 0.15185586 -0.030864257
0002b0 81 69 85 3d 97 7d 07 3c 35 78 05 3e 21 be b3 bd
       0.06514264 0.008269689 0.13034137 -0.087764986
0002c0 a9 52 14 be 6f 0f 1b 3d 7b ff 15 3e 3b 6d 8f 3d
       -0.14484657 0.037856515 0.1464824 0.07003256
0002d0 6a b8 8d bd 13 43 28 bd 99 5f 4c bd e7 5a 00 bd
       -0.0691994 -0.041079592 -0.049895857 -0.03133669
0002e0 9b 14 d4 3d 54 ad b1 3b a4 cc f0 bd f9 86 7a 3d
       0.10355493 0.0054222737 -0.11757782 0.061163876
0002f0 6a e6 50 be c8 2f f5 bb bd 53 4a be 39 5b c7 3d
       -0.20400396 -0.0074825026 -0.19758506 0.09734196
000300 87 1c c2 3d 86 8d 4b bd 58 0e 9e 3d 8b c3 98 3a
       0.094780974 -0.049695514 0.077175796 0.0011654956
000310 72 70 92 3d 7e 3c ce 3d ed b7 2d 3e b2 46 38 3e
       0.071503535 0.10070132 0.16964693 0.17995718
000320 5f 45 da 3d d3 7a bb bc d2 b7 7c 3d 56 39 0e be
       0.10657763 -0.022885716 0.061698742 -0.1388906
000330 ff 53 8a bd 31 9c c8 bc 8d c6 04 be 8a 8e ae bd
       -0.06754302 -0.02448854 -0.12966366 -0.08523281
000340 f7 c3 ea 3d 7b 60 24 be c9 ec 4b 3d 69 4e 02 be
       0.114631586 -0.1605243 0.049786363 -0.12725224
000350 56 b8 8a 3d 64 69 51 bd 31 2e 27 3e 0b 3f 2d 3d
       0.067734405 -0.0511259 0.16326214 0.04229645
000360 ac 5c f6 bd 99 43 31 3c b8 64 85 3d 43 60 57 3d
       -0.120293945 0.010819339 0.06513351 0.052582037
000370 06 df fe 3c 38 b3 a5 bd 27 ba e6 3d 2e 2b bb bd
       0.031112205 -0.08090824 0.112659745 -0.09139095
000380 6b b2 8b bd 66 0b 2e 3e 8b 01 8a 3d a7 67 0a bc
       -0.0682114 0.16996536 0.067385755 -0.008447564
000390 dd 6c 1c bd 12 37 eb bc 06 a2 48 3d ee 00 11 3e
       -0.038189758 -0.028712783 0.048982643 0.14160511
0003a0 3c d4 b5 bb 44 ec af bd dc e1 c8 bd c4 03 38 bd
       -0.005548982 -0.08589986 -0.09808704 -0.044925466
0003b0 f1 0a c2 bd 77 17 38 bb 39 ad 26 3e b4 11 04 3e
       -0.09474743 -0.0028090158 0.16277017 0.12897378
0003c0 bd 2e fe bd 44 06 97 3d e5 97 f0 bd a3 4b d7 bd
       -0.12411258 0.07374242 -0.117477216 -0.105124734
0003d0 7d 28 85 3d a9 a1 14 3e 11 dc 23 3e a8 2a 97 bd
       0.06501863 0.14514793 0.16001917 -0.07381183
0003e0 70 e7 09 3e 66 bd 11 be bf 34 c1 bd 03 7d 34 3e
       0.13467193 -0.14232406 -0.09433889 0.17625813
0003f0 c4 7b cf 3d 84 55 ab bd 43 68 c2 3d f6 07 2b bd
       0.10131028 -0.0836592 0.094925426 -0.04175564

model.rnn.weight_hh_l1 f4 [160, 40]
000000 3a af dc 3d a4 d5 b8 3d 10 2a 09 bd 2c 5f e5 bc
       0.10775609 0.09025124 -0.03348738 -0.027999483
000010 3c 83 35 bc 98 91 8d 3d 99 18 11 3e 0b c2 14 3e
       -0.011078652 0.069125354 0.1416954 0.14527147
000020 02 dd 17 3d 57 6c a9 bd 3c 1b 3a be a4 7a 6e 3d
       0.037076004 -0.08272617 -0.18174452 0.058222428
000030 f3 4b c2 bd ca dc e8 bd 9f 0f 15 3e b3 c9 e1 bb
       -0.094871424 -0.11370237 0.1455674 -0.0068904995
000040 ca fa 9e bd 47 9b 2e 3c 46 67 33 be f4 ec de 3d
       -0.07762678 0.010657138 -0.17519864 0.10885039
000050 5d 83 23 bd 88 ff 2a be 8e a9 05 be fd 86 b1 3c
       -0.0399202 -0.1669904 -0.13052961 0.021670813
000060 3b 5b ca 3d 2c 88 d2 3d 48 10 4b 3d 85 e2 e4 3d
       0.09880682 0.10279879 0.049576074 0.11176018
000070 2b ab 30 3e 57 47 21 3e f5 86 c9 bd 8d 55 27 3c
       0.17252795 0.1574987 -0.09840194 0.010213268
000080 fb 30 47 3d 94 81 3a be a1 ab 70 bd 9e 1c dd bc
       0.048630696 -0.18213493 -0.058757428 -0.026991185
000090 52 6e 19 be af 95 99 3d e0 1d 80 bd 31 d6 11 3e
       -0.1498349 0.07499253 -0.06255698 0.14241864
0000a0 c6 12 19 bd 24 85 b1 bc 72 14 bf bd 4c 3e c4 3d
       -0.03737142 -0.021669932 -0.093300715 0.09582195
0000b0 39 99 33 bd 6b 9a 0a bd 62 7a 05 bd 94 65 d7 3d
       -0.043847296 -0.03383867 -0.032587416 0.10517421
0000c0 c4 e2 6f bd 98 d2 9e bd 0e ab c8 bd ad 03 05 3c
       -0.05856587 -0.07755011 -0.09798251 0.008118552
0000d0 87 95 22 3e 14 6e f9 bd d8 32 60 3d 2b dc 87 bd
       0.15877353 -0.12179199 0.05473599 -0.066337906
0000e0 87 df bd bd 1c cb 9b bd b0 c0 4c 3b 11 9a 0d be
       -0.0927115 -0.076070994 0.003124278 -0.13828303
0000f0 1f 37 12 be fc c8 cb bb fb 17 33 be db b1 8b bc
       -0.1427884 -0.0062190276 -0.17489617 -0.017052582
000100 f7 6e a3 3d 76 9c cb bd 28 4f 0b be 6a 21 32 3d
       0.07980149 -0.09941952 -0.13604414 0.043488897
000110 be 77 4a 3d 9b 2b f8 3d 93 9e 2c 3d e0 d2 b2 ba
       0.0494306 0.12117692 0.042143416 -0.0013643168
000120 b2 d1 f8 3d 51 a3 15 be 22 ab 1c be b9 61 01 3e
       0.12149371 -0.14613082 -0.15299657 0.12634934
000130 ae c2 85 bd 60 02 ee 3d da f1 70 3c de f9 eb 3d
       -0.06531273 0.11621547 0.014706099 0.11522268
000140 07 ac 35 be 44 57 f0 bb f9 e5 ab 3c fc 6a 38 bc
       -0.17741404 -0.0073346216 0.020983683 -0.011255976
000150 53 2d aa 3d 7b f1 1a 3c 21 e9 2a 3e e9 0d 40 be
       0.08309426 0.0094569875 0.16690494 -0.18755306
000160 05 cf 4b 3d 78 bc 54 bd 05 b7 d3 bd 04 d7 30 3d
       0.049757976 -0.05193755 -0.103376426 0.043173805
000170 be 94 a3 3d 40 d4 d0 3d b1 16 9b bc 3c 87 8a bd
       0.07987355 0.101967335 -0.018931719 -0.06764075
000180 31 aa a7 3d ac 86 fb 3c 34 99 a3 bd 63 e4 3d be
       0.08186758 0.030703865 -0.079882056 -0.18544154
000190 e1 9a e2 3b 2d dc db 3c ad 49 3d 3e d4 02 1c bd
       0.0069154357 0.026838386 0.18485136 -0.038088635
0001a0 ac a5 25 3d b3 48 39 3e 71 b1 2f 3d f5 7f 04 be
       0.0404412 0.18094139 0.04289383 -0.12939437
0001b0 b4 cc 53 3c be 37 6f 3d 92 12 11 be 2e d0 54 bd
       0.012927223 0.05840277 -0.1416724 -0.051956348
0001c0 d2 62 0e 3e 96 83 5e bd 85 c4 35 3e 0b 60 9e bc
       0.13904884 -0.05432471 0.17750748 -0.019332906
0001d0 8d 53 21 bd c2 8a 40 be 02 00 ac 3d ee 28 c3 3d
       -0.03938632 -0.18802932 0.08398439 0.09529291
0001e0 b6 f7 2d 3b b7 d6 e0 3d 88 81 42 bd 86 49 35 bc
       0.0026545352 0.109784536 -0.047486812 -0.011064893
0001f0 fd fb b9 3d f6 d9 31 3d 1b de 43 3d ce 30 49 bd
       0.09081266 0.043420754 0.04781924 -0.04911881
000200 6d 68 3e 3d 33 1d 16 3e fe 80 13 3d 21 34 e2 3d
       0.046486307 0.14659576 0.03601169 0.11045099
000210 e2 f8 c9 3d 1a b7 0f be 67 c6 0d be 8e f8 59 3d
       0.09861924 -0.14034691 -0.13845216 0.053215556
000220 25 24 00 be 0c 62 13 3e a8 03 52 bd f7 fc ee 3b
       -0.12513788 0.1439287 -0.051273018 0.0072933394
000230 75 5f d4 3d f1 0e fc bd fe 68 93 3c 87 bc 13 3e
       0.103697695 -0.12307537 0.0179944 0.14427386
000240 46 f3 e9 bd c2 88 0f bd 42 fc b1 bd fc 7f f8 3d
       -0.11423354 -0.03504253 -0.086906925 0.12133786
000250 7c 55 ca 3d 0a fa b4 bd c5 2a 9b 3d 72 44 f2 3c
       0.09879586 -0.08836754 0.07576517 0.029573653
000260 d3 87 af 3d d4 02 10 be 24 e7 69 bd a6 58 04 be
       0.08570828 -0.14063579 -0.0571052 -0.12924442
000270 b8 07 54 bc 81 a5 b1 bd 5e 57 bf bd 58 e1 ce bd
       -0.012941293 -0.086741455 -0.09342836 -0.10101575
000280 df b8 87 bd 63 41 9d 3d ca af da bc 00 33 27 bc
       -0.06627058 0.07678487 -0.02669515 -0.01020503
000290 7f 55 67 3d 40 69 00 3d 02 79 29 be f4 34 fb 3c
       0.05647802 0.031350374 -0.16550067 0.030664898
0002a0 7f 7d 01 3e bb d8 e7 bb 61 bd 3a be a2 46 87 3c
       0.12645529 -0.007075397 -0.18236305 0.016513173
0002b0 a0 db 06 be d3 09 43 be 47 fe ce 3c 8f 19 ba bb
       -0.13169718 -0.19046716 0.025267733 -0.0056793164
0002c0 74 b4 c8 3d 81 38 aa 3c f2 4b 1d bd d7 89 e8 3d
       0.09800044 0.020778896 -0.038402505 0.11354416
0002d0 dd 00 82 bc 85 4a e0 bd 51 8d 8e 3d 85 91 50 bd
       -0.015869552 -0.109517135 0.06960548 -0.05092003
0002e0 91 8e 9a 3d de ec 0a 3d 61 31 d3 bd 2f 11 8b bd
       0.07546724 0.0339173 -0.10312153 -0.06790387
0002f0 c5 a0 08 3b 9a af 0f 3d a8 bf 73 3a 62 b3 06 3e
       0.002084778 0.035079576 0.00092982734 0.13154367
000300 51 8f 20 be 87 20 3b bd c4 a8 0a be 7e f3 1a 3e
       -0.15679671 -0.045685317 -0.13540941 0.15131947
000310 6d 93 85 3d 8b bb 96 3d e9 0c 76 bd 50 66 02 3e
       0.0652226 0.0735999 -0.060070906 0.12734342
000320 59 91 40 bb 6a 70 6e bd f6 4f 31 bd a1 d4 2b 3d
       -0.002938351 -0.058212675 -0.043289147 0.041950826
000330 10 16 82 3d 16 b2 b6 3d 2b d7 86 3d ac 3c 18 3d
       0.06351864 0.08920686 0.06584009 0.037167236
000340 3f e2 89 bc 77 41 4d 3d 5f 01 dd bd ef d7 0e be
       -0.016831515 0.05011126 -0.10791277 -0.1394956
000350 3e 1b 19 be 70 54 f0 3d a2 8d 32 3d 98 ee 8c bd
       -0.14951798 0.11734855 0.043592103 -0.06881446
000360 ea bc 6f 3d 83 bc f1 bd 97 ce a6 bd 33 9d 8e bd
       0.058529772 -0.11803534 -0.08144873 -0.06963577
000370 92 6e db bd dd a5 fc bd 8d bc 0d 3d ee b7 92 3d
       -0.10714449 -0.123363234 0.034603644 0.07163988
000380 ee 74 88 3d ee 9f 58 bc 9b 39 b9 bd 1a c0 c6 bc
       0.066629276 -0.013221724 -0.090441905 -0.024261523
000390 bd 58 5c bc f9 6b b2 bd 5e 09 f7 3d 09 20 0a 3e
       -0.013448891 -0.087120004 0.120623335 0.13488783
0003a0 34 80 33 bd b0 1e ba 3d e0 92 b8 3c 70 d0 d7 3b
       -0.043823436 0.090878844 0.022530973 0.006586127
0003b0 82 40 93 bd 9d 0f a6 bd 47 fd 04 3e 65 d3 f1 bd
       -0.07190038 -0.08108447 0.12987243 -0.118078984
0003c0 1d 8c 00 3e 2f 01 69 3d 08 f8 03 3e e6 a6 53 bd
       0.12553449 0.056885894 0.12887585 -0.05167284
0003d0 4f 58 ec 3d 61 81 29 be b8 de 7c bd 7e ee 26 3e
       0.11540281 -0.1655326 -0.06173584 0.16301915
0003e0 ea 72 0f 3a c6 95 4a 3e d1 61 9d 3d f2 e5 29 be
       0.00054721406 0.19783697 0.076846726 -0.16591623
0003f0 b2 a7 3d bd c4 6b 2b be 2d 2f f5 3d da 46 09 3e
       -0.046302505 -0.16740328 0.11971889 0.13405934

model.rnn.bias_ih_l1 f4 [160]
000000 7d 05 19 3c 74 4e 1b bc bb d7 0b 3e a3 a9 16 bc
       0.009339687 -0.009479154 0.13656513 -0.009195718
000010 6e 84 05 bd 21 b0 03 be 7b c7 0f be aa 7e a0 bc
       -0.032596998 -0.12860157 -0.1404094 -0.019591648
000020 32 0a 23 bd 71 43 91 bd a0 6d d8 3d 0a e8 45 3d
       -0.039804645 -0.070929416 0.10567784 0.048316993
000030 3e a7 8f bd 23 5e 4a 3d fb 63 32 3e 5d cd b9 3d
       -0.07014321 0.049406182 0.17420952 0.09072373
000040 25 a2 d6 3d dd 6e 06 3e 8d b4 da bd 85 ee b5 bd
       0.10480145 0.13128228 -0.106789686 -0.088833846
000050 ec 32 8a bd 84 63 1c 3e 73 fa 48 3a c4 38 38 bd
       -0.06747994 0.15272337 0.00076667144 -0.04497601
000060 1a 8e 2b 3e df e2 29 3d 4e 46 c7 bd 5b a8 01 be
       0.16753426 0.041476127 -0.097302064 -0.12661879
000070 5d b8 eb bd 60 c9 e2 bd f4 5e 75 bd ab 0b 89 bd
       -0.11509774 -0.110735655 -0.059905007 -0.066916786
000080 27 e8 f5 3d a4 c8 04 bd c8 6e 44 bc 3a b5 41 bd
       0.1200717 -0.03241791 -0.011989303 -0.04729197
000090 1a 4f db 3c 6d 69 95 3d 8e 7b e2 bd 17 06 9e 3d
       0.026771117 0.07295499 -0.110587224 0.07716005
0000a0 45 51 32 3c a6 eb 5a 3d bd 26 22 bd 19 f3 7b bd
       0.010883634 0.053447388 -0.039587725 -0.061511133
0000b0 2a 96 c6 bd 6a 83 bf 3d 45 82 94 bd c1 30 42 3e
       -0.0969661 0.09351237 -0.072514094 0.1896391
0000c0 8c c1 dc 3d b7 4c 22 bd df 44 5a 3d 5d e0 52 bd
       0.10779104 -0.039623942 0.053288337 -0.0514835
0000d0 27 43 82 3c 7c e1 81 bd 2d df 00 3e 35 28 13 3e
       0.015901161 -0.06341836 0.12585135 0.14370807
0000e0 86 d0 2c 3e 06 85 05 3e f8 5c 8b bc c9 c9 ce 3c
       0.1687642 0.13039026 -0.017012104 0.025242703
0000f0 7b a5 16 3e 09 fc a2 3c 22 e5 1e 3d 99 93 4b 3d
       0.14711563 0.01989557 0.038792737 0.049701307
000100 68 23 16 be cf 2a f6 bb 57 fb 15 3e 49 9b ab bc
       -0.14661944 -0.0075124274 0.1464666 -0.02094807
000110 7b a3 d3 3d c5 5c b4 bd 86 7d 3d 3b 9e 25 8a bd
       0.10333916 -0.08806757 0.002891393 -0.06745456
000120 a7 4e 70 3c 9e 00 95 3d 11 4d 65 bd e3 4b db bc
       0.01466719 0.07275508 -0.0559817 -0.026769584
000130 82 ea 20 be 31 d2 bc 3d 9f b2 7b 3d a9 b1 48 3e
       -0.15714458 0.09219778 0.061449643 0.19599022
000140 78 06 e5 3d a2 ae 59 3d 7f 10 fd 3d 60 e1 07 be
       0.111828744 0.05314506 0.12356662 -0.13269567
000150 56 d3 a0 3d bb c8 20 3d 90 76 6b bd d6 99 22 3d
       0.07852809 0.03925393 -0.057486117 0.03969749
000160 8e 1e 28 bc 47 a3 dc 3d c7 86 a0 bc 58 4b 1f bd
       -0.010261191 0.1077333 -0.019595517 -0.038890213
000170 13 6e be 3d 9d 3d a3 bd fb 83 32 3d e9 df 31 3e
       0.09298339 -0.07970736 0.043582898 0.17370571
000180 bc c4 ce 3d 49 bc 8c 3c ea 74 c1 bd 83 df 15 3d
       0.10096118 0.017179625 -0.09446128 0.03659011
000190 ef 7c 2c 3e 93 f8 d0 bb ef 9b 81 bd 9c 95 f5 bc
       0.16844533 -0.0063772886 -0.0632857 -0.029978566
0001a0 45 b9 7a 3d 5b 39 c7 3d ba db 97 bd bf 0a be bb
       0.061211843 0.097277366 -0.074149564 -0.005799621
0001b0 c7 af 37 3d c0 09 96 3d 76 7a fa 3d 40 c1 31 3c
       0.04484537 0.073260784 0.12230389 0.010849297
0001c0 ed 40 d0 3c 66 c9 0c be cb f9 44 bd 19 97 ce 3d
       0.025421584 -0.13748702 -0.048089784 0.10087413
0001d0 8f ed 8d bc 6a 98 3e bd 14 28 64 bc 72 ca 28 3e
       -0.01732519 -0.046532072 -0.013925571 0.16483477
0001e0 c7 db 5c 3e 4b ff e9 bd d1 c0 4c 3b a1 a9 80 bd
       0.21568213 -0.114256464 0.0031242857 -0.06282354
0001f0 71 84 d3 3d 2d a6 d5 3d 19 a0 a6 bd e6 76 c9 3d
       0.103279956 0.10432086 -0.08136005 0.09837131
000200 40 99 5d 3e 17 38 19 3e 0a a9 44 3e bc 7d e1 3d
       0.21640491 0.14962803 0.19205108 0.1101031
000210 89 33 db bd 8f c3 a2 3d 08 18 9e 3d af 37 a8 3c
       -0.10703189 0.07947456 0.07719427 0.020534365
000220 da ff d8 3d 30 6a fd 3b 46 38 db 3d 9f 1f 59 3e
       0.10595675 0.007733606 0.10704093 0.21203469
000230 ad d1 88 bd 30 f3 80 3d c5 1b d4 bc 79 69 6b 3d
       -0.066806175 0.06296384 -0.025892148 0.057473633
000240 43 99 ea 3c 32 c9 9c bd 63 23 93 bd 57 6c bc bc
       0.028637534 -0.076555625 -0.07184484 -0.02300088
000250 2b ce cb bd 7b 68 2f 3d a3 3a 8d bd a6 09 d4 bd
       -0.09951433 0.04282425 -0.0689595 -0.10353403
000260 1e 5c cc bd a6 9e 93 b8 70 c4 0b 3e c9 13 2c bd
       -0.099785075 -7.039057e-05 0.13649154 -0.042011056
000270 3b b9 80 3d ac 0b 4b 3e d4 4f 71 bd 06 43 a1 3d
       0.0628533 0.19828671 -0.05891402 0.07874112

model.rnn.bias_hh_l1 f4 [160]
000000 2b a3 da 3d 3f cb 7a bd a9 b4 b5 bd 75 46 35 3e
       0.10675653 -0.061228987 -0.08872349 0.17702658
000010 a2 40 d9 3d be d5 fa bb b4 d4 f6 bd f2 36 30 bc
       0.10608031 -0.0076548746 -0.12052289 -0.0107552875
000020 34 07 ad bd 4b b2 4c bd 02 e6 ca 3d 3f 36 07 3e
       -0.084486395 -0.04997472 0.09907152 0.13204287
000030 24 09 04 be 1f 68 ca 3d cc 22 90 bb 05 d1 93 3d
       -0.12894112 0.09883141 -0.0043986794 0.07217602
000040 22 50 2c 3c d2 27 27 bd 67 99 63 bd 18 8a f3 3b
       0.010517152 -0.04080946 -0.055566218 0.0074322335
000050 78 96 8d bd 2d 33 de 3c 04 ac 55 bd 58 6d 50 bd
       -0.06913465 0.027124012 -0.052166 -0.05088553
000060 6d 0f df bb ac b6 d9 3c e4 97 f0 3c a5 2a b7 3d
       -0.006807259 0.026576363 0.029369302 0.08943681
000070 af 1c 3e 3c f1 fc de bd fa 8b 1c 3e 94 3c 77 bd
       0.011603518 -0.108880885 0.15287772 -0.060360506
000080 cf 04 75 3d 7b c4 a5 3d 13 ef c1 3d d5 97 2e bd
       0.05981904 0.08094116 0.09469428 -0.042625267
000090 50 25 14 3e 06 9c b0 bd 82 05 0c 3e 10 38 52 3e
       0.14467359 -0.08623509 0.13673976 0.20529199
0000a0 f1 08 64 3d 6c b3 6d 3d 94 12 bc bd bd 7a a9 3d
       0.05567259 0.05803244 -0.09183231 0.082753636
0000b0 b2 b5 9d bd ef c5 64 bd 2a 32 f0 bd 9f 2f 90 bd
       -0.07700671 -0.055852827 -0.11728318 -0.07040333
0000c0 8d 9c 1c 3e bb 2f 13 3e 36 2f 08 3e 51 2c 8d bd
       0.15294094 0.14373676 0.1329926 -0.06893218
0000d0 ac d9 1c 3d 09 c7 0b 3e 77 da 77 3d 11 b9 a5 bd
       0.038293526 0.13650145 0.06051108 -0.08091939
0000e0 f1 90 f8 3c 60 90 3b bd 71 f0 a4 3d 74 b3 a3 3c
       0.030342551 -0.045791984 0.08053673 0.01998303
0000f0 3b 4f 9a 3d d4 af 1f 3e 3f d5 92 bd c7 52 e5 3d
       0.07534643 0.15594417 -0.0716958 0.11197429
000100 6a ef e0 bd 88 13 b5 bd 6d af e6 3d d9 e3 d1 bc
       -0.109831646 -0.08841616 0.112639286 -0.025621342
000110 9c 56 dc bd 0b 21 c8 bc f4 cc 2c 3d 75 13 89 bd
       -0.10758707 -0.024429819 0.042187646 -0.06693164
000120 3d ef 18 be a0 50 d6 bd 3e cb d6 bc 63 ae 3b 3c
       -0.14935012 -0.10464597 -0.02621996 0.011455151
000130 f7 ca dd bd c9 d8 18 3d 0a c2 18 3e 30 9a 16 3e
       -0.10829728 0.037316117 0.1491777 0.14707255
000140 47 5a b1 bd dc b9 3b be e2 aa 11 3e da 7c 09 be
       -0.08659797 -0.18332618 0.14225343 -0.13426533
000150 be ca fb bb 56 e2 c0 bd 40 4a f8 bd 91 1f 8b 3d
       -0.007684081 -0.0941817 -0.12123537 0.0679313
000160 c2 51 f8 3d 7e aa 8d 3d 55 0f bb bc 5d 02 c9 3d
       0.12124969 0.069172844 -0.02283446 0.09814904
000170 f6 9a 3c bd 1c f8 45 bd 07 74 52 bd de 27 bc 3d
       -0.04604622 -0.04833232 -0.051380184 0.091872916
000180 1d 77 14 be 76 72 df bb 50 c5 00 3e 5a 46 0f 3e
       -0.14498563 -0.0068190647 0.12575269 0.1399168
000190 e3 ac 70 bd 15 17 fc bb 69 8f 58 bd 6d 9a b9 3d
       -0.058758628 -0.0076931813 -0.05287114 0.090626575
0001a0 05 29 c1 3c a6 1d 8c 3c 69 76 18 3e ba 91 82 bd
       0.02357913 0.017103981 0.1488892 -0.063754514
0001b0 33 62 0a 3e e7 a3 68 bd 39 26 f7 bd e5 7b 08 3d
       0.13514023 -0.056796934 -0.12067837 0.03332128
0001c0 ff 97 d2 3d 1a 0f 1e ba ff 3b cf 3d c3 d2 18 3e
       0.10282897 -0.0006029472 0.10118865 0.14924149
0001d0 23 19 a7 3d dd 8a b8 3c 1b c8 95 3d 56 81 00 3d
       0.08159091 0.022527153 0.07313558 0.031373344
0001e0 e2 ae a1 3c 58 b2 00 bd 85 0a cd bd 58 e4 b0 bd
       0.019736711 -0.03142008 -0.10011772 -0.08637303
0001f0 33 8e ec bc 50 4e a4 bd a4 2a 04 3e 58 21 3e 3e
       -0.0288764 -0.080227494 0.12906891 0.18567407
000200 63 d7 46 3e 60 ac 99 bd 48 6c bb 3d 0b fc 32 3d
       0.19418101 -0.07503581 0.091515124 0.0436974
000210 9f 5e 8d bd 2e d2 7f bd 18 e4 03 3e 70 3e 21 3e
       -0.06902813 -0.062456302 0.1287998 0.15746474
000220 64 e1 60 3e 91 cb 5a 3e 13 6c 43 3d b0 96 43 3e
       0.2196098 0.21366717 0.04771049 0.19100451
000230 85 6d e7 bd a2 87 37 3e 0a e3 cb 3c 89 51 25 bd
       -0.11300186 0.17922834 0.024888534 -0.04036096
000240 fa ce 27 3e 3e 91 53 3c 54 ad e0 bd 13 40 f3 bd
       0.16387549 0.012913046 -0.1097056 -0.118774556
000250 43 23 0c be 60 f4 49 3d 64 af 77 3d 16 56 02 3e
       -0.13685326 0.04930532 0.06047 0.12728152
000260 dc d4 ed 3d e4 e2 b8 3d a8 bb 7f bd 02 96 0b 3e
       0.11612865 0.09027651 -0.062434822 0.13631442
000270 0a cf c6 3d f8 02 37 bc bf cf 1c bd d6 aa 4b 3d
       0.09707458 -0.011170141 -0.03828406 0.04972347

exp_avg f4 [1, 40]
000000 93 8f b6 3a 3e fd a1 ba f2 93 0c b8 dc 37 24 3a
       0.0013928286 -0.0012358797 -3.3516386e-05 0.0006264427
000010 a0 e5 b9 ba af 94 83 ba 04 d1 68 ba 6e d5 bb 3a
       -0.0014182813 -0.0010038818 -0.00088812434 0.0014330575
000020 c8 2d ba 3a 21 3d b9 3a b3 12 bb ba 46 4d ba ba
       0.0014204318 0.0014132598 -0.001427254 -0.0014213703
000030 22 20 1a b8 b9 8f a5 ba 81 34 b9 3a 88 53 ba 3a
       -3.6746387e-05 -0.0012631334 0.0014130027 0.0014215568
000040 2f 42 b8 ba ba ce ba 3a cd 35 91 b8 ab a5 bc 3a
       -0.001405781 0.0014252283 -6.92416e-05 0.0014392635
000050 1a 42 11 b8 75 35 b2 ba 06 f9 ba ba 35 bc 94 ba
       -3.4632256e-05 -0.0013596254 -0.0014264889 -0.0011347594
000060 ef f1 a4 3a 4b ee b9 ba df 8f 29 38 e7 4c 36 ba
       0.0012584309 -0.0014185397 4.042673e-05 -0.00069542084
000070 4d d3 18 b9 cf f8 c4 36 e7 44 81 b6 c0 a9 c6 39
       -0.00014574565 5.8702203e-06 -3.852521e-06 0.00037891977
000080 97 74 8b ba 58 99 b4 ba f0 90 ba ba fd a2 b8 3a
       -0.0010639605 -0.001377861 -0.0014233869 0.001408666
000090 8e 6d 1b b7 fd cb b8 3a 0d 83 86 3a d4 ba b9 3a
       -9.264228e-06 0.0014098879 0.0010262445 0.0014170059
